data/trained_model.pth (torch, 691403 bytes, 8 tensors)

conv1.weight f4 [32, 3, 8, 8]
0	0x3d4ea2fe	0.05044841
1	0x3d755bca	0.05990199
2	0x3ad8d030	0.0016541537
3	0x3cde7abe	0.027158137
4	0x3d6233c3	0.055225145
5	0x3d1a190c	0.037621543
6	0xbd963689	-0.073346205
7	0x3cd337ba	0.025783408
8	0x3c79d88b	0.015249382
9	0x3cb7a679	0.022418248
10	0xbc188945	-0.009310071
11	0xbbf89153	-0.0075856834
12	0xbd95c2b5	-0.07312528
13	0x3cd3ef85	0.025871048
14	0xbcfef1aa	-0.031121094
15	0xbd532356	-0.05154737
16	0x3bc9dd40	0.0061604083
17	0xbcf96a46	-0.030446183
18	0x3c8b1374	0.01697705
19	0x3d82eefd	0.0639324
20	0x3d132a96	0.035929285
21	0x3d3f530d	0.046710063
22	0xbc766a11	-0.015039937
23	0xbd0bb208	-0.03410533
24	0x3d28cbd8	0.041210026
25	0x3ca44c28	0.020055845
26	0xbd8d91a9	-0.06912548
27	0x3b14a7e6	0.0022683083
28	0x3cfd2932	0.030903433
29	0x3cce956c	0.025217734
30	0x3c5aa5c9	0.01334519
31	0x3d114f2b	0.03547589
32	0x3d19f6c2	0.037588842
33	0xbc985a3f	-0.01859772
34	0xbcbf7881	-0.02337289
35	0xbc0dcb6b	-0.008654456
36	0xbd1b1129	-0.037858162
37	0xbd8ae3a8	-0.06781703
38	0xbd4d88c2	-0.05017925
39	0x3d2234bc	0.039601073
40	0xbd021cc1	-0.031765703
41	0x3d8315fd	0.06400678
42	0x3cf11297	0.02942781
43	0xbbf4a7aa	-0.007466276
44	0xbd0463ac	-0.032321617
45	0xbd7b8869	-0.061409388
46	0x3cb017c1	0.021495702
47	0xbcd14584	-0.025545843
48	0xbc2e3e1d	-0.010634926
49	0xbcc84cb8	-0.024450645
50	0x3c7ba269	0.015358546
51	0xbc37e873	-0.011224854
52	0x3b7ac836	0.0038266308
53	0xbc99686c	-0.01872655
54	0xbc5cd787	-0.01347912
55	0xbd9a5bcb	-0.07537039
56	0xbd8a83bc	-0.067634076
57	0xbd8ebe3b	-0.06969877
58	0xbd8fed92	-0.07027735
59	0x3d51f2fd	0.051257122
60	0x3d828dde	0.06374715
61	0x3c8e3e7e	0.017363783
62	0xba3e5230	-0.00072601717
63	0x3d80acb9	0.06282944
64	0x3d664108	0.056214362
65	0x3d19fe5c	0.03759609
66	0xbd72a60b	-0.059240382
67	0xbd580111	-0.052735392
68	0x3ca0f55f	0.019648252
69	0xbd89f6a8	-0.06736499
70	0xbd6d5bff	-0.057949062
71	0x3d3adccf	0.045620736
72	0x3c4f3a5e	0.012648193
73	0x3bc78eca	0.00609002
74	0x3d87583f	0.066086285
75	0xbd31ead8	-0.043436855
76	0xbd07fd67	-0.033200648
77	0xbbb528bd	-0.005528538
78	0xbba13bf0	-0.004920475
79	0x3cc60c4c	0.024175785
80	0x3d7df433	0.062000465
81	0xbccf174f	-0.02527967
82	0x3c043945	0.008070295
83	0x3d3b0419	0.045658205
84	0x3d52b49a	0.051441766
85	0x3d7f4a8e	0.06232696
86	0x3d1fa2e8	0.03897372
87	0xbd480f76	-0.04884287
88	0x3c10e458	0.008843504
89	0xbc0b7982	-0.008512856
90	0x3bbfbdc8	0.005851481
91	0xbd6f97b4	-0.058494285
92	0x3bc9972c	0.0061520543
93	0xbd7ca819	-0.061683748
94	0x3cd10923	0.025517052
95	0x3d0ddc39	0.03463385
96	0xbd0c2738	-0.03421709
97	0xbd034db3	-0.03205652
98	0xbd815038	-0.06314129
99	0x3c681055	0.01416405
100	0xbc95f4a5	-0.018305132
101	0x3d1acd3f	0.037793394
102	0xbc96515a	-0.018349338
103	0x3d7beac9	0.061503205
104	0x3d67acf0	0.05656141
105	0xbd800cce	-0.06252442
106	0xbd31bc73	-0.04339261
107	0xbd893b39	-0.06700749
108	0x3d6e76b2	0.058218665
109	0xbd1a5efc	-0.03768824
110	0xbd5e9465	-0.05434074
111	0xbd21c65f	-0.039495822
112	0x3d4226cd	0.047400285
113	0xbcbf3a44	-0.023343213
114	0xbd0c2b38	-0.034220904
115	0xbd802c24	-0.06258419
116	0xbb6997de	-0.0035643498
117	0x3d6dab4d	0.058024693
118	0xbd9648e2	-0.0733812
119	0xbc8cf5fc	-0.017207138
120	0xbd99d49a	-0.07511254
121	0xbc3b051d	-0.011414793
122	0xba2b98e5	-0.00065459154
123	0xbd00e14b	-0.031464856
124	0x3c647b9a	0.0139454845
125	0x3d74cee2	0.05976761
126	0xbd0957dc	-0.033531055
127	0xbcc56c00	-0.02409935
128	0xbd9db13f	-0.07699823
129	0xbcd5d9ef	-0.026104895
130	0x3d1c11ca	0.038102902
131	0xbd9242bf	-0.07141637
132	0xbbcfe1dd	-0.0063440637
133	0x3d12d4c9	0.03584746
134	0xbd6d7434	-0.057972148
135	0xbd23f1fb	-0.040025692
136	0xbd7cb601	-0.06169701
137	0xbd260934	-0.04053612
138	0x3d340727	0.043952134
139	0x3d2bb934	0.04192467
140	0x3d87afef	0.066253535
141	0x3b25dabf	0.0025307385
142	0x3ad8440b	0.001649977
143	0x3d46bc77	0.048519578
144	0xbd8bf7b1	-0.06834353
145	0xbc090dc6	-0.0083651
146	0xbce56bbc	-0.028005473
147	0x3d170d7e	0.0368781
148	0xbd8801cd	-0.066409685
149	0x3d73a105	0.059479732
150	0x3d117b68	0.03551808
151	0x3cbac86c	0.022800647
152	0x3ce45a4c	0.027875088
153	0xbd1bb4cf	-0.03801423
154	0x3d560b4e	0.052256875
155	0xbd92eb0a	-0.071737364
156	0xbd1f9893	-0.038963865
157	0x3d3165bc	0.043309912
158	0x3cb8276d	0.022479737
159	0xbd0ff74b	-0.035147946
160	0x3c188a9e	0.009310393
161	0xbd378579	-0.044805024
162	0xbd8063e8	-0.062690556
163	0x3c808e20	0.01569277
164	0xbd82d1f2	-0.063877
165	0xbd2c0e4b	-0.04200582
166	0xbcd074a3	-0.025446242
167	0x3d218c77	0.0394406
168	0xbd272258	-0.040804237
169	0x3adb7990	0.0016744602
170	0x3cefa6b0	0.029254287
171	0x3d34deb1	0.044157688
172	0x3d55db49	0.05221108
173	0xbd60698a	-0.05478815
174	0xbceb2dda	-0.028708387
175	0xbd2b2eab	-0.041792553
176	0x3d622345	0.055209417
177	0xbd53c769	-0.051703844
178	0x3b82ce7e	0.003991901
179	0x3d065828	0.032798916
180	0x39dc24b7	0.00041989025
181	0xbd308eec	-0.04310505
182	0xbd2992fb	-0.041399937
183	0xbc561f7f	-0.013069033
184	0x3d40dceb	0.047085684
185	0xbd956772	-0.07295121
186	0x3c592808	0.013254173
187	0xbc82caca	-0.015965838
188	0x3ced1fa8	0.028945759
189	0xbc1df0ef	-0.009639963
190	0xbcd68576	-0.026186686
191	0xbd83520b	-0.06412133
192	0xbd929587	-0.07157426
193	0x3d6ce431	0.057834808
194	0x3d7f74d5	0.06236728
195	0xbca6d059	-0.02036302
196	0x3d2c6833	0.04209156
197	0x3d494cba	0.049145438
198	0x3cb64de8	0.022253945
199	0xbd9c964d	-0.07645855
200	0xba841d64	-0.001007956
201	0xbd375236	-0.044756137
202	0x3cd57322	0.026055876
203	0xbd002740	-0.03128743
204	0xbc871d4c	-0.016493462
205	0xbd6e1037	-0.058120932
206	0x3c18f10e	0.009334816
207	0xbd675b7c	-0.05648373
208	0x3d7d38ca	0.061821736
209	0x3d00c410	0.03143698
210	0xbc9f2b8a	-0.01942994
211	0xbcc31bc8	-0.023816958
212	0x3d0154d7	0.03157505
213	0xbd8d1e35	-0.06890527
214	0xbc4e92f5	-0.0126082795
215	0xbd05d1c8	-0.032670766
216	0xbd1b8448	-0.03796795
217	0xbd34af3d	-0.044112433
218	0x3b2eac85	0.0026653123
219	0x3d19c0fe	0.037537567
220	0x3bfd1025	0.007722872
221	0x3d094e5d	0.033522
222	0x3acbf727	0.0015561328
223	0x3cf53135	0.02993069
224	0xbd533783	-0.051566612
225	0x3d555489	0.052082572
226	0x3d102933	0.03519554
227	0xbc8eab95	-0.017415801
228	0xbd95b9cb	-0.07310828
229	0x3d7d7451	0.061878506
230	0xbca1e085	-0.01976038
231	0x3c77e4f2	0.015130268
232	0x3c6678f7	0.014066926
233	0xbd876fdc	-0.06613132
234	0xbd543300	-0.05180645
235	0x3bcabf58	0.0061873607
236	0xbc8253a2	-0.01590902
237	0xbd2f7d32	-0.042844005
238	0xbd0153f7	-0.031574216
239	0x3cbf8ac0	0.02338159
240	0xbc50c862	-0.0127430875
241	0x3d8364ad	0.06415687
242	0x3c846141	0.016159656
243	0xbc348a40	-0.0110192895
244	0xbd23af53	-0.039962124
245	0xbd2a1402	-0.041522987
246	0x3aa3cec6	0.0012497536
247	0xbad4c19c	-0.0016232016
248	0x3d18da9b	0.037317853
249	0xbcef4983	-0.029209858
250	0xbd8f1ddc	-0.06988117
251	0x3d32c602	0.043645866
252	0x3c8bd881	0.01707101
253	0xbd8290f2	-0.063753024
254	0xbd7e6f37	-0.06211778
255	0x3d45f162	0.048325904

conv1.bias f4 [32]
0	0xbc59c57d	-0.013291714
1	0x3ce11abc	0.027478568
2	0x3d1c2fa6	0.03813138
3	0xbd908c9d	-0.0705807
4	0xbd8dbe5a	-0.06921072
5	0xbd1e1ca8	-0.038601547
6	0x3d87fa71	0.06639565
7	0xbd27c2f5	-0.04095741
8	0x3ca73f6e	0.020415988
9	0x3d450aaf	0.04810589
10	0x3d32353f	0.04350781
11	0xbd1c2c27	-0.038128044
12	0xbcb87187	-0.022515072
13	0xbc8a7f77	-0.016906483
14	0xba4c2c28	-0.0007788562
15	0xbd8d2c0a	-0.068931654
16	0xbd8bbb92	-0.068228856
17	0xbd4545dd	-0.04816233
18	0x3d38e48c	0.045139834
19	0x3d63d846	0.055626176
20	0x3d010783	0.031501304
21	0xbd208b39	-0.039195273
22	0xbd442f86	-0.047896884
23	0xbd89f660	-0.067364454
24	0x3c0c7f3e	0.008575259
25	0x3d3bda3f	0.045862433
26	0x3d0010c2	0.03126598
27	0x3cd4f8bc	0.025997512
28	0xbc8cfc75	-0.017210225
29	0x3ceaa06c	0.028640948
30	0xbd78bb55	-0.06072553
31	0x3d6a71ee	0.057237558

conv2.weight f4 [64, 32, 4, 4]
0	0x3c987a9e	0.018613156
1	0x3cac97cf	0.021068482
2	0x3aafb455	0.0013405184
3	0x3bd34ad5	0.0064481297
4	0xbb999dfa	-0.0046880217
5	0xbc72c574	-0.014817584
6	0xbd27479f	-0.040839788
7	0xbcfae092	-0.030624662
8	0xbb07ceda	-0.0020722658
9	0x3d2c6ea3	0.0420977
10	0xbb6eaf83	-0.003642053
11	0xbce38cd1	-0.027777107
12	0xbd1fd4dd	-0.03902136
13	0x3cbb3ae2	0.022855226
14	0xbbf3be0c	-0.007438427
15	0x3ca1ab29	0.019734936
16	0xbcac4bcd	-0.021032238
17	0xbc5497d0	-0.012975648
18	0x3d178617	0.036993112
19	0xbcf6aad1	-0.030110748
20	0x3cc18700	0.023623943
21	0x3ce2fbcb	0.027707955
22	0x3c381394	0.011235137
23	0x3c218af3	0.009859788
24	0x3c9a143b	0.018808475
25	0xbd0ca6ad	-0.034338642
26	0xbcec4dc1	-0.02884567
27	0x3caa2ca7	0.020773245
28	0xbce90825	-0.028446266
29	0x3c80f674	0.015742518
30	0x3b7c06c4	0.003845618
31	0x3c11f394	0.008908171
32	0xbd300571	-0.04297394
33	0xbc593027	-0.013256109
34	0xbd1d7264	-0.03843917
35	0xbd1705df	-0.036870833
36	0xbba6e5f1	-0.005093329
37	0x3cd569c5	0.026051411
38	0x3c90bed7	0.017669125
39	0x3c11176a	0.00885568
40	0xbbba4e6c	-0.005685618
41	0xbc8f6ed3	-0.0175089
42	0xbc6fba05	-0.014631753
43	0x3cf518b1	0.029919
44	0x3cb1468b	0.021640083
45	0xbd01d6b9	-0.031698916
46	0xbcda5b9b	-0.026655009
47	0xbcb9fc4f	-0.022703318
48	0xbcf75d01	-0.030195715
49	0x3c3740d8	0.011184894
50	0xbd2f9df0	-0.04287523
51	0x3d062aab	0.032755535
52	0x3d1e0150	0.03857547
53	0x3d0d390b	0.03447823
54	0xbcff14af	-0.031137792
55	0xbca38c16	-0.01996426
56	0x3d157eb6	0.036497794
57	0xbc8fa37c	-0.01753401
58	0xbd287d22	-0.04113496
59	0xbbacdbe7	-0.005275238
60	0xbca4d055	-0.020118872
61	0x3beff73a	0.007323173
62	0xbcf6695a	-0.030079532
63	0x3b42e2a0	0.002973713
64	0x3cdbfb71	0.026853295
65	0x3d00dead	0.03146236
66	0xbd1a1f9f	-0.037627812
67	0xbc5dd5ab	-0.013539712
68	0xbce06d25	-0.027395794
69	0x3c7600df	0.015014856
70	0x3d1707e9	0.036872778
71	0x3b29baf7	0.0025898793
72	0x3cb5be56	0.022185486
73	0xbd13a217	-0.036043253
74	0x3934b923	0.00017235106
75	0xbce903cc	-0.028444193
76	0x3cfc7108	0.030815616
77	0xbb5e3135	-0.0033903841
78	0xbd2aca21	-0.04169667
79	0xbd055526	-0.032551907
80	0x3c365dc6	0.011130756
81	0xbc90c28d	-0.017670894
82	0xbd121171	-0.035661165
83	0xbcdad6f2	-0.026713822
84	0xbc565055	-0.013080676
85	0x3cddc3f4	0.027070977
86	0x3b088583	0.0020831532
87	0x3cdbb418	0.026819274
88	0xbd00c6c9	-0.031439576
89	0x3c284695	0.010270734
90	0x3aadee60	0.0013269894
91	0xbd31ffae	-0.043456726
92	0x3cdf5a1d	0.027264649
93	0xbd10c0f3	-0.03534026
94	0x3c403842	0.011732163
95	0x3ba7564e	0.005106724
96	0xbc96ff8c	-0.018432401
97	0x3c0e3ac8	0.008681007
98	0xbcbaa05a	-0.02278154
99	0xbd2da145	-0.042390127
100	0xbcac8fae	-0.021064606
101	0xbd066444	-0.032810465
102	0xbca97abf	-0.020688413
103	0x3cffcf05	0.031226644
104	0xbd48f890	-0.049065173
105	0xbd2390ac	-0.03993289
106	0xbd3abac8	-0.045588285
107	0xbcdfac51	-0.027303847
108	0x3ce1e0b1	0.027572962
109	0xbd1bb3bf	-0.038013216
110	0x3cbb65fb	0.022875777
111	0xbca728e1	-0.020405235
112	0xbc96243c	-0.018327825
113	0x3ce29415	0.027658502
114	0xbd22fe7e	-0.039793484
115	0x3cee6d4a	0.029104847
116	0xbc102447	-0.008797712
117	0xbd286f0b	-0.041121524
118	0x3d09fa15	0.033685762
119	0xbd1e5039	-0.038650725
120	0x3bc03474	0.005865628
121	0x3cfd3d8a	0.030913133
122	0xbd01d906	-0.03170111
123	0x3c5083b6	0.012726715
124	0xbd0f2d80	-0.0349555
125	0xbc31c45f	-0.010850041
126	0x3cd16104	0.025558956
127	0xbc82a045	-0.015945563
128	0x3cb6ae2e	0.022299852
129	0xbd06b26d	-0.032885004
130	0x3c08937d	0.008335945
131	0xbc86a0f6	-0.016434174
132	0x3c2b13fd	0.010441777
133	0x3ca4265e	0.020037826
134	0x3c399623	0.011327299
135	0x3bbf6421	0.0058407937
136	0xbd601970	-0.05471176
137	0x3cfdb240	0.030968785
138	0xbc286cd4	-0.010279853
139	0x3caa9cde	0.020826753
140	0xbcbebe19	-0.023284005
141	0x3ca4270e	0.020038154
142	0x3a91a8d8	0.0011112941
143	0xbcfb6487	-0.030687584
144	0xbc5c5226	-0.01344732
145	0x3ca430f1	0.020042868
146	0x3c89db51	0.016828211
147	0x3c901c4d	0.01759162
148	0xbca9ae2f	-0.02071294
149	0x3b8eea53	0.0043614297
150	0x3c97e634	0.018542387
151	0xbc8058f8	-0.015667424
152	0xbb151130	-0.002274584
153	0xbc5c53a9	-0.0134476805
154	0xbc935c3c	-0.017988317
155	0xbd172ff6	-0.036910973
156	0x3b95e396	0.0045742495
157	0xbd061134	-0.03273125
158	0xbc67079c	-0.014100935
159	0x3a3153fb	0.0006764528
160	0xbd0a4b8d	-0.033763457
161	0xbbf28103	-0.0074006333
162	0xb99cbdd3	-0.0002989607
163	0x3c36f086	0.011165744
164	0xbce77ec7	-0.028258694
165	0x3ce13920	0.02749306
166	0x3c6c9a88	0.01444114
167	0x3b5ade67	0.0033396722
168	0xbc152e03	-0.009105208
169	0xbd0458af	-0.032311138
170	0x3cbefeb9	0.02331482
171	0x3c62df39	0.013847166
172	0x3d1cea5f	0.03830945
173	0xbc10d8bf	-0.008840739
174	0xbc434fe3	-0.011920902
175	0xbc9ef9e1	-0.01940626
176	0xbc140bd1	-0.00903602
177	0xbc0b696f	-0.008509024
178	0xbd02ef34	-0.031966403
179	0xbb54426a	-0.0032388219
180	0x3bed5097	0.007242273
181	0xbd43c326	-0.04779353
182	0xbc29beed	-0.010360462
183	0xbcdcb170	-0.026940078
184	0xbd2ede0f	-0.04269224
185	0x3d180d66	0.037122153
186	0xbb85502a	-0.004068394
187	0xbd15e23a	-0.0365927
188	0xbb5aed29	-0.0033405519
189	0x383db192	4.5226487e-05
190	0x3cdc9b7b	0.026929608
191	0x3cf6f81e	0.030147608
192	0x3ccde834	0.025135137
193	0xbc132416	-0.0089807715
194	0xbd0d3f00	-0.03448391
195	0xbbc106b3	-0.005890691
196	0x3cfad006	0.030616771
197	0x3d051306	0.032488845
198	0xbcf349a3	-0.029698199
199	0xbcaceec0	-0.021109939
200	0xbaf8f72a	-0.0018994559
201	0xbd315ff7	-0.04330441
202	0xbc6c08d1	-0.014406399
203	0x3d07596b	0.03304426
204	0xbd347dc9	-0.04406527
205	0x3d24ec88	0.040264636
206	0xbca33380	-0.019922018
207	0x3c681f93	0.014167684
208	0xbc2640bd	-0.010147271
209	0xbabbf127	-0.0014338837
210	0xbcfa5602	-0.03055859
211	0x3d1acb19	0.037791345
212	0x3c8be345	0.017076144
213	0x3cec370b	0.02883484
214	0xbbad77db	-0.005293829
215	0x3cf46361	0.029832544
216	0xbc2e4dc2	-0.010638656
217	0xbd089dd6	-0.03335365
218	0xbbb1f091	-0.005430289
219	0x3cde32d0	0.027123839
220	0x3d2ed858	0.04268679
221	0x3cfedfd9	0.031112598
222	0xbcd0d89a	-0.025493909
223	0x3d199724	0.037497655
224	0x3cdc600b	0.026901266
225	0xbd18e24d	-0.037325192
226	0x3d231d8d	0.039823104
227	0xbd024431	-0.031803314
228	0xbd37cd2b	-0.044873398
229	0xbbbeb3d5	-0.0058197775
230	0xbbc656a5	-0.0060528093
231	0xbd019cb1	-0.031643573
232	0x3d0fadd6	0.035077892
233	0xbccfc8a8	-0.025364235
234	0x3b9267dd	0.004467948
235	0xbc94d89f	-0.0181697
236	0x3c686416	0.014184019
237	0x3b611cb3	0.0034349381
238	0xbd1399fc	-0.036035523
239	0xbcac0b8d	-0.021001602
240	0x3c452e09	0.012034901
241	0x3cb8fd00	0.022581577
242	0xbd112ce1	-0.03544319
243	0xbb32dfdb	-0.0027294073
244	0xbc86b4eb	-0.01644369
245	0xbc90d004	-0.017677315
246	0xbd3529e4	-0.044229403
247	0xbd01ca24	-0.031686917
248	0xbd1f1710	-0.038840353
249	0x3c36a10f	0.011146798
250	0xbc2acd6d	-0.010424954
251	0xbcce126a	-0.025155265
252	0xbb22bd6f	-0.002483215
253	0x3d0375c0	0.032094717
254	0x3caa536a	0.020791728
255	0x3caf1451	0.021371992

conv2.bias f4 [64]
0	0x3c8716cf	0.016490368
1	0xbc9768b3	-0.018482542
2	0xbbab66ca	-0.0052307593
3	0xbc938943	-0.018009787
4	0xbb80ca85	-0.003930392
5	0xbcd83506	-0.026392471
6	0x3acc0108	0.0015564272
7	0xbcee6200	-0.029099464
8	0xbd3905d8	-0.04517159
9	0xba808f7f	-0.000980839
10	0xbc43165b	-0.011907185
11	0xbcd92a8a	-0.026509542
12	0x3caf4dc1	0.02139938
13	0xbc90dd32	-0.0176836
14	0xbc2dd683	-0.010610226
15	0x3b13c943	0.0022550381
16	0xbc8d8e9f	-0.017279921
17	0x3bcbe817	0.0062227356
18	0x3c53eee0	0.01293537
19	0xbd391bb5	-0.04519244
20	0x3af8013d	0.0018921267
21	0xbada13c0	-0.0016637966
22	0xbc87bb13	-0.016568696
23	0xbccf2a17	-0.025288625
24	0xbcf6ad20	-0.03011185
25	0x3c37db2b	0.011221687
26	0xbd63de17	-0.055631723
27	0xbd0fe67c	-0.035131916
28	0x3cfd7c27	0.03094299
29	0xbd38859b	-0.04504929
30	0xbc8c91a4	-0.01715929
31	0xbd2a50c7	-0.04158094
32	0xbcd1afb3	-0.025596475
33	0xbb2c1efa	-0.002626358
34	0xbc3da50b	-0.011574994
35	0xbc43126c	-0.011906248
36	0xbc5d358f	-0.013501539
37	0xbcdd36c7	-0.027003659
38	0xbc496f43	-0.012294593
39	0xbc1e8985	-0.009676342
40	0xbc7d449b	-0.015458251
41	0xbd66b997	-0.056329336
42	0xbcff2651	-0.0311462
43	0xbd486401	-0.048923496
44	0x3a9e82fe	0.0012093482
45	0xbcb929b4	-0.022602893
46	0xbc3979f3	-0.011320579
47	0x38bcd692	9.0045054e-05
48	0x3bd6ff82	0.0065612206
49	0x3ba504df	0.005035981
50	0x3c8fe46d	0.017564977
51	0xbcdf28ab	-0.027241072
52	0xbb1214a2	-0.002229013
53	0x3cb272f9	0.021783339
54	0xbd320bea	-0.043468393
55	0xbd1ea274	-0.038729146
56	0x3cdb2e31	0.026755424
57	0xbb496a22	-0.0030733426
58	0x3bc1130f	0.0058921645
59	0xbae2da38	-0.0017307466
60	0xbd6d4596	-0.05792769
61	0xbd03aaf4	-0.032145455
62	0xbca8dc8f	-0.020612983
63	0x3c830ea0	0.015998185

fc3.weight f4 [512, 256]
0	0x3d3d8741	0.046271566
1	0xbc034848	-0.008012839
2	0x3c8fe3e3	0.01756472
3	0xbd07df89	-0.033172164
4	0xbcf017ec	-0.029308282
5	0xbc7fb875	-0.015607943
6	0xbd244cc0	-0.040112257
7	0xbd60a49e	-0.05484449
8	0x3b379b6d	0.0028016225
9	0x3ca0131f	0.019540368
10	0xbce02360	-0.027360618
11	0x3b03afab	0.002009372
12	0x3cddaee3	0.027060932
13	0x3d452173	0.048127603
14	0xbd735e0a	-0.059415855
15	0xbd166b2a	-0.036723293
16	0x3cdef9d7	0.027218742
17	0xbd8fe387	-0.07025819
18	0xbc39cfcd	-0.0113410475
19	0xbc299897	-0.010351322
20	0x3caa77a2	0.020808998
21	0x3c77de9f	0.015128761
22	0xbd7ddd13	-0.06197841
23	0x3d751439	0.05983374
24	0xbc9858fa	-0.018597115
25	0xbd2c6dc2	-0.04209686
26	0xbd882360	-0.06647372
27	0xbd253bbc	-0.04034017
28	0xbd82cd81	-0.06386853
29	0xbd4f8395	-0.050662596
30	0xbc6a6301	-0.014305831
31	0x3d4e3021	0.050338868
32	0xbd2b8949	-0.041878972
33	0x3d5edc7f	0.0544095
34	0xbc3a35f6	-0.011365404
35	0x3d2dbc52	0.042415924
36	0x3d412317	0.047152605
37	0xbd67a421	-0.05655301
38	0x3ba79f45	0.005115422
39	0x3ca7a117	0.020462556
40	0xbd83bccc	-0.064324945
41	0xbcb74733	-0.022372818
42	0x3d3f2731	0.046668235
43	0xbcd7142e	-0.02625474
44	0x3d81eaf9	0.063436456
45	0xbd6a0f18	-0.0571433
46	0xbd351d93	-0.044217657
47	0xbd2b8e3d	-0.041883696
48	0xbccd8191	-0.025086196
49	0x3d71e487	0.05905583
50	0x3aee883b	0.0018198559
51	0x3cace967	0.021107389
52	0xbc36b22c	-0.011150878
53	0xbd6980bc	-0.057007536
54	0xbce7f32c	-0.028314196
55	0x3c588e87	0.013217575
56	0xbd514843	-0.051094305
57	0xbd2770a8	-0.04087892
58	0xbce5b23a	-0.028039087
59	0x3d3fb8d2	0.046807118
60	0xbd7b362c	-0.06133096
61	0xbc8e43a0	-0.01736623
62	0xbd1837ca	-0.03716258
63	0x3c87d13b	0.016579261
64	0xbc2280d4	-0.00991841
65	0x3d3e28dc	0.046425685
66	0x3bc71e3a	0.0060766013
67	0xbc0bf965	-0.008543347
68	0xbc621e05	-0.0138011025
69	0xbd177402	-0.036975868
70	0xbc91dd2e	-0.017805662
71	0xbd192684	-0.037390247
72	0xbb940a75	-0.004517848
73	0xbd5b0ef9	-0.053481076
74	0xbcf4d7fe	-0.02988815
75	0xbd7b83d7	-0.06140503
76	0xbc575103	-0.013141873
77	0xbd0b7277	-0.03404471
78	0x3d35e6e7	0.04440966
79	0xbd03e5dd	-0.032201637
80	0x3d220da3	0.039563786
81	0xbbfd6235	-0.0077326545
82	0x3c7bac4a	0.015360901
83	0x3d3f1537	0.04665109
84	0xbc9efad0	-0.019406706
85	0x3cc90a5c	0.024541073
86	0xbd548e43	-0.051893484
87	0xbd9f30da	-0.077729896
88	0xbd103ae6	-0.03521242
89	0x3c0b530b	0.008503686
90	0xbd089af1	-0.03335089
91	0x3c98f49d	0.018671328
92	0x3d59dbfa	0.0531883
93	0xbce9af67	-0.028526021
94	0xbd0e1653	-0.03468926
95	0x3b51a569	0.0031989461
96	0xbd3b8dba	-0.045789458
97	0xbd04a484	-0.032383457
98	0xbb9d3c54	-0.0047984514
99	0xbd0cb42a	-0.034351505
100	0xbd4234bf	-0.047413584
101	0x3af53e34	0.0018710555
102	0x3c2467eb	0.010034542
103	0x3cb7d162	0.022438709
104	0x3d04accd	0.03239136
105	0x39ca962d	0.00038640332
106	0xbd0848aa	-0.033272423
107	0xbb4ef075	-0.003157643
108	0xbd7bad51	-0.061444584
109	0x3d612491	0.054966513
110	0xbd99db09	-0.07512481
111	0x3cb641aa	0.022248108
112	0x3d0ae69d	0.033911336
113	0x3c95ece3	0.018301433
114	0x3d21d269	0.039507303
115	0xbbe4c8c9	-0.0069819433
116	0x3b9142df	0.0044330205
117	0xbcc57d94	-0.024107732
118	0xbc9329f3	-0.017964339
119	0xbd2ecce1	-0.042675857
120	0xbd0d635a	-0.034518577
121	0x3c886a35	0.016652206
122	0xbca33a68	-0.019925311
123	0x3d1c596a	0.03817121
124	0xbca02e8a	-0.019553442
125	0x3d0c4676	0.034246884
126	0xbd5974b4	-0.053089812
127	0x3cf59a5c	0.02998083
128	0x3d6b91b9	0.05751202
129	0xbd32eff4	-0.04368587
130	0x3c57849c	0.013154175
131	0x3b9d2466	0.004795599
132	0xbd09d874	-0.03365369
133	0xbc44b748	-0.012006588
134	0xbcdd76c7	-0.027034177
135	0xbd1dbaad	-0.038508106
136	0x3d0cd080	0.03437853
137	0xbd06661f	-0.032812234
138	0xbcc220a9	-0.023697214
139	0x3d85a0f6	0.065248415
140	0xbd48ee83	-0.049055588
141	0xbc9a04ce	-0.01880112
142	0x3c71a992	0.014749901
143	0x3d5fdbe8	0.05465308
144	0xbd89fe81	-0.06737996
145	0x3d412283	0.047152054
146	0x3badcc98	0.0053039305
147	0x3cdd7c1b	0.027036717
148	0x3d0062e0	0.031344295
149	0x3d388001	0.04504395
150	0xbd4da88c	-0.050209567
151	0xbd6f358c	-0.058400676
152	0x3c206a86	0.009791022
153	0x3d14cba6	0.036327027
154	0x3bbb6e81	0.00571996
155	0x3cf28241	0.029603126
156	0x3c9b3968	0.018948272
157	0xbd1d1885	-0.03835346
158	0x3c0d3ecb	0.008620928
159	0x3cb3059f	0.021853266
160	0x3cec6ba6	0.028859925
161	0xbd7904a8	-0.060795456
162	0xbcf37bd4	-0.029722132
163	0x3d71d666	0.059042357
164	0x3c38bded	0.011275751
165	0xbd734119	-0.059388254
166	0xbc701040	-0.014652312
167	0xbd3281d4	-0.043580845
168	0xbc867bcf	-0.016416458
169	0xbcf7bcfa	-0.030241478
170	0xbd3955b0	-0.045247734
171	0xbd4c72c4	-0.049914137
172	0x3ca7370c	0.02041199
173	0xbc64256b	-0.013924937
174	0xbd1108d6	-0.035408817
175	0xbd45ce00	-0.04829216
176	0xbd2e43e0	-0.0425452
177	0x3ca33dd7	0.019926948
178	0xbcbabd61	-0.022795381
179	0xbd62ab71	-0.05533928
180	0xbc085a68	-0.008322336
181	0xbd1bb087	-0.038010146
182	0x3c479d18	0.01218345
183	0xbd5b446a	-0.05353204
184	0x3d8b7d7b	0.06811043
185	0xbd2ac869	-0.041695032
186	0xbd3c7b60	-0.046016097
187	0xbd5570d8	-0.05210957
188	0x3d053ee7	0.03253069
189	0x3d088d26	0.033337735
190	0xbd0c96d6	-0.034323536
191	0x3bf679f2	0.007521861
192	0x3c3b440b	0.011429797
193	0x3d684ca6	0.056713723
194	0x3d15f34b	0.036608975
195	0x3d5db298	0.0541254
196	0xbd1bbd81	-0.038022522
197	0x3acd1740	0.0015647188
198	0xbd66e599	-0.056371305
199	0xbc13612f	-0.008995338
200	0x3d1298bf	0.0357902
201	0xbcce33a4	-0.025171109
202	0xbc1d26fb	-0.009591813
203	0x3d77b9e9	0.060480032
204	0x3c97f142	0.018547658
205	0xbcc5f5d3	-0.02416507
206	0x3d31e1ea	0.04342834
207	0x3d5b0ffa	0.053482033
208	0x3d54526b	0.051836412
209	0x3d07c0dc	0.03314291
210	0x3cb86ddf	0.022513328
211	0xbbfc057a	-0.0076910825
212	0x3c97157c	0.018442862
213	0xbd542800	-0.05179596
214	0xbd36dd33	-0.044644546
215	0xbd620e8a	-0.055189647
216	0x3aa0cabf	0.0012267454
217	0xbbf428dc	-0.00745116
218	0xbd8e7e37	-0.06957667
219	0xbb8ee6c1	-0.004361004
220	0xbd3dd43b	-0.046344977
221	0xbd3a115e	-0.04542672
222	0xbd4dee45	-0.05027606
223	0x3cda1ac0	0.026624084
224	0xbcd0acdc	-0.02547305
225	0xbd584fe0	-0.05281055
226	0xbcdbf890	-0.026851922
227	0x3d5b5cdd	0.05355536
228	0x3d42065b	0.047369342
229	0x3d7b1c9a	0.061306573
230	0xbd860123	-0.065431856
231	0xbc48d024	-0.012256656
232	0xbd0e810a	-0.03479103
233	0xbc9d8ab9	-0.019231187
234	0xbd68587e	-0.056725018
235	0x3cdde127	0.0270849
236	0x3d87a9a4	0.06624153
237	0x3d1d3766	0.03838291
238	0x3d41959c	0.04726182
239	0x3b6191ff	0.0034419296
240	0xbcf68450	-0.030092388
241	0xbd6d7178	-0.05796954
242	0x3c016ede	0.007899968
243	0x3ce429d8	0.027851984
244	0x3d2ecf05	0.042677898
245	0x3bcf4500	0.006325364
246	0xbb0fd83a	-0.002194895
247	0x3cc6eed4	0.024283804
248	0x3d4b14f7	0.04958054
249	0x3c71865c	0.014741506
250	0x3d6c9516	0.057759367
251	0x3cd6a24d	0.026200438
252	0x3c6c2074	0.014412034
253	0x3d1604cb	0.036625665
254	0x3ce48076	0.027893286
255	0x3d0694cb	0.032856744

fc3.bias f4 [512]
0	0x3adf6bb2	0.0017045646
1	0xbc029ed2	-0.007972436
2	0xbd376a87	-0.044779327
3	0xbd33b590	-0.043874323
4	0xbcfd1d46	-0.030897748
5	0xbd9ae221	-0.07562662
6	0xbd3a2c30	-0.045452297
7	0xbb8683da	-0.0041050734
8	0x3d66526a	0.05623094
9	0xbd2e64ac	-0.042576477
10	0x3d09e0a7	0.03366151
11	0xbd7b3467	-0.06132927
12	0xbb7b423c	-0.003833904
13	0x3cd9c2d7	0.026582165
14	0x3cd2f01f	0.025749264
15	0xbc404e20	-0.011737376
16	0x3cb6cc8e	0.022314336
17	0xbca3c87c	-0.01999306
18	0xbd948474	-0.07251826
19	0xbd895f16	-0.06707589
20	0x3cf1e872	0.029529784
21	0xbd26fda9	-0.040769253
22	0xbd1bd4f9	-0.038044903
23	0x3d011b44	0.031520143
24	0xbd1bea5a	-0.038065292
25	0xbd8dd3f1	-0.0692519
26	0x3c505c18	0.012717269
27	0x3a7b98a1	0.00095976336
28	0xbcff3767	-0.031154348
29	0x3b82224c	0.0039713737
30	0x3c6f9944	0.014623944
31	0xbd4373a9	-0.047717724
32	0x3d38c2a2	0.04510749
33	0xbd62632a	-0.05527035
34	0xbc82a977	-0.015949948
35	0x3cfa2e2b	0.030539593
36	0xbd1871d1	-0.03721792
37	0xbd7345f5	-0.059392888
38	0x3bbc83fb	0.005753038
39	0xbd0f9fc5	-0.035064477
40	0xbce95e90	-0.028487474
41	0x3d6be52e	0.05759161
42	0x3d41fe61	0.047361735
43	0x3b8f2545	0.0043684565
44	0xbcac857e	-0.021059748
45	0xbd4cc785	-0.049994964
46	0xbcbd5067	-0.023109628
47	0xbc66e53d	-0.014092741
48	0x3c7b4d3f	0.015338241
49	0x3d3ed858	0.04659304
50	0xbd449082	-0.047989376
51	0xbba72344	-0.0051006395
52	0x3cbbbd64	0.022917457
53	0xbd0ec696	-0.034857355
54	0xbd1e0970	-0.03858322
55	0x3d06c9ac	0.032907173
56	0x3bcd002e	0.006256125
57	0xbd16f938	-0.036858767
58	0x3d2597b3	0.040427875
59	0x3d6a7e8e	0.0572496
60	0x3c2c678a	0.0105227325
61	0x3c8a5533	0.01688633
62	0xbd7f4fd7	-0.062332
63	0xbd158994	-0.036508158
64	0xbd7ee3b7	-0.062228885
65	0xba591a42	-0.0008281806
66	0x3d14ddaa	0.036344208
67	0x3c0e5e9e	0.008689551
68	0x3c82c922	0.015965048
69	0x3ca468e2	0.020069543
70	0xbcbfc26b	-0.023408135
71	0x3d5cff14	0.0539542
72	0x3d95b381	0.07309628
73	0xbd657c80	-0.056026936
74	0xbd0a0bda	-0.03370271
75	0x3c3603d1	0.011109308
76	0x3d0d9712	0.0345679
77	0xbd25f68a	-0.04051832
78	0x3cad616a	0.021164615
79	0xbd0d7224	-0.03453268
80	0x3b52bd2f	0.003215622
81	0xbcd7900d	-0.026313806
82	0x3cb17934	0.02166424
83	0xbd77cd3a	-0.060498454
84	0xbd3123d4	-0.04324706
85	0x3d8f95d1	0.07010997
86	0xbcd8de3f	-0.026473163
87	0x3d46f559	0.048573826
88	0xbb80544b	-0.0039162985
89	0x3d85a9ba	0.065265134
90	0x3d785505	0.060627956
91	0xbbf1f13c	-0.0073834937
92	0x3d637666	0.055532835
93	0x3bba3cb7	0.0056835073
94	0xbd7cd7ca	-0.06172923
95	0xbaa13d2a	-0.0012301554
96	0x3d3870c4	0.045029417
97	0x3d0df66e	0.03465884
98	0x3d0e40f1	0.0347299
99	0xbd144a06	-0.036203407
100	0x3d56aa5d	0.052408565
101	0xbd80411a	-0.06262417
102	0xbd4583dc	-0.048221454
103	0x3d21edf4	0.03953357
104	0xbccbb7d1	-0.024867924
105	0x3d16c633	0.03681011
106	0xbc67085c	-0.014101114
107	0xbcd1e759	-0.02562301
108	0x3da4a6ac	0.08039603
109	0xbd49e63b	-0.04929183
110	0x3d8cab0e	0.068685636
111	0x3d5d81dc	0.05407892
112	0xbccf09d9	-0.02527325
113	0x3c992916	0.01869635
114	0xbd2dbf18	-0.04241857
115	0xbd6a77c6	-0.05724313
116	0x3d08e059	0.03341708
117	0x3c80866d	0.0156891
118	0xbb887b98	-0.004165124
119	0x3d38d708	0.045126945
120	0x3c090d4e	0.0083649885
121	0x3d1d4343	0.038394224
122	0x3c8f013d	0.017456645
123	0xbd1d8482	-0.038456447
124	0xbda17d65	-0.07885245
125	0xbda58d1b	-0.08083554
126	0x3ccc0c96	0.024908345
127	0x3d51fc26	0.051265858
128	0xbd70bd1d	-0.058774102
129	0xbcebc501	-0.028780462
130	0x3d123b9b	0.035701375
131	0xbb3d48c0	-0.0028882474
132	0x3d145106	0.036210082
133	0xbd42087a	-0.047371365
134	0x3c4ed8d9	0.012624943
135	0xbd6056bb	-0.054770213
136	0xbd01d005	-0.031692524
137	0x3aa98e15	0.001293602
138	0xbd6af0fd	-0.05735873
139	0xbd88f65d	-0.06687615
140	0x3d097a68	0.033564
141	0xbd8fbeca	-0.07018812
142	0x3cb2c2ec	0.021821462
143	0x3cd65a4d	0.026166106
144	0x3d2e7733	0.042594146
145	0xbd2f2fd7	-0.042770233
146	0xbd13ffdb	-0.036132675
147	0xbd97df4f	-0.074156396
148	0xbd80032d	-0.06250606
149	0xbc2c9ee4	-0.010535929
150	0x3d36c560	0.044621825
151	0x3d291e74	0.041288808
152	0x3cacadbf	0.021078942
153	0xbd8dc3e8	-0.06922132
154	0x3cbb7ded	0.022887195
155	0xbd126de2	-0.035749324
156	0x3c64c873	0.013963806
157	0xbd061fde	-0.032745235
158	0xbd4647fc	-0.048408493
159	0xbd29f15a	-0.041489936
160	0x3d33734f	0.04381114
161	0x3cdeb4db	0.027185848
162	0x3d99f030	0.07516515
163	0xbd1c033a	-0.038089015
164	0xbd2b3a4d	-0.041803647
165	0x3cb6543d	0.022256965
166	0x3d245735	0.04012223
167	0xbd09d015	-0.033645708
168	0xbd01ce87	-0.0316911
169	0xbd16da04	-0.03682901
170	0xbdbb0e25	-0.09133557
171	0x3cfae407	0.03062631
172	0xbcc64ff8	-0.024208054
173	0xbd34d5e3	-0.04414929
174	0x3d595f50	0.053069413
175	0xbcbb3d90	-0.022856504
176	0xbce246fe	-0.027621742
177	0xbbc0b293	-0.0058806627
178	0x3d3309b3	0.04371042
179	0xbc7c261c	-0.015389945
180	0x3d827054	0.06369081
181	0xbd97465f	-0.07386469
182	0x3b441b1b	0.0029923383
183	0xbc44726d	-0.011990172
184	0x3cc57493	0.024103438
185	0xbd8f711b	-0.07003995
186	0x3d3497d4	0.044090107
187	0x3cf87407	0.030328764
188	0xbd35cece	-0.044386677
189	0x3c9ed792	0.019389901
190	0xbd3db464	-0.046314612
191	0x3cbda8e9	0.023151832
192	0xbcccc0f5	-0.024994353
193	0xbd8ce914	-0.068803936
194	0xbd690daa	-0.056897797
195	0x3ca72d72	0.020407412
196	0xbd11eb55	-0.03562482
197	0x3a6279a4	0.00086393417
198	0xbc6659f8	-0.014059536
199	0xbd8630a0	-0.06552243
200	0xbc7a2673	-0.015267956
201	0xbd71c05c	-0.05902134
202	0x3c3089f8	0.010775082
203	0x3d0fad68	0.035077482
204	0xbc80b559	-0.015711473
205	0x3d2fd674	0.042929128
206	0x3c875a93	0.016522681
207	0x3d465fac	0.048431084
208	0xbcfac9f5	-0.030613879
209	0xbbae70d7	-0.00532351
210	0x3cae0d0c	0.021246456
211	0x3cf08325	0.02935941
212	0xbca8870a	-0.020572204
213	0x3d74a20e	0.05972486
214	0x3c64a8f6	0.013956299
215	0xbd7039ea	-0.05864898
216	0xbcc883d1	-0.024476917
217	0xbd1692b9	-0.03676102
218	0xbd35eaba	-0.044413306
219	0xbd5dc156	-0.054139458
220	0x3d778bb0	0.06043595
221	0x3b81f7d9	0.0039663133
222	0xbcf72cf5	-0.030172804
223	0x3cd7d81d	0.026348168
224	0xbcdd45d9	-0.027010845
225	0xbca3daad	-0.020001734
226	0x3d038f49	0.03211907
227	0x3d451704	0.048117653
228	0xbcf6579a	-0.030071069
229	0xbbbf0e4b	-0.0058305613
230	0xbd0d3269	-0.034471903
231	0x3cbfb61d	0.023402268
232	0xbc4b8fff	-0.012424468
233	0xbc068b21	-0.008211882
234	0x3b80dd68	0.0039326437
235	0xba50bedf	-0.00079630123
236	0x3ceafbce	0.028684523
237	0x3d6c1f8d	0.057647277
238	0x3d2d4f03	0.04231168
239	0x3b21f743	0.002471403
240	0xbcd18398	-0.025575444
241	0xbb9e8d2c	-0.0048386063
242	0x3cabc96c	0.020970069
243	0xbc52ac4e	-0.012858463
244	0x3d5cee9d	0.053938497
245	0x3cfab005	0.03060151
246	0x3bda526d	0.006662658
247	0xbd80c507	-0.0628758
248	0x3cec2e60	0.028830707
249	0x3abc9014	0.00143862
250	0x3d6f702d	0.05845659
251	0xbb4b7c2d	-0.0031049356
252	0x3d1077e0	0.03527057
253	0x3c9bfa2b	0.019040188
254	0xbd62fc94	-0.05541666
255	0x3bba56d3	0.00568662

fc4.weight f4 [3, 512]
0	0x3c6bd454	0.014393885
1	0x3c0703fc	0.008240696
2	0x3c6e2736	0.014535716
3	0x3c5ccdc7	0.0134767955
4	0x3d21c3ce	0.039493375
5	0x3c93b276	0.018029433
6	0x3c15a124	0.009132657
7	0x3d3a69a8	0.045510918
8	0x3d29d2b2	0.0414607
9	0xbd4052b1	-0.04695386
10	0x3d0cc1e9	0.034364615
11	0x3ba61938	0.0050689243
12	0x3cc2ca74	0.023778178
13	0xbd0b7d4b	-0.034055036
14	0xbd1e5616	-0.038656317
15	0x3c724b8c	0.01478852
16	0xbd46e6ff	-0.04856014
17	0x3bb9282a	0.00565054
18	0xbaa3ca4d	-0.0012496203
19	0x3948a534	0.0001913503
20	0x3d09e57d	0.033666123
21	0xbbb3b523	-0.0054842397
22	0x3cf5a6bd	0.029986734
23	0x3c9eb936	0.019375425
24	0xbd0075f7	-0.0313625
25	0xbcffbc71	-0.031217786
26	0xbd0db2ec	-0.03459446
27	0xbce63780	-0.028102636
28	0xbc3d8f1f	-0.011569767
29	0x3a982663	0.001160812
30	0xbc591338	-0.013249211
31	0x3c8dc538	0.017305955
32	0x3d3cac4f	0.046062764
33	0x3d3ec1cd	0.04657154
34	0x3ba8a748	0.0051468946
35	0xbc621284	-0.01379836
36	0x3d024391	0.031802718
37	0xbb2e0b81	-0.002655715
38	0xbcb16eba	-0.021659244
39	0xbb41c148	-0.0029564667
40	0x3c817da4	0.01580698
41	0xbccffa0c	-0.025387786
42	0x3cfc1e02	0.030776028
43	0xbbb1160d	-0.00540424
44	0xbce2c5ef	-0.027682273
45	0x3c3bccff	0.011462449
46	0x3a907675	0.0011021631
47	0xbc8d155f	-0.017222105
48	0xbc839c9e	-0.016065892
49	0xbd11250f	-0.035435732
50	0x3c3ba244	0.011452261
51	0x3bd00d25	0.006349223
52	0x3d476607	0.048681285
53	0x3c4e08b8	0.012575321
54	0xbc2bd827	-0.010488546
55	0xbd0e41c8	-0.034730703
56	0x3bbcebf0	0.0057654306
57	0xbcf3bf05	-0.029754171
58	0xbca786aa	-0.020449955
59	0xbbde0e21	-0.0067765866
60	0x3bdec800	0.006798744
61	0xbc3d5808	-0.011556633
62	0x3d2afd86	0.041745685
63	0xba0ac360	-0.00052933954
64	0x3cd33de5	0.02578635
65	0xbc77b234	-0.0151181705
66	0x3c238c9e	0.009982256
67	0xbaa0b17e	-0.0012259928
68	0xbccec97a	-0.025242556
69	0x3bb44239	0.0055010584
70	0xbd08d323	-0.03340448
71	0xbcf8ba20	-0.030362189
72	0x3bd41a7b	0.0064728833
73	0x3d114256	0.035463654
74	0xbcb07ebf	-0.021544812
75	0x3bc415b1	0.005984031
76	0x3ad3cdbb	0.0016159335
77	0xbaf48d9a	-0.0018657923
78	0xbca5f9b4	-0.02026067
79	0xbc056c2c	-0.008143466
80	0xbca019c7	-0.019543542
81	0xbc5e8f44	-0.013583962
82	0xbcf78c91	-0.030218394
83	0x3c7cddeb	0.015433769
84	0x3d044263	0.032289874
85	0xbc242ef2	-0.010020958
86	0x3d2307b4	0.03980227
87	0x3d0cef9d	0.0344082
88	0xbbbefa22	-0.005828158
89	0x3cc02164	0.023453422
90	0xbcbc7ade	-0.023007806
91	0x3ca1fdd9	0.019774364
92	0xbc3eeb8e	-0.01165284
93	0xbd08e639	-0.033422682
94	0x3cdc16ef	0.026866404
95	0xbcb02d0a	-0.021505851
96	0x3cacff1a	0.021117736
97	0x3c770124	0.015075956
98	0x3ce435d9	0.027857708
99	0xbc748e3a	-0.014926488
100	0x39f6c42e	0.00047066942
101	0xbc80565a	-0.015666176
102	0xbc0a06cb	-0.008424471
103	0xbb3c7937	-0.0028758773
104	0x3c3657c7	0.011129326
105	0xbcfc4ede	-0.030799326
106	0xbd11a6ec	-0.03555958
107	0xbccb8b50	-0.024846703
108	0xbc7d56f7	-0.015462629
109	0xbd043d96	-0.032285295
110	0xbc80736c	-0.015680037
111	0x3c1cd756	0.009572824
112	0x3cbbe90b	0.022938272
113	0x3cf5ff61	0.030029
114	0xbd383a32	-0.044977374
115	0x3c344716	0.011003276
116	0x3a9868a9	0.0011627871
117	0xbb7b9a2e	-0.0038391459
118	0xbd1fa6c6	-0.038977407
119	0xbcc5a45d	-0.024126226
120	0xbbc107e4	-0.005890833
121	0xbd12a75c	-0.035804138
122	0x3ccc055e	0.024904903
123	0x3ce05788	0.027385488
124	0x3ca7fe39	0.020506965
125	0xbc257fc0	-0.010101259
126	0xbb9acfa7	-0.004724461
127	0xbd22f0fc	-0.0397806
128	0xbd25765f	-0.04039609
129	0x3bfc1822	0.0076933065
130	0xbbcbe9c0	-0.0062229335
131	0xbc43c1c9	-0.011948057
132	0x3bf9b8d7	0.0076209116
133	0x3d2f718f	0.042832907
134	0xbbf4a778	-0.007466253
135	0x3d0ac53a	0.033879496
136	0x3c54afb2	0.012981342
137	0x3d534741	0.051581625
138	0xbb13e5c1	-0.0022567364
139	0x3bc784cb	0.006088828
140	0x3c970ed7	0.018439693
141	0xbcd58096	-0.026062291
142	0x3b6f45c4	0.003651009
143	0xbc305f6d	-0.010764939
144	0x3c854862	0.016269866
145	0xbc1710a9	-0.009220281
146	0x3c2413ef	0.010014518
147	0xbc9ed8ac	-0.019390427
148	0xbb0e9c1a	-0.0021760524
149	0x3ccad984	0.024761923
150	0x3d477496	0.04869517
151	0x3c536245	0.012901847
152	0xbc870cd5	-0.016485611
153	0x3cd9ce1e	0.026587542
154	0xbca22c5c	-0.019796543
155	0xbc46bb51	-0.012129621
156	0x3d03d66d	0.032186914
157	0xbcea532b	-0.02860411
158	0xbcf75d7e	-0.030195948
159	0x3cc6aaee	0.024251428
160	0x3d1a50ec	0.03767483
161	0xbbc16eca	-0.0059030997
162	0x3d31f2a7	0.043444302
163	0xbadea263	-0.0016985651
164	0xbcf60270	-0.03003046
165	0x3d143208	0.036180526
166	0x3ca3aba1	0.0199793
167	0xb8ef06db	-0.00011397685
168	0x3c81f4d3	0.015863812
169	0xbc00a27b	-0.007851238
170	0xbc1d3a77	-0.009596459
171	0x3c34acc9	0.011027523
172	0x3cad449f	0.021150885
173	0x3cf80268	0.030274585
174	0x3c9ca7ee	0.019123044
175	0xbc2828f1	-0.010263667
176	0xbc1a41ba	-0.0094150845
177	0x3a583a0a	0.00082483946
178	0x3cdf7a13	0.02727989
179	0x3d29f4d2	0.041493244
180	0xba911706	-0.0011069484
181	0x3d034590	0.03204876
182	0xbca9febd	-0.020751351
183	0xbce47427	-0.027887417
184	0x3c44fac8	0.0120226815
185	0x3c171270	0.009220704
186	0xbc529c4d	-0.012854648
187	0xbcaaf9fd	-0.020871157
188	0x3cf03ccc	0.029325865
189	0x3cc1a004	0.023635872
190	0x3cdcc989	0.026951568
191	0xbbda1cc7	-0.0066562626
192	0xbcf0191e	-0.029308852
193	0x3d0c6332	0.034274288
194	0xbd249a0f	-0.040185984
195	0x3c095187	0.008381254
196	0x3b8ca520	0.0042921454
197	0xbc9ed454	-0.019388355
198	0x3cb6fe0f	0.022337941
199	0x3cf2b596	0.029627603
200	0xbad9af96	-0.0016608115
201	0xbc84b465	-0.0161993
202	0xbc8f493a	-0.017490972
203	0xbc5887eb	-0.013215999
204	0xbcf8bc0d	-0.030363107
205	0xbb6b4adf	-0.003590278
206	0x3b0199fa	0.0019775615
207	0x3c8719d2	0.016491804
208	0xbba47e5c	-0.005019946
209	0xbcdd850a	-0.027040977
210	0x3c6c479f	0.014421373
211	0xbcddb559	-0.027064012
212	0x3cf92768	0.030414298
213	0xbcd5579e	-0.026042756
214	0x3cb04210	0.021515876
215	0xbbfab7ef	-0.007651321
216	0x3ca541cd	0.020172978
217	0x3c29ceff	0.010364293
218	0x3cb463a2	0.022020165
219	0xbc51ad5b	-0.012797679
220	0x3c7175f7	0.014737598
221	0xbcb2e89b	-0.02183943
222	0x3c3fc0e7	0.011703706
223	0xbaadedfa	-0.0013269775
224	0x3d1b40d3	0.037903618
225	0xbc79b61a	-0.01524117
226	0x3cfe9d4e	0.031080868
227	0x3d0003c4	0.03125359
228	0x3c3ad5da	0.011403525
229	0x3c18d023	0.009326967
230	0x3bea281b	0.007145894
231	0x3c8704cf	0.016481785
232	0x3b87eb81	0.0041479473
233	0x3ca358e5	0.01993985
234	0x3c9e5fb6	0.019332748
235	0xbab400cb	-0.0013733146
236	0xbbc1e3f3	-0.0059170662
237	0xbcf8b2cf	-0.0303587
238	0xbcc522c1	-0.024064424
239	0x3d3bfbd0	0.045894444
240	0x3b32cdd9	0.002728334
241	0xbbf1b592	-0.007376381
242	0x3bcae700	0.006192088
243	0x3a9198c2	0.0011108147
244	0xbd0a8798	-0.03382072
245	0xbd2a091d	-0.041512597
246	0xbc8438a5	-0.016140291
247	0xbbc583b8	-0.006027665
248	0x3bc3533d	0.0059608505
249	0x3c22f72c	0.009946626
250	0x3cd1e6b2	0.0256227
251	0x3ccc165b	0.024913004
252	0x3c9615d6	0.018320959
253	0xbc7cd707	-0.015432126
254	0x3b1a8d2e	0.0023582685
255	0xbabcddb0	-0.001440933

fc4.bias f4 [3]
0	0xbbb5f4fc	-0.005552886
1	0xbc923ab5	-0.01785026
2	0x3be3e9ef	0.0069553773
