data/trained_model.pth (torch, 691531 bytes, 8 tensors)

conv1.weight f4 [32, 3, 8, 8]
-0.002429696 -0.059253417 -0.07484643 -0.0690455 0.018870227 -0.007583275 0.01288758 0.0052281427
-0.0024851507 0.020372754 0.0019374369 0.012242039 -0.01811593 0.0403821 0.024264235 -0.0073220315
-0.022972254 0.04384088 -0.022136016 -0.04788977 -0.02228294 -0.009809233 0.041559156 -0.0529263
-0.0014727821 0.058915235 -0.055997103 0.034552157 0.0065807444 -0.03728401 0.0429476 -0.0095409425
-0.070916854 -0.06193783 -0.020455377 0.038402565 0.01273152 -0.05363506 -0.020261632 0.0028586108
-0.038403057 0.039600834 0.010166303 0.050719548 0.050526664 0.010895441 -0.05115004 -0.065428816
-0.043463785 0.010643585 0.045045424 0.068264276 -0.027971646 -0.042572375 0.018728064 -0.07589078
0.022017123 -0.02645399 -0.015269294 -0.009355925 -0.06579248 -0.039702684 -0.0023443177 -0.064362556
-0.052506488 0.01831223 -0.007581368 0.0060192915 -0.010813415 -0.04210767 -0.06032024 -0.059217203
0.03698328 -0.024573375 -0.035711143 -0.038451508 -0.032377366 -0.00016494567 0.03737009 -0.07205003
-0.062841855 0.044934798 -0.08495408 -0.028439675 -0.023226121 -0.053117614 -0.0067956382 -0.028192146
-0.0568764 0.039767906 0.05431935 0.0061812703 -0.043891683 -0.0189788 0.05816451 -0.014739298
0.08297665 -0.021684028 0.058489796 0.04420814 0.040216938 0.06571734 0.06251714 0.018225642
-0.030678594 0.04774517 -0.01963937 0.071983516 0.016415834 -0.06390388 0.0027497865 0.053311385
-0.045350898 0.053441964 0.012419186 0.046579212 0.056192067 0.06574292 0.026855519 -0.02178317
0.0059583713 0.041503906 0.024848165 -0.0010498493 0.025886765 -0.06608563 -0.022868952 0.03546294
0.024124326 0.05717163 0.056731496 -0.0035466864 -0.047964334 -0.011363359 0.035058655 0.034426168
-0.0227654 0.021698935 0.01948865 -0.016223777 0.035025463 -0.069133185 0.04808649 0.04880961
-0.077335715 -0.021590875 -0.04181727 -0.0020166487 0.035540074 -0.060672194 0.0043491446 0.01390834
0.028240915 -0.06767502 -0.006915919 -0.060676243 -0.041243903 0.04258397 0.010863468 0.030754775
-0.002640705 -0.040321246 0.024524935 0.013527927 -0.033375368 0.057534862 -0.038310047 0.043763995
-0.019390086 0.029840546 -0.057595354 -0.042910263 -0.005270434 0.05487577 -0.017476354 0.015191159
0.0030547383 0.02394378 0.02254362 0.056620296 0.062947646 0.05312118 0.04171627 -0.047383625
0.03051694 0.0022451347 0.062104393 -0.014015657 -0.03157435 -0.038626824 -0.03658993 0.043217454
-0.060542982 -0.064997025 0.06197077 0.059418164 0.006379598 -0.008662717 -0.009904915 0.052273642
-0.035711486 0.004214362 -0.014257276 0.0594013 -0.0032353173 -0.007902206 -0.07291227 -0.024546795
0.050226975 -0.03985765 -0.07021331 0.05819994 -0.05517973 0.034036003 -0.018084573 0.036293246
0.014167535 0.007607286 0.027427308 -0.061626017 -0.02083603 -0.038492013 -0.06849774 0.037597198
-0.05894804 0.0028693918 0.029546395 -0.014263051 -0.047624692 -0.06707874 -0.060100343 -0.0067385854
0.023740785 0.049410958 -0.042282064 -0.08266469 -0.014141072 0.013515631 -0.040858924 0.035966083
-0.07453413 -0.04572847 -0.0065804287 -0.05598009 -0.00486046 0.02176744 -0.06670681 0.033305537
-0.02685104 0.02307293 -0.031846475 -0.056258053 -0.028109059 -0.030636521 -0.011975235 -0.006844382
00000000: 893b 1fbb b6b3 72bd 1649 99bd ba67 8dbd
00000010: bc95 9a3c 1f7d f8bb 6e26 533c d750 ab3b
00000020: e9dd 22bb c3e4 a63c 98f1 fd3a d592 483c
00000030: dc67 94bc b367 253d cac5 c63c a7ed efbb
00000040: 4f30 bcbc 7f92 333d 9756 b5bc 1028 44bd
00000050: b68a b6bc e8b6 20bc ef39 2a3d 3fc9 58bd
00000060: 5e0a c1ba 1a51 713d 385d 65bd 9086 0d3d
00000070: 49a3 d73b 1eb7 18bd d3e9 2f3d 9d51 1cbc
00000080: db3c 91bd 86b2 7dbd 0992 a7bc 024c 1d3d
00000090: de97 503c 70b0 5bbd b9fb a5bc 8857 3b3b
000000a0: 864c 1dbd 7c34 223d 9190 263c 4dbf 4f3d
000000b0: 0cf5 4e3d cb82 323c b482 51bd 8bff 85bd
000000c0: 1507 32bd 6e62 2e3c 8d81 383d 24ce 8b3d
000000d0: cb24 e5bc 5f60 2ebd 996b 993c a06c 9bbd
000000e0: 415d b43c 0ab6 d8bc 102c 7abc 9849 19bc
000000f0: 35be 86bd 489f 22bd 20a3 19bb 84d0 83bd
00000100: 0b11 57bd 8803 963c 206d f8bb 7a3d c53b
00000110: c02a 31bc 1879 2cbd 5b12 77bd bd8d 72bd
00000120: c87b 173d 1a4e c9bc d945 12bd 547f 1dbd
00000130: 219e 04bd 44f5 2cb9 6111 193d f78e 93bd
00000140: 3bb3 80bd 8d0d 383d 68fc adbd 52fa e8bc
00000150: b544 bebc db91 59bd f2ad debb 37f3 e6bc
00000160: 3af7 68bd ace3 223d f77d 5e3d 418c ca3b
00000170: c4c7 33bd 6e79 9bbc e93d 6e3d 197d 71bc
00000180: a9ef a93d b4a2 b1bc ff92 6f3d 9813 353d
00000190: 84ba 243d d096 863d fc08 803d f14d 953c
000001a0: ad51 fbbc 7090 433d bee2 a0bc 186c 933d
000001b0: 807a 863c 0ae0 82bd c335 343b 0a5d 5a3d
000001c0: ddc1 39bd f6e5 5a3d d779 4b3c d8c9 3e3d
000001d0: a729 663d 39a4 863d 1b00 dc3c 9e72 b2bc
000001e0: 713e c33b 0000 2a3d 618e cb3c 199b 89ba
000001f0: 7b10 d43c e757 87bd ab57 bbbc 9641 113d
00000200: 61a0 c53c cd2c 6a3d 495f 683d 866f 68bb
00000210: 4076 44bd 622d 3abc aa99 0f3d 7402 0d3d
00000220: 817e babc f7c1 b13c a9a6 9f3c bae7 84bc
00000230: dc76 0f3d b395 8dbd 57f6 443d 96ec 473d
00000240: 3062 9ebd 59df b0bc 9648 2bbd c029 04bb
00000250: 7892 113d 6883 78bd 4583 8e3b cedf 633c
00000260: 7e59 e73c 3399 8abd ef9e e2bb a787 78bd
00000270: 5eef 28bd 876c 2e3d b0fc 313c 70f1 fb3c
00000280: ae0f 2dbb e427 25bd 84e8 c83c 3da4 5d3c
00000290: 9cb4 08bd ada9 6b3d ffea 1cbd e041 333d
000002a0: f5d7 9ebc 2974 f43c 1be9 6bbd acc2 2fbd
000002b0: 9bb3 acbb 6ac5 603d 922a 8fbc 57e4 783c
000002c0: 0132 483b bf25 c43c 66ad b83c afea 673d
000002d0: b2ea 803d 9895 593d aede 2a3d 5515 42bd
000002e0: a9fe f93c 1c23 133b 2d61 7e3d eda1 65bc
000002f0: 1b54 01bd 2937 1ebd 53df 15bd c904 313d
00000300: ebfb 77bd 291d 85bd 10d5 7d3d 7660 733d
00000310: f20b d13b 12ee 0dbc 3948 22bc e31c 563d
00000320: 3546 12bd a118 8a3b 5a97 69bc c74e 733d
00000330: 9e07 54bb 4178 01bc 0753 95bd 5c16 c9bc
00000340: cdba 4d3d c641 23bd ffcb 8fbd 0f63 6e3d
00000350: 2404 62bd 5669 0b3d 1926 94bc 3aa8 143d
00000360: f31e 683c 8a46 f93b 3caf e03c 906b 7cbd
00000370: 52b0 aabc cda9 1dbd 8b48 8cbd 85ff 193d
00000380: 8073 71bd 680c 3c3b 480b f23c 92af 69bc
00000390: 1c12 43bd 9460 89bd c72b 76bd 5acf dcbb
000003a0: 097c c23c 2563 4a3d f52f 2dbd 1b4c a9bd
000003b0: f4af 67bc aa70 5d3c b05b 27bd 2c51 133d
000003c0: 5aa5 98bd c74d 3bbd a3a0 d7bb 614b 65bd
000003d0: 7e44 9fbb a151 b23c 949d 88bd 636b 083d
000003e0: b6f6 dbbc 7103 bd3c 7371 02bd d86e 66bd
000003f0: f844 e6bc 71f9 fabc c733 44bc d646 e0bb

conv1.bias f4 [32]
-0.026843455 -0.08202845 0.046000764 0.0742363 -0.00095919793 0.01343128 0.04804151 -0.0646764
-0.073415354 -0.07315175 0.059574433 0.08789511 -0.048678104 0.059294343 -0.039149497 0.07565438
-0.030699313 -0.038313262 -0.0029055902 0.07028497 0.032740824 -0.0018531093 0.02187351 -0.027301675
0.081260316 -0.030734455 -0.02438975 -0.0007986005 0.06839616 0.052475322 -0.03523671 0.074329674
00000000: cee6 dbbc 88fe a7bd 4c6b 3c3d 3409 983d
00000010: af72 7bba df0e 5c3c 2dc7 443d 0f75 84bd
00000020: ca5a 96bd 96d0 95bd 5204 743d 5a02 b43d
00000030: b162 47bd a0de 723d 395b 20bd aff0 9a3d
00000040: 207d fbbc 5eee 1cbd b76b 3ebb 91f1 8f3d
00000050: 3e1b 063d 08e4 f2ba 1330 b33c c3a7 dfbc
00000060: cf6b a63d d3c6 fbbc 03cd c7bc 2c59 51ba
00000070: 4913 8c3d 5df0 563d 5e54 10bd 283a 983d

conv2.weight f4 [64, 32, 4, 4]
-0.019064028 0.027989093 0.03218837 -0.0004939933 -0.015854917 -0.027620845 -0.015045665 0.015035702
0.004638197 -0.011879755 -0.027458858 -0.0052083 -0.042801436 -0.027186729 -0.0080137085 0.0016969127
0.01778793 -0.034888152 -0.023387987 -0.020725796 0.00079063606 -0.04007075 0.035427094 -0.01477318
0.027165929 -0.012436871 0.030962883 0.015898703 -0.0047999825 -0.02795889 0.0046460982 -0.022445919
-0.027948398 0.009973484 0.02340153 0.02284756 -0.032411493 -0.030723138 -0.009212228 -0.048853196
0.019251654 -0.015557665 -0.037428454 0.00965724 0.013118589 -0.008089995 -0.047892515 -0.014926494
0.029960694 -0.045135338 0.039883096 -0.008231251 -0.029557724 -0.04161747 -0.021320697 0.0086149145
0.026648816 -0.018180791 -0.04768803 0.025997471 -0.014560816 -0.045972016 -0.029168883 -0.025936052
0.035175744 0.027017353 -0.036361896 -0.02698573 0.03649771 0.03805315 -0.016967969 -0.028293815
0.013725761 0.015315015 0.01881674 0.001120825 -0.023901667 0.040356807 0.035020165 0.04494689
0.025339736 -0.0131064365 0.035828467 0.0013569683 -0.00251426 0.0380082 0.007686526 -0.012317504
-0.023253504 -0.018640833 0.011965536 0.02972048 -0.036693163 -0.03499738 0.0042648423 -0.017932951
0.01613889 0.034868497 -0.0018037603 -0.03165298 -0.043545436 0.029949257 0.03083264 0.01084535
-0.04130472 -0.023147574 -0.0061777383 -0.04174694 -0.010411197 -0.0034384984 0.03474326 0.01607618
0.03919089 -0.009355916 -0.023593698 -0.0014521079 0.0024238136 0.0070720576 0.013052647 0.007121433
0.004561149 -0.016668579 0.0064687845 -0.00327914 -0.018163292 -0.03766457 0.042464916 0.036930844
0.033254944 0.02367417 0.042591173 0.0021686177 -0.013013168 -0.033672594 0.021306833 0.022371491
-0.004729124 -0.020124001 -0.027709324 -0.015503349 -0.004987561 -0.025811085 -0.01047895 -0.02966674
-0.039180994 0.041738767 -0.015911665 0.017779289 0.0006386834 0.017837493 -0.029873446 -0.007518912
0.03061892 0.024032086 0.029778956 -0.024443816 -0.019555973 0.02401221 -0.015410633 0.03943551
0.014735779 0.005101845 -0.03945026 0.04397092 -0.017205063 -0.015596289 0.0016579838 0.031984076
0.015675267 1.9810589e-06 0.03689343 -0.015823664 0.027341174 0.006205753 -0.041505694 -0.0042152507
0.0023927826 -0.04885958 0.03228494 -0.035342116 0.008904131 -0.03557673 -0.0152522 0.03586925
0.015714211 0.025368804 -0.031150619 -0.039436948 -0.03253911 -0.0030627951 -0.012489945 0.0076781525
0.025509879 0.030411702 -0.030268587 0.011866299 -0.01868179 -0.03928905 0.03448969 -0.01966567
0.04543216 0.023828095 0.011136079 0.029668711 -0.019209126 0.033208545 0.012927212 0.026591027
0.010590351 0.014144916 0.006578448 -0.0273949 0.0016556802 -0.039057773 -0.005742299 -0.03081758
-0.017212816 0.037478857 0.00026010867 0.023316652 -0.036582306 0.032153334 -0.024082262 -0.009557633
0.005960563 0.021344077 -0.045242522 -0.023890728 -0.0038373766 0.0049596773 -0.04344044 -0.006084111
-0.018685939 0.03688475 0.03519012 -0.0446238 0.034981992 -0.039912507 -0.031904813 -0.031082803
-0.018539468 0.022252977 -0.040950358 -0.03852476 -0.0012435085 0.031342823 -0.026334338 -0.027758455
-0.043600533 0.008511393 0.031990487 0.011984427 -0.0039165895 -0.03310119 -0.0232482 -0.042269256
00000000: 2a2c 9cbc 6249 e53c f4d7 033d 547f 01ba
00000010: 2ce2 81bc 1c45 e2bc 1882 76bc 4e58 763c
00000020: 04fc 973b 4ea3 42bc 66f1 e0bc 63aa aabb
00000030: 8f50 2fbd b4b6 debc ee4b 03bc f16a de3a
00000040: feb7 913c e1e6 0ebd 2a98 bfbc 25c9 a9bc
00000050: b042 4f3a 3a21 24bd 001c 113d 350b 72bc
00000060: 158b de3c 05c4 4bbc dfa5 fd3c ff3d 823c
00000070: 2c49 9dbb 0b0a e5bc 4c3e 983b 81e0 b7bc
00000080: 0af4 e4bc d367 233c 91b4 bf3c ce2a bb3c
00000090: eac1 04bd 17af fbbc e2ee 16bc 4a1a 48bd
000000a0: a5b5 9d3c 94e5 7ebc 944e 19bd 6639 1e3c
000000b0: 5aef 563c e68b 04bc f12a 44bd 418e 74bc
000000c0: 2170 f53c d5df 38bd 755c 233d 5edc 06bc
000000d0: 0a23 f2bc 1577 2abd bea8 aebc 9225 0d3c
000000e0: 9e4e da3c e2ef 94bc 8654 43bd a6f8 d43c
000000f0: 7d90 6ebc 274d 3cbd 95f3 eebc d877 d4bc
00000100: 7114 103d 7f53 dd3c 36f0 14bd 2d11 ddbc
00000110: 9f7e 153d 9fdd 1b3d 6900 8bbc 6ec8 e7bc
00000120: 04e2 603c d4eb 7a3c 9025 9a3c a5e8 923a
00000130: 6ecd c3bc 2e4d 253d 4e71 0f3d 3b1a 383d
00000140: 4795 cf3c 61bc 56bc dfc0 123d 4ddc b13a
00000150: 48c6 24bb 7cae 1b3d 41df fb3b 5bcf 49bc
00000160: 227e bebc a9b4 98bc 180b 443c 5d78 f33c
00000170: 924b 16bd 6a59 0fbd 17c0 8b3b 20e8 92bc
00000180: b535 843c 45d2 0e3d 276c ecba 8ea6 01bd
00000190: b35c 32bd 2558 f53c bc94 fc3c b2b0 313c
000001a0: 232f 29bd fb9f bdbc a06e cabb d7fe 2abd
000001b0: ba93 2abc 6e58 61bb f34e 0e3d 31b2 833c
000001c0: a086 203d 8e49 19bc 9247 c1bc a854 beba
000001d0: d8d8 1e3b b8bc e73b c5da 553c e95a e93b
000001e0: b175 953b 8b8c 88bc 19f8 d33b d7e6 56bb
000001f0: 2fcb 94bc 2a46 1abd b1ef 2d3d cc44 173d
00000200: 5636 083d 55f0 c13c 1574 2e3d 5e1f 0e3b
00000210: 2f35 55bc 46ec 09bd ab8b ae3c 6b44 b73c
00000220: c4f6 9abb 17db a4bc aafe e2bc c201 7ebc
00000230: b26e a3bb c571 d3bc e7af 2bbc aa07 f3bc
00000240: 407c 20bd 45f6 2a3d 2e59 82bc dfa5 913c
00000250: 516d 273a ef1f 923c 28b9 f4bc 3561 f6bb
00000260: 88d4 fa3c f0de c43c fff2 f33c 663e c8bc
00000270: d933 a0bc 41b5 c43c e17c 7cbc 2187 213d
00000280: 566e 713c 612d a73b 9996 21bd da1a 343d
00000290: a2f1 8cbc 9487 7fbc b450 d93a bc01 033d
000002a0: 6b69 803c 55f2 0436 911d 173d a1a0 81bc
000002b0: 99fa df3c a159 cb3b e001 2abd 1620 8abb
000002c0: 3bd0 1c3b fc20 48bd 373d 043d e5c2 10bd
000002d0: a2e2 113c e8b8 11bd 5de4 79bc a2eb 123d
000002e0: 17bb 803c 3dd2 cf3c 952f ffbc a388 21bd
000002f0: bb47 05bd 2db9 48bb a0a2 4cbc 0399 fb3b
00000300: 18fa d03c f621 f93c d4f5 f7bc de6a 423c
00000310: 8e0a 99bc 8eed 20bd 1045 0d3d e619 a1bc
00000320: 1317 3a3d 2333 c33c 1a74 363c cc0b f33c
00000330: 755c 9dbc af05 083d a8cc 533c 6dd5 d93c
00000340: 2783 2d3c 14c0 673c 0690 d73b 456b e0bc
00000350: 6903 d93a 0bfb 1fbd e529 bcbb 2675 fcbc
00000360: e401 8dbc 6e83 193d 325f 8839 9002 bf3c
00000370: 54d7 15bd 37b3 033d 2a48 c5bc 9e97 1cbc
00000380: d450 c33b c6d9 ae3c 3950 39bd 7db6 c3bc
00000390: 7f7c 7bbb ca84 a23b 9aee 31bd 395d c7bb
000003a0: 4113 99bc 7714 173d 8423 103d 72c7 36bd
000003b0: 4749 0f3d 4c7b 23bd 9fae 02bd 5da1 febc
000003c0: 15e0 97bc e04b b63c 90bb 27bd 24cc 1dbd
000003d0: 39fd a2ba 5561 003d 1cbb d7bc b365 e3bc
000003e0: 7996 32bd 5f73 0b3c 7508 033d 555a 443c
000003f0: bc56 80bb 1d95 07bd 0273 bebc 8722 2dbd

conv2.bias f4 [64]
0.0068617472 0.009421376 0.004834868 0.0016309654 0.00084031007 -0.020480765 0.0071827373 0.017153177
0.013283603 -0.0057977904 0.028813383 -0.0025815407 -0.023511434 -0.020113057 -0.036639784 0.00081589667
-0.029536368 -0.06790892 -0.04595025 -0.023441521 -0.010856366 -0.0077390545 -0.0027837693 -0.022638531
-0.05446454 -0.055736072 0.01230356 -0.018314831 -0.0030654962 -0.054847263 -0.066773236 -0.042469587
0.0071031055 -0.0017925974 -0.06316115 0.022796633 0.0024182997 -0.023246506 -0.03168248 -0.04636953
-0.008526423 -0.014369031 -0.04107554 -0.04616594 -0.052364044 0.005562374 0.00072665606 -0.014706976
-0.052966196 -0.017032545 -0.047925588 -0.06223266 -0.019792909 -0.03803837 -0.036531325 0.0010914857
0.031448472 0.0016022547 -0.068176895 -0.03460968 -0.0548842 -0.0038402423 -0.0024927189 0.012245625
00000000: 82d8 e03b 1d5c 1a3c d06d 9e3b 1ec6 d53a
00000010: 4148 5c3a 47c7 a7bc 2b5d eb3b d284 8c3c
00000020: 78a3 593c 64fb bdbb 0b0a ec3c 112f 29bb
00000030: 0d9b c0bc 23c4 a4bc 9913 16bd e6e1 553a
00000040: 41f6 f1bc d513 8bbd 5436 3cbd 6f08 c0bc
00000050: e6de 31bc e597 fdbb e66f 36bb 7174 b9bc
00000060: 3616 5fbd 824b 64bd df94 493c fc08 96bc
00000070: 7ee6 48bb 86a7 60bd 68c0 88bd 97f4 2dbd
00000080: 2bc1 e83b 96f5 eaba a25a 81bd 01c0 ba3c
00000090: 567c 1e3b 756f bebc 7dc5 01bd faed 3dbd
000000a0: 69b2 0bbc 166c 6bbc d33e 28bd 7f18 3dbd
000000b0: ae7b 56bd 9344 b63b 107d 3e3a 87f5 70bc
000000c0: 15f3 58bd d687 8bbc 9f4d 44bd ace7 7ebd
000000d0: bd24 a2bc 1fce 1bbd dfa1 15bd 2f10 8f3a
000000e0: 1dd0 003d bf02 d23a 54a0 8bbd e1c2 0dbd
000000f0: 41ce 60bd 93ac 7bbb e25c 23bb e0a1 483c

fc3.weight f4 [512, 256]
-0.027880536 0.02903173 0.032771178 -0.027380679 0.042603463 -0.029616475 -0.050439276 -0.059853263
-0.08761366 -0.06195411 -0.026563283 0.037248995 0.0003491709 0.059432022 -0.045968715 -0.029468564
-0.020793332 -0.03534773 -0.055834703 -0.005594127 0.028546635 0.06052319 -0.031359702 -0.028538473
0.016648201 0.013460939 0.007904616 0.031306125 0.056332756 -0.057187777 -0.02176133 0.083666295
0.065956004 -0.0027943896 -0.06437946 -0.03929011 -0.009926212 -0.038346134 -0.024245033 -0.023251453
-0.02016503 0.06457105 -0.02339278 -0.056824617 0.025307098 0.028947268 0.009500427 -0.004169352
0.04310439 0.031592548 -0.012857584 -0.013837019 -0.004862071 -0.011863184 -0.0076834834 -0.02595554
-0.0037250356 0.03701475 0.033815365 0.000720438 -0.043996055 0.04516145 0.044890475 -0.0029527294
-0.030169372 -0.015139502 0.062599525 -0.009966258 0.03285932 -0.004327733 -0.008287614 0.019864714
-0.033734776 0.0071256324 -0.03563341 -0.01090471 -0.0026609832 0.0010756067 0.031666774 -0.058886588
-0.059197374 -0.007817624 0.018150557 0.018963434 -0.07697749 0.041293584 0.009955851 0.047957655
-0.025049351 -0.038500424 -0.013224551 -0.03535595 -0.059407372 0.02528528 0.060444366 -0.0395084
-0.030285453 0.0013423029 -0.00085253944 -0.0016359439 -0.050497245 0.030819207 0.044206657 0.010363228
0.0072140177 -0.05654515 0.03541037 0.013312501 -0.0661592 0.024704475 -0.041805733 0.012445543
-0.036498368 -0.06132938 0.038325902 0.048614368 -0.02336722 -0.053415745 -0.03875935 -0.015204535
0.0049883006 0.05710101 0.007911639 -0.052012675 -0.0034616878 -0.0317571 0.003899236 0.014668471
-0.041296978 0.034819853 0.041514903 0.0048270393 0.047682084 -0.021752547 0.043365788 -0.025738683
0.012180625 0.06608096 -0.003900756 0.050624076 -0.00062862656 0.045881674 -0.017738823 -0.0240506
0.013066915 0.017076483 -0.061316755 -0.04371778 -0.021407302 0.01920745 0.007283281 0.032410543
0.019141534 -0.0019651384 -0.032706644 -0.012669627 -0.08062223 -0.046894714 -0.0193048 0.052542582
0.042741694 -0.022338964 0.019252464 -0.00064906 -0.03236035 0.043817043 -0.009765088 -0.025599945
-0.012330177 -0.057896648 -0.026405739 -0.049888775 0.023642467 -0.006217179 -0.045936767 -0.043999698
-0.043244757 0.05972899 0.024779871 0.053847678 -0.028319074 0.051798582 0.042189438 0.0035453236
0.03770132 0.0017023876 0.047154248 0.06466158 0.044390723 -0.05238808 -0.015347906 -0.04581174
-0.06658663 -0.034952298 -0.016952323 0.0062105353 0.021432763 0.052106757 0.00047967202 -0.0014982375
-0.06866043 0.024194637 -0.04413386 -0.013134812 -0.016513063 -0.021339176 0.019812183 0.06512124
0.009559948 -0.054504685 0.0024105094 -0.01999694 0.01866295 0.024622163 0.03780611 -0.05514174
0.046571113 0.0019097909 -0.033512224 -0.07835705 -0.03199562 -0.018385908 -0.02193948 -0.004679683
-0.05280463 0.011804384 0.04188899 -0.033639055 -0.018250084 -0.03336805 0.003881637 -0.01863568
0.012537807 0.008296898 -0.030695638 -0.016162662 0.004045932 -0.0041021425 0.030775676 -0.042767752
0.021231227 0.0077508404 0.063784584 0.008913879 0.035899278 -0.037842285 -0.0040914435 -0.04578972
-0.0020391275 -0.02687907 -0.013207101 0.026203658 0.05231393 0.04531894 0.028705988 -0.021396847
00000000: b965 e4bc f3d3 ed3c 123b 063d 724d e0bc
00000010: f880 2e3d 409e f2bc 6a99 4ebd b228 75bd
00000020: ca6e b3bd 98c3 7dbd 3e9b d9bc 6792 183d
00000030: ed10 b739 fe6e 733d b149 3cbd 0f68 f1bc
00000040: c756 aabc c8c8 10bd eeb2 64bd f04e b7bb
00000050: a2da e93c 2ae7 773d 0873 00bd 84c9 e9bc
00000060: cf61 883c 458b 5c3c 5d82 013c da3a 003d
00000070: 2dbd 663d bb3d 6abd d144 b2bc 3c59 ab3d
00000080: f113 873d 1422 37bb 61d9 83bd abee 20bd
00000090: 8da1 22bc d610 1dbd 859d c6bc d579 bebc
000000a0: 2231 a5bc d43d 843d 37a2 bfbc eec0 68bd
000000b0: d550 cf3c d222 ed3c aea7 1b3c 0f9f 88bb
000000c0: 3b8e 303d 3067 013d 9ea8 52bc aab4 62bc
000000d0: 0252 9fbb cd5d 42bc bbc5 fbbb b6a0 d4bc
000000e0: ba1f 74bb c79c 173d fb81 0a3d c7db 3c3a
000000f0: 3535 34bd 36fb 383d 13df 373d 9482 41bb
00000100: c225 f7bc ac0b 78bc 2e34 803d 8449 23bc
00000110: 7f97 063d a8cf 8dbb c6c8 07bc 53bb a23c
00000120: 7a2d 0abd 237e e93b 57f4 11bd aba9 32bc
00000130: e463 2ebb 5ffb 8c3a 05b5 013d 1033 71bd
00000140: f278 72bd 7e15 00bc 7ab0 943c 3459 9b3c
00000150: 60a6 9dbd 7623 293d de1d 233c 3f6f 443d
00000160: 4c34 cdbc 9fb2 1dbd caab 58bc 67d1 10bd
00000170: 2555 73bd 1323 cf3c 8394 773d 8fd3 21bd
00000180: 3319 f8bc 36f0 af3a f47c 5fba 2b6d d6ba
00000190: 33d6 4ebd 9078 fc3c 0a12 353d 87ca 293c
000001a0: 9163 ec3b e39b 67bd 770a 113d ad1c 5a3c
000001b0: 7a7e 87bd 0a61 ca3c 7d3c 2bbd 64e8 4b3c
000001c0: 507f 15bd 8434 7bbd 9ffb 1c3d dc1f 473d
000001d0: 9d6c bfbc 78ca 5abd 20c2 1ebd 711c 79bc
000001e0: e674 a33b c0e2 693d d29f 013c 3e0b 55bd
000001f0: 7cdd 62bb bc13 02bd 538a 7f3b 0754 703c
00000200: 0527 29bd 439f 0e3d 880b 2a3d 242c 9e3b
00000210: 4a4e 433d 6632 b2bc 53a0 313d eed9 d2bc
00000220: 3f91 473c 7455 873d d3a3 7fbb 315b 4f3d
00000230: 6aca 24ba 6cee 3b3d 0251 91bc c405 c5bc
00000240: 9d16 563c fbe3 8b3c 4727 7bbd 6a11 33bd
00000250: 5e5e afbc f158 9d3c 97a8 ee3b ebc0 043d
00000260: b5ce 9c3c 8dc9 00bb 67f7 05bd 4494 4fbc
00000270: 451d a5bd ac14 40bd 1a25 9ebc e436 573d
00000280: ea11 2f3d 3400 b7bc 58b7 9d3c ae25 2aba
00000290: 498c 04bd 8079 333d bffd 1fbc fab6 d1bc
000002a0: 8304 4abc 0925 6dbd d950 d8bc 2c58 4cbd
000002b0: d9ad c13c 7ab9 cbbb 3128 3cbd 0739 34bd
000002c0: 6a21 31bd 63a6 743d 28ff ca3c 628f 5c3d
000002d0: 67fd e7bc c02a 543d d5ce 2c3d a958 683b
000002e0: b36c 1a3d a622 df3a d024 413d 4a6d 843d
000002f0: 0cd3 353d e294 56bd c975 7bbc 17a5 3bbd
00000300: 925e 88bd 242a 0fbd 99df 8abc bf81 cb3b
00000310: c393 af3c e56d 553d 7d7c fb39 8260 c4ba
00000320: d79d 8cbd d533 c63c b5c5 34bd 6533 57bc
00000330: 6746 87bc 7fcf aebc 294d a23c 495e 853d
00000340: 54a1 1c3c 4e40 5fbd a3f9 1d3b 9fd0 a3bc
00000350: 0be3 983c 6bb4 c93c 94da 1a3d 4edc 61bd
00000360: 5ac1 3e3d f351 fa3a 1d44 09bd a979 a0bd
00000370: d70d 03bd 0b9e 96bc 6dba b3bc 0758 99bb
00000380: ab49 58bd 2d67 413c ca93 2b3d 1bc9 09bd
00000390: 3381 95bc f0ac 08bd 1063 7e3b dba9 98bc
000003a0: 606b 4d3c b6ef 073c 6b75 fbbc 8f67 84bc
000003b0: bd93 843b 446b 86bb 451d fc3c 3d2d 2fbd
000003c0: 1ced ad3c c3fa fd3b 7ea1 823d 850b 123c
000003d0: 1f0b 133d 8300 1bbd 8411 86bb 008e 3bbd
000003e0: e2a2 05bb 7f31 dcbc 9962 58bc 0ea9 d63c
000003f0: 2247 563d 5aa0 393d d228 eb3c 7148 afbc

fc3.bias f4 [512]
-0.016585123 -0.01720712 -0.053988293 -0.0662007 0.003938879 0.041671913 -0.0014739869 -0.035990667
-0.003142248 -0.014453628 -0.00526076 0.047771666 -0.03482042 0.004488998 -0.056524124 -0.019085506
0.013311313 0.061031524 -0.07521237 0.027510935 0.008342077 0.014899027 0.0036196175 -0.0013958599
0.00111616 -0.038450398 0.031204106 -0.054553755 0.0150510045 -0.072659835 -0.013563615 0.030420253
-0.05956323 -0.08547887 0.03194643 -0.021253038 -0.0049524913 0.023964336 -0.036921017 -0.008736909
0.02293248 -0.0011689666 0.015772916 0.011178673 -0.011549612 -0.0033109996 -0.059140317 0.014678439
-0.012457629 -0.031318404 0.015124184 0.06594657 -0.0014497607 -0.04963351 0.012640583 0.036822222
0.0009389404 -0.014658959 -0.070525646 -0.031778518 0.043793697 -0.044206224 -0.0050308 0.02733359
-0.044876054 0.037646923 -0.06204094 -0.0011941063 -0.0047173924 -0.0096931625 -0.045303077 -0.07822151
0.01562799 0.035797123 -0.029693492 0.032403875 0.03164012 -0.0036212339 -0.0099729635 -0.00471523
0.008070955 -0.023559647 -0.016038232 -0.050532077 -0.068766944 -0.020128382 -0.06258963 -0.03207341
-0.019304357 -0.03306289 0.020560618 -0.030571898 0.010194252 -0.021331603 -0.08447096 0.030617476
-0.019716434 0.049902935 -1.20422455e-05 0.042433497 -0.057672057 0.04075886 -0.034642708 0.0018226218
-0.022507312 -0.02226095 -0.062252473 -0.04612248 0.007914782 -0.03951067 -0.0229329 -0.055313177
0.020345872 0.02680599 -0.055118036 -0.045244236 0.046267383 -0.056928944 -0.026396101 -0.0038485944
-0.021540826 0.032396827 0.03748005 -0.052604903 -0.05279236 0.058105018 -0.068521604 -0.06839107
-0.053885914 -0.012257177 -0.010922888 0.0029505917 0.04380754 0.028011583 -0.005058739 -0.06390121
-0.015473427 -0.053862173 0.048786636 -0.02617409 -0.001391889 -0.03140809 -0.019679222 -0.022538139
0.025104206 -0.062111147 0.047573335 -0.0050348053 -0.018615587 0.040317167 -0.027858116 -0.012051069
-0.08065202 0.010187887 -0.0064089983 -0.034331113 0.0061927703 -0.03092158 -0.057873856 -0.06728707
-0.031243851 -0.0551809 0.056401435 0.03451144 -0.041825447 -0.018594276 0.024000697 -0.015480688
0.024391247 -0.034687057 -0.0015911483 0.008808753 0.056129295 -0.07340397 -0.0826124 0.05571085
0.062373016 -0.017330687 0.0416931 -0.03237241 0.024896907 -0.018238239 -0.004945632 0.049208686
0.04557216 0.045432486 -0.043743227 -0.059450004 -0.045799557 -0.047859665 0.03350269 -0.058769513
-0.05807587 -0.010072493 -0.035142764 0.0411229 -0.029164948 -0.049213365 0.026980951 -0.07611954
-0.05404316 0.047330394 -0.06615137 -0.05720579 -0.016594013 0.07179855 -0.03160151 0.039526008
-0.060166247 -0.003898327 -0.009927407 -0.07158621 -0.0048201233 -0.0008154066 -0.0014022884 0.040607903
5.332269e-06 0.046660036 -0.00499627 -0.057216406 0.009373523 0.06180002 -0.004166821 0.020557906
0.014339297 0.034115713 0.06011645 -0.034002244 -0.0080437325 -0.049889244 0.03111523 -0.018454898
-0.057157733 -0.058430895 0.03764825 -0.062224135 0.012376648 0.04843252 0.04093834 -0.08232954
-0.03238416 -0.034358792 -0.0180525 -0.0036564127 0.022636862 -0.020682495 -0.025283998 -0.031516455
0.00079542614 -0.040484913 -0.056498136 -0.003457899 -0.022478202 -0.049769185 -0.0043104733 -0.003630394
00000000: 86dd 87bc f2f5 8cbc d422 5dbd 3c94 87bd
00000010: b611 813b 2bb0 2a3d cb32 c1ba f36a 13bd
00000020: 2cee 4dbb e9ce 6cbc 7462 acbb 39ac 433d
00000030: db9f 0ebd 7218 933b d785 67bd 3559 9cbc
00000040: b217 5a3c 31fc 793d f108 9abd 9d5e e13c
00000050: 35ad 083c 0c1b 743c 1b37 6d3b 49f5 b6ba
00000060: 1d4c 923a 2a7e 1dbd c19f ff3c c273 5fbd
00000070: 7d98 763c aece 94bd ed39 5ebc e533 f93c
00000080: 93f8 73bd 8c0f afbd 43da 023d da1a aebc
00000090: 8248 a2bb db50 c43c 7e3a 17bd 4125 0fbc
000000a0: e5dc bb3c 0338 99ba 3436 813c c126 373c
000000b0: 953a 3dbc 5bfd 58bb 1e3d 72bd d67d 703c
000000c0: 151b 4cbc ba47 00bd 6dcb 773c ff0e 873d
000000d0: e605 beba 824c 4bbd 731a 4f3c e6d2 163d
000000e0: 3923 763a 212c 70bc c06f 90bd 312a 02bd
000000f0: 0561 333d 9611 35bd 69d9 a4bb b1ea df3c
00000100: f4cf 37bd a933 1a3d a41e 7ebd 8f83 9cba
00000110: 5b94 9abb 12d0 1ebc b88f 39bd 9932 a0bd
00000120: 4506 803c 01a0 123d c43f f3bc edb9 043d
00000130: 1299 013d 3952 6dbb a465 23bc 3782 9abb
00000140: 0a3c 043c 2900 c1bc 9c62 83bc b9fa 4ebd
00000150: afd5 8cbd 47e4 a4bc fe2e 80bd 685f 03bd
00000160: 2c24 9ebc f46c 07bd be6e a83c eb71 fabc
00000170: cb05 273c 9dbf aebc 1cff acbd 80d1 fa3c
00000180: 5c84 a1bc 0567 4c3d 0d09 4ab7 bfce 2d3d
00000190: 8939 6cbd c3f2 263d 83e5 0dbd 0ae5 ee3a
000001a0: 4161 b8bc 995c b6bc 73fc 7ebd edea 3cbd
000001b0: 00ad 013c f1d5 21bd c7dd bbbc 1290 62bd
000001c0: 63ac a63c 3c98 db3c 73c3 61bd 0552 39bd
000001d0: de82 3d3d 532e 69bd a33c d8bc b338 7cbb
000001e0: 6376 b0bc 89b2 043d ae84 193d 3d78 57bd
000001f0: cd3c 58bd 87ff 6d3d 0e55 8cbd 9e10 8cbd
00000200: 7ab7 5cbd 54d2 48bc eaf5 32bc b75e 413b
00000210: 896f 333d 8c78 e53c c7c3 a5bb a3de 82bd
00000220: 4284 7dbc 959e 5cbd 7fd4 473d 0c6b d6bc
00000230: 0b70 b6ba c5a5 00bd 5236 a1bc e7a1 b8bc
00000240: 56a7 cd3c 4268 7ebd 42dc 423d 02fb a4bb
00000250: b77f 98bc 9d23 253d b436 e4bc d971 45bc
00000260: e32c a5bd 18eb 263c 9302 d2bb c89e 0cbd
00000270: b9ec ca3b 414f fdbc 230d 6dbd cecd 89bd
00000280: 1bf3 ffbc 5e05 62bd 3105 673d de5b 0d3d
00000290: 2951 2bbd 0653 98bc 1c9d c43c b6a2 7dbc
000002a0: 27d0 c73c 0414 0ebd 148e d0ba 9752 103c
000002b0: d5e7 653d d254 96bd b130 a9bd 0f31 643d
000002c0: d97a 7f3d 16f9 8dbc 62c6 2a3d ef98 04bd
000002d0: 99f4 cb3c 5c68 95bc f80e a2bb 0c8f 493d
000002e0: e0a9 3a3d 6a17 3a3d 192c 33bd d981 73bd
000002f0: 5198 3bbd 7f08 44bd 1e3a 093d 4db8 70bd
00000300: f7e0 6dbd 1907 25bc dcf1 0fbd 7c70 283d
00000310: 54eb eebc f493 49bd 2807 dd3c 90e4 9bbd
00000320: 5c5c 5dbd 84dd 413d 5f7a 87bd 9e50 6abd
00000330: 2bf0 87bc 1e0b 933d 9670 01bd 06e6 213d
00000340: e270 76bd 137b 7fbb 90a6 22bc ca9b 92bd
00000350: 20f2 9dbb 03c1 55ba fecc b7ba 7954 263d
00000360: d8eb b236 981e 3f3d c0b7 a3bb c05b 6abd
00000370: 6893 193c 0522 7d3d d489 88bb 0e69 a83c
00000380: 5fef 6a3c ebbc 0b3d ab3c 763d f045 0bbd
00000390: dcc9 03bc aa58 4cbd 5ee5 fe3c ba2e 97bc
000003a0: 3a1e 6abd 3c55 6fbd 0d35 1a3d bcde 7ebd
000003b0: 6dc7 4a3c 2e61 463d f6ae 273d 649c a8bd
000003c0: 41a5 04bd cebb 0cbd d6e2 93bc 6da0 6fbb
000003d0: f170 b93c 566e a9bc 6320 cfbc 6617 01bd
000003e0: 2584 503a 82d3 25bd 976a 67bd eb9d 62bb
000003f0: 3524 b8bc c6da 4bbd df3e 8dbb e8eb 6dbb

fc4.weight f4 [3, 512]
0.0105459485 0.00066050445 0.014383918 0.021919454 -0.020638293 -0.02424044 -0.0046189087 -0.027259158
0.026900755 0.008264882 0.021465225 -0.02243746 0.020781813 0.015296557 0.012130042 0.0060353167
-0.030989774 -0.020928863 -0.031135695 0.011934514 0.00076332374 -0.02886803 0.00742847 -0.0046119657
0.010332506 -0.013927177 0.012127045 0.022706887 -0.0133181065 0.0010720078 -0.048174534 -0.0040971027
0.0043813675 0.003929024 0.024590878 0.016229399 0.024586858 -0.0005558888 0.021080244 0.005801808
0.015757672 0.018855613 -0.03302447 -0.0030619497 0.017653598 -0.052266467 -0.026425576 -0.039688136
-0.014738709 -0.012033712 -0.03995489 0.021436675 -0.0146494275 -0.0058213733 -0.01782255 -0.016004454
-0.040971708 0.047021158 -0.008502022 0.016332429 0.030091006 0.018559784 0.013617598 -0.009303243
0.025884224 0.027920885 0.023888204 0.026676804 -0.026208239 -0.024043715 -0.011249298 0.00042097666
0.01881003 0.023650121 0.011790478 -0.0023161566 -0.0355944 0.012354633 0.027879348 -0.003715092
-0.06572057 0.03245644 -0.028303953 -0.0044426885 0.008997233 0.033013828 0.013849047 -0.015874982
0.021519924 -0.019957634 0.019857943 0.026076606 -0.04346222 -0.03115719 -0.00796789 0.013779405
-0.04465682 0.016796373 -0.004696799 0.0150144985 0.0063002193 -0.054759223 0.011644639 0.012348825
0.01688184 0.027279917 -0.017410206 -0.03972018 0.027177077 0.0042360723 0.013332696 0.0064347587
-0.020710109 0.022339568 -0.019235628 -0.019981204 0.031653777 -0.022645976 -0.010687289 0.011228653
-0.0072917673 -0.04745572 0.0075225146 -0.020088848 0.01241986 0.01748774 0.01090083 0.0048809503
-0.033180732 0.0106019415 0.012566961 -0.024373956 -0.016135942 0.0068887933 0.07124331 0.022043016
-0.025417747 -0.024842577 -0.013977313 -0.015406805 0.046816472 -0.03576781 0.02150313 -0.02889504
-0.034574363 0.006648717 -0.023862263 0.004300778 -0.02052269 -0.00974647 -0.0047024013 -0.025306517
0.008190367 0.023578145 0.025615966 0.032172687 0.04086882 0.02306682 0.011840241 0.01731335
0.014994296 0.012545227 0.034227077 0.004868754 0.027953044 0.0077574197 0.0086969035 0.006037949
-0.04173318 -0.009379096 -0.004731276 -0.030292746 -0.011992002 0.00064250635 0.021463238 -0.0072044185
0.004037863 0.00731094 -0.014255185 -0.029041661 -0.011682029 0.009366861 -0.0012482756 0.0037876596
0.037421778 -0.005657657 0.045381237 -0.0066951946 -0.0066287057 -0.028890306 -0.030961465 -0.039459474
-0.01487638 -0.007874268 0.021841358 0.004115736 0.0013245435 0.017407687 0.01868504 0.030560754
-0.018305937 -0.0023289777 -0.002410618 -0.02930277 0.018732928 -0.016175741 0.022543497 -0.0129421465
-0.009238591 0.01463825 -0.039872203 0.0018867131 0.0015481188 0.02759564 -0.0016009961 0.02688184
0.02984663 0.0137274405 0.009808198 0.035480767 -0.02872875 0.037162248 0.039199833 0.01627081
0.018091116 0.007563594 -0.01780804 -0.00019420218 -0.026616279 0.022124803 0.028503701 -0.01854884
-0.023488054 0.000264807 -0.010079502 0.017806001 0.05827686 0.03432826 0.022050435 0.021673508
0.006819097 0.009505502 0.0010498362 0.050883822 -0.02145222 -0.035024352 -0.0203902 0.025545957
-0.05020287 -0.036601648 0.027491841 0.052627705 0.020808201 -0.008062799 -0.03681643 -0.0180561
00000000: eac8 2c3c b425 2d3a 86aa 6b3c 6d90 b33c
00000010: a311 a9bc e393 c6bc 375a 97bb 994e dfbc
00000020: f95e dc3c 6d69 073c d7d7 af3c c4ce b7bc
00000030: 9f3e aa3c 699e 7a3c 15bd 463c e8c3 c53b
00000040: 44de fdbc 0273 abbc 4910 ffbc fb88 433c
00000050: ca19 483a a67c ecbc 866a f33b f91f 97bb
00000060: ac49 293c d02e 64bc 83b0 463c cb03 ba3c
00000070: 3034 5abc 9d82 8c3a a952 45bd fd40 86bb
00000080: 9391 8f3b 0bbf 803b cf72 c93c 84f3 843c
00000090: 616a c93c 11b9 11ba 7ab0 ac3c 181d be3b
000000a0: 3c16 813c 1677 9a3c ab44 07bd feaa 48bb
000000b0: 479e 903c 5d15 56bd 737a d8bc 0790 22bd
000000c0: a07a 71bc 0c29 45bc bda7 23bd f79b af3c
000000d0: 2704 70bc 38c1 bebb 9900 92bc c61b 83bc
000000e0: f3d1 27bd 4299 403d 114c 0bbc 96cb 853c
000000f0: 6a81 f63c b00a 983c 591c 5f3c a16c 18bc
00000100: 270b d43c 57ba e43c 32b1 c33c 5089 da3c
00000110: a9b2 d6bc 53f7 c4bc fa4e 38bc 88b6 dc39
00000120: 7e17 9a3c e6bd c13c d92c 413c a9ca 17bb
00000130: 6fcb 11bd 166b 4a3c 3b63 e43c e778 73bb
00000140: 8298 86bd 0bf1 043d b1dd e7bc f993 91bb
00000150: 2169 133c 8239 073d 1de7 623c 400c 82bc
00000160: 8d4a b03c 317e a3bc 20ad a23c 9b9e d53c
00000170: 7105 32bd 5d3d ffbc c18b 02bc 03c3 613c
00000180: 12ea 36bd 8c98 893c 9be7 99bb 5fff 753c
00000190: 1272 ce3b 354b 60bd 28c9 3e3c ba52 4a3c
000001a0: c94b 8a3c 227a df3c d99f 8ebc a1b1 22bd
000001b0: 76a2 de3c c0ce 8a3b 6171 5a3c abda d23b
000001c0: 3fa8 a9bc 7801 b73c 0994 9dbc 9faf a3bc
000001d0: 64a7 013d 0e84 b9bc bd19 2fbc 62f8 373c
000001e0: c7ef eebb ee60 42bd 6d7f f63b 5e91 a4bc
000001f0: ab7c 4b3c 7342 8f3c 6599 323c 61f0 9f3b
00000200: 85e8 07bd c4b3 2d3c a8e5 4d3c e4ab c7bc
00000210: 862f 84bc 63bb e13b 03e8 913d 8e93 b43c
00000220: e138 d0bc a982 cbbc 1a01 65bc d36c 7cbc
00000230: a1c2 3f3d 4481 12bd 5527 b03c 4ab5 ecbc
00000240: d99d 0dbd 7bdd d93b cb7a c3bc 8aed 8c3b
00000250: 331f a8bc a8af 1fbc 9a16 9abb 9d4f cfbc
00000260: e430 063c f426 c13c 93d8 d13c 82c7 033d
00000270: 1066 273d a1f6 bc3c 92fd 413c bad4 8d3c
00000280: a3aa 753c 7f8a 4d3c b131 0c3d 128a 9f3b
00000290: c8fd e43c f431 fe3b 757d 0e3c fdd9 c53b
000002a0: 69f0 2abd c8aa 19bc d208 9bbb 7e28 f8bc
000002b0: 1a7a 44bc df6d 283a acd3 af3c 0b13 ecbb
000002c0: 0d50 843b 9c90 ef3b 948e 69bc c7e8 edbc
000002d0: fb65 3fbc 7677 193c 2e9d a3ba 623a 783b
000002e0: 9447 193d de63 b9bb ade1 393d 5d63 dbbb
000002f0: 9d35 d9bb 5dab ecbc e6a2 fdbc 42a0 21bd
00000300: 0fbc 73bc 1303 01bc a6ec b23c 4cdd 863b
00000310: 4e9c ad3a 919a 8e3c 5e11 993c 8c5a fa3c
00000320: 55f6 95bc c3a1 18bb 75fb 1dbb 5d0c f0bc
00000330: cc75 993c fd82 84bc 24ad b83c 4c0b 54bc
00000340: 765d 17bc 45d5 6f3c 0951 23bd 964b f73a
00000350: 3fea ca3a 4010 e23c 84d8 d1ba 4e37 dc3c
00000360: eb80 f43c 0fe9 603c 90b2 203c 4854 113d
00000370: 8e58 ebbc 7137 183d 0190 203d 5d4a 853c
00000380: d233 943c 06d8 f73b 2be2 91bc c0a2 4bb9
00000390: 620a dabc 133f b53c 9880 e93c bdf3 97bc
000003a0: 056a c0bc cbd5 8a39 7f24 25bc e4dd 913c
000003b0: b7b3 6e3d ca9b 0c3d 1da3 b43c a48c b13c
000003c0: bb72 df3b f7bc 1b3c a89a 893a 8e6b 503d
000003d0: 91bc afbc b275 0fbd 5909 a7bc c145 d13c
000003e0: 86a1 4dbd 9ceb 15bd 9236 e13c 2690 573d
000003f0: f675 aa3c d519 04bc d3cc 16bd 63ea 93bc

fc4.bias f4 [3]
-0.022085497 -0.0008973782 -0.0018337215
00000000: a5ec b4bc 083e 6bba 7c59 f0ba
