data/trained_model.pth (torch, 691403 bytes, 8 tensors)

conv1.weight f4 [32, 3, 8, 8]
0	0x3d36a373	0.04458947
1	0xbc5f8868	-0.013643362
2	0x3cca45af	0.02469143
3	0xbd55ee97	-0.05222949
4	0xbd878543	-0.066172145
5	0xbda9d55b	-0.082926475
6	0xbd051d55	-0.032498676
7	0xbcbfb3bd	-0.023401136
8	0x3a5afb3b	0.00083534763
9	0xbaa49d38	-0.0012559062
10	0xbd30f9a0	-0.04320681
11	0xbc870825	-0.016483376
12	0xbcd888ce	-0.026432421
13	0x3c9a8b18	0.018865153
14	0xbd045b7c	-0.03231381
15	0x3d00734b	0.031359952
16	0x3c8b7cf7	0.017027361
17	0x3d259f80	0.040435314
18	0x3cf98e56	0.030463379
19	0xbbe2f43b	-0.006926087
20	0xbc73cf45	-0.01488096
21	0x3d3224ac	0.043492004
22	0x3d24624c	0.040132806
23	0x3c6bd04c	0.014392924
24	0x3d54077d	0.051764954
25	0x3d0285be	0.031865828
26	0x3d689f87	0.056792762
27	0xbc37e017	-0.011222861
28	0x3d234cde	0.03986823
29	0x3c9c7256	0.019097488
30	0xbc99012f	-0.018677322
31	0xbd096861	-0.03354681
32	0x3d23f0b9	0.040024493
33	0x3c91c2b6	0.01779304
34	0xbd861c86	-0.06548409
35	0x3d7a0fdb	0.061050277
36	0xbd9bc27d	-0.07605455
37	0x3cfd6253	0.030930674
38	0xbd46e997	-0.048562612
39	0x3cb4f1ba	0.02208792
40	0xbd2c8790	-0.04212147
41	0xbcee08ea	-0.029056985
42	0xbcccb573	-0.024988865
43	0x3d214823	0.039375436
44	0xbcfed5f3	-0.031107878
45	0x3cc32151	0.023819597
46	0x3d3e8d05	0.046521205
47	0xbd61418a	-0.054994144
48	0x3bcd820a	0.0062716054
49	0x3cb7d7aa	0.022441704
50	0xbd4afde8	-0.04955855
51	0x3d03d832	0.0321886
52	0x3ad00b8f	0.0015872585
53	0xbd45e256	-0.048311554
54	0xbd3d6e35	-0.04624768
55	0xbcb898c4	-0.022533782
56	0xbc04eb3f	-0.008112728
57	0xbc1f7c19	-0.009734177
58	0x3d7e6f6c	0.06211798
59	0x3d37ce2e	0.044874363
60	0x3d3d223d	0.04617523
61	0xbd639b9d	-0.055568326
62	0xbd9dc9e1	-0.07704521
63	0xbceb8429	-0.028749542
64	0xbd8d910b	-0.069124304
65	0x3d741bff	0.05959701
66	0x3d4bbc34	0.04974003
67	0x3d5bd336	0.053668223
68	0xbd7021ae	-0.05862587
69	0xbcb288be	-0.02179372
70	0x3c7c11a5	0.015385066
71	0x3d061b10	0.032740653
72	0xbd68be54	-0.056822136
73	0xbd1ebb1c	-0.03875266
74	0xbd8fe0a6	-0.0702527
75	0xbd3aaf52	-0.045577355
76	0x3d07479b	0.033027273
77	0x3cb96f51	0.022636088
78	0xbd65ed3b	-0.056134444
79	0x3c718faa	0.014743725
80	0x3d673065	0.056442637
81	0xbd238e3c	-0.039930567
82	0x3d7a6066	0.06112709
83	0xbccb67c2	-0.024829749
84	0xbda004c4	-0.07813409
85	0xbd3820aa	-0.044953026
86	0x3d035632	0.032064624
87	0x3d1135a9	0.035451565
88	0x3d4b0d79	0.049573395
89	0x3c30dac0	0.010794342
90	0x3aaccf00	0.0013184249
91	0x3c627149	0.013820955
92	0x3d223482	0.039600857
93	0xbc6bf5ca	-0.014401862
94	0xbb74ec0f	-0.0037372147
95	0x3d85b243	0.06528141
96	0xbd171eec	-0.036894724
97	0x3d40bc75	0.047054727
98	0xbd9609b0	-0.073260665
99	0x3c5dce9c	0.013538029
100	0xbd8f5319	-0.069982715
101	0x3ccfa1ac	0.025345646
102	0x3d298e03	0.0413952
103	0xbca8700b	-0.020561239
104	0x3aab6518	0.0013076393
105	0xbb3f7a1c	-0.002921707
106	0xbbe2c11b	-0.0069199926
107	0xbcfe230d	-0.031022573
108	0xbcfb1f01	-0.030654432
109	0xbc38dcf5	-0.011283149
110	0x3b2947dd	0.0025830187
111	0xbd97cc1b	-0.07411977
112	0x3d1d0cb5	0.038342196
113	0xbd72366d	-0.059133936
114	0x3d60e2c0	0.054903746
115	0x3d6b6dcf	0.05747777
116	0xbd90887f	-0.070572846
117	0xbd1a7ae2	-0.037714846
118	0xbd98ea11	-0.074665196
119	0x3d152327	0.036410477
120	0xbd429362	-0.047503836
121	0x3d113c80	0.035458088
122	0x3d26abdc	0.04069124
123	0x3b80b2c6	0.0039275615
124	0x3d46ebff	0.048564907
125	0xbd82d395	-0.06388012
126	0xbd6db6b0	-0.058035553
127	0x3d70bd9a	0.05877457
128	0xbd927418	-0.071510494
129	0xb9e1374e	-0.0004295655
130	0xbd9aa08b	-0.075501524
131	0xbd4e2f11	-0.050337855
132	0xbd256b0c	-0.04038529
133	0x3ce83aec	0.028348409
134	0xbc60192f	-0.013677879
135	0x3d919f5a	0.07110472
136	0xbc9b8f1a	-0.018989135
137	0xbcfca104	-0.030838497
138	0xbc3c2332	-0.011483001
139	0x3cbadfbb	0.022811761
140	0xbd6c873a	-0.05774615
141	0x3b677cf8	0.003532229
142	0x3d6eb56a	0.05827848
143	0xbd59c45e	-0.053165786
144	0x3d3ba07b	0.045807343
145	0xbd906617	-0.07050722
146	0x3c2ce3c5	0.010552351
147	0xbd63e671	-0.055639688
148	0xbd88186f	-0.06645285
149	0x3d078930	0.033089817
150	0xbd869d41	-0.065729626
151	0x3d07740f	0.033069666
152	0x3d3be3ce	0.04587155
153	0xbcc12b64	-0.02358026
154	0xbc1487b8	-0.009065561
155	0x3d185081	0.03718615
156	0x3c30881e	0.01077464
157	0xbcbdbecf	-0.023162274
158	0x3c2aa22b	0.01041464
159	0xbd73e565	-0.05954494
160	0x3d2636b4	0.040579513
161	0xbc288b4e	-0.010287119
162	0xbd308b37	-0.043101516
163	0xbd698cef	-0.05701917
164	0x3b40a046	0.0029392405
165	0x3d79c58f	0.060979422
166	0xbd83329f	-0.064061396
167	0xbaa25b72	-0.0012386872
168	0xbd3ec8fb	-0.04657839
169	0x3cfe2822	0.031024996
170	0xbd18bca6	-0.037289284
171	0x3cecb298	0.028893754
172	0xbc39380e	-0.011304868
173	0xbba6d74d	-0.005091584
174	0x3c974f2d	0.018470371
175	0xbd9f5e6a	-0.0778168
176	0x3d6952a2	0.05696357
177	0xbc5f5fe0	-0.013633698
178	0xbd38cf63	-0.045119654
179	0xbd891723	-0.06693866
180	0x3bd34792	0.006447741
181	0x3cbc1420	0.022958815
182	0x3cd20a27	0.025639607
183	0xbd84981c	-0.06474325
184	0xbaab0f15	-0.001305076
185	0xbd7e4510	-0.062077582
186	0x3ca9a48f	0.02070835
187	0x3d45a513	0.04825313
188	0x3cc8bdd5	0.024504581
189	0xbd1a31fe	-0.037645333
190	0xbd7e42c0	-0.062075377
191	0x3d1ab0bd	0.037766207
192	0xbc85f96b	-0.016354283
193	0x3ce6e707	0.028186334
194	0xbc933539	-0.017969714
195	0xbd42df82	-0.047576435
196	0x3b1dfed5	0.002410819
197	0xbb9367d0	-0.0044984594
198	0xbd74b745	-0.059745092
199	0xbd471004	-0.048599258
200	0x3d5042ac	0.050844833
201	0x3cd0a51a	0.025469352
202	0xbcc815cf	-0.024424462
203	0xbbca596e	-0.0061752116
204	0xbda8920e	-0.08230983
205	0xbd46770e	-0.048453383
206	0xbc9cc41d	-0.019136483
207	0x3d8b7537	0.06809466
208	0x3cf6cd98	0.030127332
209	0x3c942f77	0.01808904
210	0x3d52485e	0.051338546
211	0x3d3517c0	0.044212103
212	0x3d4ed964	0.05050029
213	0x3d307a42	0.043085344
214	0xbd079ab1	-0.03310651
215	0xbcbe5e8d	-0.023238445
216	0x3d1a1143	0.03761412
217	0xbbee0874	-0.0072641913
218	0x3d8cefea	0.068816975
219	0xbd5a5649	-0.053304944
220	0x3c1a6bd1	0.0094251195
221	0xbc24f14c	-0.010067295
222	0x3d86ee69	0.06588442
223	0xbbee8229	-0.0072787
224	0x3d2cc18a	0.04217676
225	0xbc80828d	-0.015687251
226	0x3c018586	0.00790537
227	0xbd6a72e5	-0.05723848
228	0x3d628056	0.055298172
229	0x3d093f06	0.03350737
230	0xba10d2fe	-0.00055246043
231	0x3d6b2ca0	0.057415605
232	0xbd0e2a0e	-0.034708075
233	0xbd51d097	-0.051224317
234	0x3ccf17c8	0.025279894
235	0x3d5e5c7e	0.054287426
236	0x3d85a975	0.06526462
237	0x3c534fe8	0.012897469
238	0xbd7cb0c9	-0.061692033
239	0xbb4ea618	-0.0031532105
240	0xbd87cd3f	-0.066309445
241	0xbd45f9fc	-0.048334107
242	0x3d44c127	0.048035767
243	0xbbcf77de	-0.006331428
244	0x3d0c97da	0.034324504
245	0x3d7b597f	0.061364647
246	0x3d82674e	0.0636736
247	0xbd49020d	-0.04907422
248	0x3cca048e	0.024660375
249	0x3d59083d	0.052986372
250	0xbd90d781	-0.07072354
251	0xbbcd2cbf	-0.0062614377
252	0x3d60cd26	0.054883145
253	0xbd80d1b2	-0.06289996
254	0xbd63f80a	-0.05565647
255	0x3d8ea259	0.06964559

conv1.bias f4 [32]
0	0xbce6346c	-0.028101169
1	0x3d859320	0.065222025
2	0x3d36d0e7	0.04463282
3	0x3db97630	0.090557456
4	0x3cc563b5	0.024095396
5	0xbc85f736	-0.01635323
6	0x3d1e7d78	0.038693875
7	0x3d41063c	0.047125086
8	0xbce55213	-0.027993238
9	0x3d7a64f6	0.06113144
10	0xbcdc4827	-0.026889874
11	0xbd312dc7	-0.043256547
12	0x3d30f79a	0.04320488
13	0x3d525fc0	0.051360846
14	0xbcf85431	-0.030313583
15	0xbd48685d	-0.048927654
16	0xbd6983da	-0.05701051
17	0xbc58e284	-0.013237599
18	0x3be85fa5	0.00709148
19	0x3d71b865	0.059013743
20	0x3da89f98	0.08233565
21	0xbd954875	-0.07289211
22	0xbd8189a4	-0.06325081
23	0xbc4a7498	-0.0123569
24	0x3d6065b8	0.054784507
25	0xbd4172ae	-0.047228508
26	0x3d933c94	0.07189289
27	0x3d4a4ce8	0.04938975
28	0xbd38e391	-0.0451389
29	0xbc1821df	-0.009285419
30	0xbcf8b748	-0.030360833
31	0xbd0dbc1b	-0.03460322

conv2.weight f4 [64, 32, 4, 4]
0	0xbc50aafa	-0.0127360765
1	0x3bb391d7	0.005480032
2	0x3c94a122	0.01814324
3	0xbd432166	-0.047639273
4	0x3d15f07f	0.036606308
5	0xbd2c4a8b	-0.042063277
6	0xbc433287	-0.011913902
7	0xbc9d64c8	-0.019213095
8	0x3b90229e	0.004398658
9	0x3d12827a	0.035768963
10	0xbb58edbb	-0.0033100683
11	0x3b3fd90f	0.0029273664
12	0xbc52f87a	-0.012876624
13	0xbcfc4a81	-0.030797245
14	0xbca6fd94	-0.020384587
15	0xbc4866b8	-0.012231521
16	0xbad04746	-0.0015890382
17	0xbcb2836f	-0.021791188
18	0xbbb87746	-0.005629453
19	0x3d19dc21	0.037563447
20	0x3ca0392e	0.019558515
21	0x3d056be3	0.032573592
22	0xbbcb1d96	-0.0061985953
23	0x3c698ef0	0.01425527
24	0xbd1a192b	-0.03762166
25	0x3cfca5d8	0.0308408
26	0x3c783058	0.015148245
27	0x3d06855d	0.03284203
28	0x3d1df030	0.03855914
29	0x3d208085	0.039185066
30	0xbd0dae1b	-0.034589868
31	0xbd587850	-0.052849114
32	0x3c7d7cf2	0.015471684
33	0x39b86557	0.0003517072
34	0xbc61a8ca	-0.013773153
35	0x3b8b991a	0.0042601945
36	0xbc31401a	-0.010818506
37	0x3c982788	0.018573537
38	0x3d067c9f	0.03283369
39	0xbb974d70	-0.0046173856
40	0x3b4f7558	0.0031655636
41	0xbab6a457	-0.0013934475
42	0xbcc136fa	-0.023585785
43	0xbceb639c	-0.02873402
44	0xbcb0fd65	-0.021605203
45	0xbcb2749c	-0.02178412
46	0xbcd86262	-0.0264141
47	0xbcd8eca5	-0.026480028
48	0x3adebafb	0.001699298
49	0xbd346ebe	-0.044050924
50	0xbceac1bf	-0.028656838
51	0x3c07c76a	0.00828729
52	0x3ce0b491	0.02742985
53	0xbbebfdf0	-0.0072019026
54	0xbd4127a0	-0.04715693
55	0xbcb380ff	-0.021912096
56	0x3adaad24	0.001668368
57	0xbd12182e	-0.03566759
58	0x3c8bd102	0.017067436
59	0xbd4236d4	-0.04741557
60	0x3a64b48c	0.00087244133
61	0xbd007dd5	-0.031370003
62	0xbb666e59	-0.0035160987
63	0xbb3c091f	-0.002869196
64	0xbcce55c5	-0.025187382
65	0x3d12e5cb	0.03586368
66	0xbcc58907	-0.024113191
67	0x3cbbc3ea	0.022920568
68	0x3ce8b35d	0.02840584
69	0x3ca32cc2	0.019918803
70	0xbc73d79b	-0.014882947
71	0x3d087701	0.033316616
72	0x3b15d777	0.0022864023
73	0x3c42807d	0.011871454
74	0xbb295d1b	-0.0025842849
75	0xbc2632fe	-0.010143993
76	0x3d1b6753	0.037940335
77	0x3d0621b4	0.032746986
78	0xba9a4ef9	-0.0011772803
79	0xbd105c8f	-0.03524452
80	0x3d2bdd32	0.041958995
81	0xbcfc94ef	-0.030832736
82	0xbd3ffa8c	-0.0468698
83	0x3bcc73d0	0.006239392
84	0x3cf068cd	0.029346848
85	0xbc01b393	-0.007916349
86	0x3c9134aa	0.017725307
87	0x3cc39ac2	0.023877505
88	0xbd07597f	-0.033044335
89	0x3c8e04ef	0.017336337
90	0xbb9446b0	-0.004525028
91	0x3d13e78b	0.03610949
92	0xbd0634a9	-0.032765064
93	0x3d24e085	0.04025318
94	0x3ceac92b	0.028660377
95	0x3bd73946	0.006568107
96	0xbd26fcd7	-0.04076847
97	0x3c2f72d9	0.010708534
98	0xbd08e4ad	-0.033421207
99	0xbcf98144	-0.030457146
100	0xbcbc2af6	-0.022969704
101	0xbd05f7ef	-0.03270715
102	0x3d10b0cd	0.03532486
103	0xbd36cedf	-0.04463088
104	0xbca4c654	-0.020114101
105	0x3c99d90e	0.018780258
106	0x3cb9aada	0.022664476
107	0xbc8167d7	-0.015796585
108	0xbc3c5d94	-0.01149692
109	0x3caf8585	0.021425972
110	0xbbac7084	-0.0052624363
111	0x3cf5fad0	0.030026823
112	0xbccdb67f	-0.025111435
113	0xbc08783a	-0.0083294455
114	0x3c586910	0.013208643
115	0xbc9c7c46	-0.019102227
116	0xbcbcfde2	-0.02307028
117	0xbcf810c0	-0.030281425
118	0xbcf2b215	-0.029625932
119	0xbd21cc91	-0.03950173
120	0xbc52db59	-0.012869679
121	0xbcd3c282	-0.025849584
122	0x3cb82b7e	0.022481676
123	0x3c82c5c9	0.015963452
124	0xbce21a43	-0.027600413
125	0x3b8ed674	0.004359061
126	0xba23397c	-0.00062265224
127	0x3c6fda36	0.014639428
128	0x3cb4a4d1	0.022051247
129	0xbc89513d	-0.01676237
130	0xbd497e56	-0.04919275
131	0xbcd5a2bc	-0.026078574
132	0xbd0f82fe	-0.035037033
133	0xbc0e704e	-0.008693768
134	0xbd05d7dc	-0.032676563
135	0xbd226c3e	-0.03965401
136	0x3c8541ae	0.01626667
137	0xbd4bce4c	-0.049757287
138	0x3d088923	0.03333391
139	0xbd01f947	-0.03173187
140	0x3c9bdad2	0.01902524
141	0xbcfe7b54	-0.031064667
142	0xbd34b00f	-0.044113215
143	0xbd0c98f4	-0.034325555
144	0xbd5af5de	-0.053457133
145	0x3cdcc92e	0.026951399
146	0xbd30f6fa	-0.043204285
147	0x3d149cfe	0.036282532
148	0x3b5d786d	0.0033793703
149	0xbd3648c8	-0.044503003
150	0x3c5886bc	0.013215717
151	0xbb9cc7d1	-0.004784562
152	0x3b9564a4	0.0045591164
153	0xbcf611f8	-0.030037865
154	0x3ce16698	0.02751474
155	0xbd1e7cfa	-0.038693406
156	0x3c0b9e74	0.008521665
157	0xbb2089ac	-0.0024496121
158	0xbd1f1b31	-0.03884429
159	0xbd00a2c9	-0.031405244
160	0x3d057a01	0.032587055
161	0x3c39c1d9	0.011337721
162	0x3c0ce28f	0.008598938
163	0xbc9b13ee	-0.018930402
164	0xbcde1141	-0.027107837
165	0xbd26b4ac	-0.040699646
166	0x3c531d1f	0.012885361
167	0x3cb4de1b	0.022078564
168	0xbc56409d	-0.013076928
169	0xbc9310c7	-0.017952336
170	0x3cb67086	0.022270452
171	0xbccf8133	-0.025330162
172	0x3c8578da	0.016292978
173	0xbd10c7e2	-0.035346873
174	0xbd114153	-0.03546269
175	0x3c19f749	0.009397336
176	0x3c9f3bc6	0.019437682
177	0x3c84c3df	0.01620668
178	0x3c93e05d	0.01805132
179	0x3cae089a	0.021244336
180	0x3d15e407	0.036594417
181	0xbd3ccb44	-0.046092287
182	0xbc9b77af	-0.018977968
183	0xbd1194a5	-0.03554215
184	0xbc33a6b5	-0.010965039
185	0x3cbaaa17	0.022786183
186	0x3c2848bc	0.0102712475
187	0x3c966598	0.01835899
188	0xbca6e8c4	-0.020374663
189	0xbd181c76	-0.037136517
190	0x3d14d13d	0.036332358
191	0xbce1b962	-0.027554218
192	0xbbb6343e	-0.005560427
193	0xbd4e388a	-0.05034689
194	0xb89ff195	-7.626709e-05
195	0xbd35fb1e	-0.044428937
196	0x3c8e5bc0	0.017377734
197	0xbc08385c	-0.008314218
198	0x3ce00a09	0.027348535
199	0xbc4c5b3b	-0.012472923
200	0xbd27dd02	-0.040982254
201	0x3c9125e9	0.017718272
202	0xbd45b7df	-0.048271056
203	0xbbbf1a74	-0.005832011
204	0xbd6c47ca	-0.05768565
205	0xbd733415	-0.05937584
206	0xbd267a7b	-0.04064415
207	0x3cb3ad48	0.021933213
208	0x3c95982e	0.018261041
209	0x3d1851cf	0.037187394
210	0xbcf0285c	-0.02931612
211	0x3c12bef9	0.008956664
212	0xbd4bc657	-0.0497497
213	0xbcedb4ec	-0.029016934
214	0x3cc16ced	0.02361151
215	0x3caf606e	0.021408286
216	0xbd395b95	-0.045253355
217	0xb7bba89d	-2.2370654e-05
218	0xbd5abed9	-0.053404663
219	0xb9e84e6d	-0.0004430892
220	0xbc1cfff3	-0.009582507
221	0xbd31f84e	-0.043449692
222	0x3c81f1f9	0.015862452
223	0x3d059fd2	0.03262312
224	0xbcef4364	-0.029206939
225	0x3c3d26ec	0.011544924
226	0x3c8aa818	0.016925856
227	0x3c921614	0.017832793
228	0x3a8a3200	0.0010543466
229	0xbd3114fc	-0.043232903
230	0x3cb5926b	0.022164544
231	0xbc696976	-0.014246335
232	0xbc8642e7	-0.016389323
233	0x3d0c6853	0.03427918
234	0x3a324d40	0.0006801672
235	0xbcdc526e	-0.026894774
236	0xbca0045b	-0.019533327
237	0x3b479da0	0.0030458942
238	0x3cfeb18b	0.031090518
239	0x3c916ff8	0.017753586
240	0x3cb75c2f	0.022382824
241	0xbd46459f	-0.04840624
242	0xbca7474e	-0.020419743
243	0x3b51f349	0.0032035878
244	0x3c826b9d	0.015920455
245	0xbb55a49e	-0.003259934
246	0xbcabe569	-0.020983415
247	0x3ca31cca	0.019911189
248	0x3cd8439a	0.026399422
249	0xbc735b8f	-0.014853372
250	0xbd3b5d92	-0.045743532
251	0x3c822d4c	0.01589074
252	0xbd25247d	-0.040318
253	0xbd1fbf7e	-0.03900098
254	0xbd4cd90f	-0.05001169
255	0xbd3ac7bb	-0.045600634

conv2.bias f4 [64]
0	0xbcfdc227	-0.030976368
1	0x3c69ff58	0.01428207
2	0x3cd7138f	0.026254443
3	0xbc8c01f7	-0.01709078
4	0x3c225a04	0.009909157
5	0x3c42a025	0.011879002
6	0xbd221624	-0.039571896
7	0xbd2b5228	-0.041826397
8	0xbd182b6a	-0.037150778
9	0xbb83d422	-0.004023091
10	0xbd247b48	-0.040156633
11	0x3b34c359	0.0027582257
12	0xbbb3a698	-0.005482506
13	0xbcd88190	-0.026428968
14	0x3c6bc2dd	0.014389721
15	0xbd039e52	-0.032133408
16	0xbc181ca8	-0.009284176
17	0xbc84c426	-0.016206812
18	0x3cba1687	0.02271582
19	0xbd4db7a4	-0.05022396
20	0x3bbc47c5	0.0057458603
21	0xbd8f5188	-0.06997973
22	0xbcf3095f	-0.029667554
23	0x3c15362d	0.009107155
24	0xbd054581	-0.032536987
25	0xbd07d2b6	-0.033159934
26	0xbae3f998	-0.001739311
27	0x3ca3a9c2	0.019978408
28	0xbd011fcf	-0.031524476
29	0xbc964175	-0.01834176
30	0xbcfc58d9	-0.030804085
31	0xbd671be9	-0.0564231
32	0x3b22bc87	0.002483161
33	0x3ad41ea8	0.0016183453
34	0xbc9d991e	-0.019238051
35	0x3ca17704	0.019710071
36	0xbd161722	-0.036643155
37	0xbce3c1db	-0.027802398
38	0xbd311d85	-0.043241043
39	0xbd30236f	-0.043002542
40	0xbc477371	-0.0121735195
41	0xba5303ee	-0.0008049597
42	0xbd24cbbe	-0.040233366
43	0x3c40b30b	0.011761437
44	0xbd584e9c	-0.052809343
45	0xbcc18ad6	-0.023625772
46	0xbd071957	-0.03298315
47	0x3d129b4b	0.03579263
48	0xbd38a072	-0.045074888
49	0xbd6a4ca2	-0.05720199
50	0xbcb081d1	-0.021546276
51	0xbcd15440	-0.025552869
52	0x3c812ec4	0.01576937
53	0xbcf1f861	-0.029537382
54	0x3bd509c1	0.006501407
55	0xbd43d470	-0.047810018
56	0xbd3de053	-0.04635651
57	0xbd363ae6	-0.044489764
58	0xbd289194	-0.04115446
59	0xbd4b622e	-0.04965418
60	0xbcbe7266	-0.023247909
61	0x3c374240	0.011185229
62	0xbc6d0cd4	-0.0144683905
63	0xbcfdfb6f	-0.031003682

fc3.weight f4 [512, 256]
0	0xbd49d29e	-0.049273126
1	0xbc47026d	-0.012146574
2	0x3a011ac4	0.0004924948
3	0x3d75e1be	0.060029738
4	0xbd3d0c46	-0.046154283
5	0x3d49ea2a	0.049295582
6	0x3d019947	0.031640317
7	0xbcba0b66	-0.022710513
8	0xba961ff9	-0.001145362
9	0xbbbd22bf	-0.0057719643
10	0x3cb8d05f	0.022560297
11	0xbbf25f07	-0.007396582
12	0x3d04aea4	0.032393113
13	0xbd04dc7f	-0.032436844
14	0xbd8145aa	-0.063121155
15	0xbd2f8a4e	-0.042856507
16	0xbd168fc8	-0.036758214
17	0x3d458667	0.04822388
18	0x3c349240	0.011021197
19	0x3c376404	0.011193279
20	0x3d84e27f	0.06488513
21	0xbcc0868e	-0.02350166
22	0xbcbb00e6	-0.022827577
23	0xbc8f0e1e	-0.017462786
24	0xbc9c0974	-0.019047476
25	0xbc4e8995	-0.012606044
26	0xb9d71618	-0.00041024457
27	0xbd4cc467	-0.04999199
28	0x3d1b21c1	0.037873987
29	0xbb392d33	-0.00282557
30	0xbc114e44	-0.008868758
31	0xbb0aac78	-0.0021159928
32	0xbc41fa66	-0.011839485
33	0x3ccccb31	0.024999233
34	0xbd7d829c	-0.061892137
35	0xbc1c4aec	-0.009539347
36	0x3d5edfab	0.054412525
37	0x3d4b10c0	0.04957652
38	0x3d43366f	0.047659334
39	0xbb5b3b02	-0.003345192
40	0x3d3627c1	0.044471506
41	0x3d4d26c1	0.050085787
42	0xbd0c7f98	-0.03430137
43	0x3c12a4bb	0.008950408
44	0xbc7cb181	-0.01542318
45	0x3b765663	0.0037588112
46	0x3d4d9160	0.05018747
47	0x3d61f8c1	0.05516887
48	0xbd81ce55	-0.06338183
49	0x3d5f13e7	0.05446234
50	0xbd1188b7	-0.035530772
51	0x3d06f30a	0.032946624
52	0x3cf83629	0.030299263
53	0x3d368143	0.044556867
54	0x3ce67abe	0.0281347
55	0xbd107f0a	-0.035277404
56	0xbcb1dd9b	-0.021712115
57	0xbd4d07e1	-0.050056342
58	0x3d6321d3	0.05545218
59	0x3cd334b0	0.02578196
60	0x3d6d1935	0.057885367
61	0x3ca58d9c	0.020209126
62	0x3d01a60c	0.031652495
63	0x3bef69f5	0.0073063322
64	0x3a713478	0.0009201239
65	0x3c983ef3	0.018584704
66	0xbb6a9aa0	-0.003579773
67	0x3d24ac2c	0.04020326
68	0xbcbe406e	-0.023224082
69	0xbc9d759f	-0.019221125
70	0x3c18d775	0.009328713
71	0xbc2dec2a	-0.010615388
72	0x3caebb43	0.021329528
73	0xbd1771ff	-0.03697395
74	0x3d4f2110	0.05056864
75	0xbb170a1c	-0.0023046797
76	0x3d97da80	0.074147224
77	0x3ceef1a0	0.02916795
78	0x3d6dfa16	0.05809983
79	0xbd3e6269	-0.04648057
80	0x3d3253a0	0.043536782
81	0x3d0d16eb	0.034445684
82	0xbc96ccd6	-0.01840822
83	0x3d6a6907	0.057229068
84	0x3c84c4b8	0.016207084
85	0xbc91fd04	-0.017820843
86	0xbd16f171	-0.03685135
87	0x3d1fa117	0.038971987
88	0xbd005a97	-0.031336393
89	0x3d5b5d5f	0.053555842
90	0xbd865471	-0.06559075
91	0xbd514e92	-0.05110032
92	0xbcf40fd3	-0.029792702
93	0xbcd42695	-0.025897304
94	0x3d406c6b	0.046978395
95	0xbbdc8988	-0.006730262
96	0xbbb8510c	-0.005624896
97	0xbd182842	-0.037147768
98	0xbd1ea696	-0.038733087
99	0x3c31e7be	0.010858474
100	0x3cf61491	0.030039104
101	0x3d5a5e0c	0.053312346
102	0x3cd58423	0.026063984
103	0x3d05d82b	0.032676857
104	0x3cda88c8	0.02667655
105	0xbd330203	-0.04370309
106	0xbcfbf752	-0.03075758
107	0xbd4eab6b	-0.050456446
108	0xb92fac9d	-0.00016753604
109	0xbc54f002	-0.012996675
110	0xbc972a42	-0.018452767
111	0xbd0ceb9c	-0.034404382
112	0x3cc910c6	0.024544131
113	0xbd0baca0	-0.034100175
114	0xbd8e30d2	-0.069429055
115	0x3d44e55a	0.04807029
116	0x3ce16043	0.027511721
117	0xbc201d45	-0.009772603
118	0x3c8b4e37	0.01700507
119	0xbd8be811	-0.068313725
120	0xbc7e0e31	-0.015506313
121	0x3d6bf7ae	0.057609253
122	0x3d26ad78	0.040692776
123	0x3d74b84a	0.059746064
124	0xbcc10a74	-0.023564555
125	0xbc010729	-0.007875242
126	0x3d3f0ac0	0.04664111
127	0xbc55ae26	-0.0130420085
128	0xbcd49b74	-0.025953032
129	0x3d54a5cb	0.051915925
130	0xbd4a10b2	-0.04933233
131	0x3d3aa7b3	0.045570087
132	0x3cb14c4e	0.02164283
133	0x3b269204	0.0025416622
134	0x3d2bd9f2	0.041955896
135	0x3cf1ee0a	0.029532451
136	0x3d1d09f5	0.038339574
137	0xbcc7fab3	-0.024411535
138	0xbca5d6c8	-0.020244017
139	0xbd70e78d	-0.058814574
140	0x3d6af58b	0.057363074
141	0x3d4d568b	0.050131362
142	0xbcd0ed8b	-0.025503894
143	0x3d3f57f1	0.046714727
144	0xbced3e9d	-0.02896052
145	0xbd71d03e	-0.059036486
146	0x3d29b312	0.04143054
147	0x3c8ee598	0.017443463
148	0xbc081f09	-0.008308181
149	0xbd6cb842	-0.05779291
150	0xbd01ee2d	-0.031721283
151	0x3d0edc1b	0.034877878
152	0x3d85d2bd	0.06534336
153	0xbd89816e	-0.0671414
154	0xbc87facf	-0.016599087
155	0xbd1734e4	-0.036915675
156	0x3bbfb1ac	0.0058500376
157	0x3d6b4ce7	0.057446387
158	0x3d23876a	0.039924063
159	0x3cbcc8be	0.02304494
160	0x3d6cb755	0.057792027
161	0x3cd8b2ea	0.0264525
162	0x3d46de64	0.048551932
163	0xbc7c85b4	-0.015412737
164	0x3d1b1a7b	0.03786705
165	0x3d04390a	0.03228096
166	0xbce425db	-0.027850082
167	0x3cc27192	0.023735795
168	0xbd480627	-0.048833992
169	0x3d111da5	0.03542866
170	0xbbb48209	-0.0055086655
171	0x3d46cfe0	0.04853809
172	0x3bd69e4b	0.0065496317
173	0xbcd198e8	-0.025585607
174	0xbcf0d623	-0.029398983
175	0x3c854576	0.016268473
176	0xbd12039e	-0.03564798
177	0x3d876ef7	0.06612962
178	0xbcd0caff	-0.025487421
179	0xbd071e6f	-0.032988008
180	0x3d6b1c7e	0.05740022
181	0x3c852386	0.01625229
182	0x3da7156d	0.081583835
183	0xb9fcd53e	-0.00048224063
184	0xbd654050	-0.055969536
185	0xbc60f4ac	-0.013730209
186	0xbd46313c	-0.048386797
187	0x3cd09078	0.025459513
188	0x3cab0c94	0.020880021
189	0xbc46e641	-0.012139858
190	0x3c91cbd4	0.017797388
191	0xbcf75fbf	-0.030197022
192	0xbc7ad864	-0.015310381
193	0xbc93e22e	-0.018052187
194	0x3d6ecc00	0.05830002
195	0xbb9c3d10	-0.0047680214
196	0xbd95a534	-0.073069006
197	0xbca50b6d	-0.02014705
198	0x3b6c7f16	0.0036086491
199	0x3d78be63	0.060728442
200	0x38bb850f	8.941639e-05
201	0xbd198767	-0.037482645
202	0x3cd1b8c4	0.025600798
203	0x3bdd68fd	0.0067569003
204	0xbcc87c0e	-0.024473216
205	0x3d6e2d8f	0.058148917
206	0x3d7f7ea7	0.062376644
207	0xbd35f72f	-0.044425186
208	0xbcf60a9f	-0.030034361
209	0x3d1925b2	0.037389465
210	0xbc95e7e7	-0.018299056
211	0xbc2530b7	-0.010082415
212	0xbd719e4d	-0.058988858
213	0x3bb0ac22	0.0053916136
214	0xbd1dc525	-0.03851809
215	0xbd61d18d	-0.055131484
216	0x3d00c7b4	0.03144045
217	0x3d2fd797	0.042930212
218	0xbd6330f9	-0.055466626
219	0xbcc860ac	-0.02446016
220	0xbd35f4f2	-0.04442305
221	0xbb93d74b	-0.004511749
222	0xbd33dea7	-0.04391351
223	0x3b9c349d	0.004767014
224	0xbd0f33d5	-0.03496154
225	0xbd1d8220	-0.038454175
226	0xbb308704	-0.0026935944
227	0x3bf6beec	0.007530084
228	0x3d0f7d93	0.035031866
229	0xbd30cb12	-0.043162413
230	0x3cf47b77	0.029844029
231	0xbc769265	-0.015049552
232	0xbd389388	-0.04506257
233	0xbd8fa9c4	-0.07014802
234	0xbb8a8976	-0.0042278124
235	0x3ab208df	0.0013582966
236	0x3c9d69b0	0.019215435
237	0x3bd9281f	0.0066270973
238	0xbca6e3bf	-0.02037227
239	0xbc6edd90	-0.014579192
240	0x3d23ca54	0.039987877
241	0xbc11cd70	-0.008899078
242	0xbcc5d0f9	-0.024147497
243	0xbd26c2ed	-0.04071324
244	0x3d33fe32	0.04394359
245	0xbbe0849a	-0.006851745
246	0x3cc670cf	0.024223713
247	0x3d22b4bd	0.039723147
248	0xbd0e72db	-0.034777503
249	0x3d5cc5b7	0.053899493
250	0x3d3dd7b9	0.046348307
251	0xbc89558e	-0.016764428
252	0x3c888105	0.016663084
253	0xbd8bf036	-0.06832926
254	0xbcb73a40	-0.022366643
255	0x3c5799d3	0.013159233

fc3.bias f4 [512]
0	0xbc5416ee	-0.01294492
1	0x3c6a11a7	0.014286435
2	0xbd1ebb0c	-0.0387526
3	0xbdbeb0de	-0.093110785
4	0x3d1d1ce3	0.038357627
5	0xbd9bf965	-0.076159276
6	0xbd16dbbe	-0.036830656
7	0x3c6486a0	0.013948113
8	0xbca0038e	-0.019532945
9	0x3ce9e7b3	0.028552866
10	0xbc6846f4	-0.014177073
11	0x3d14e903	0.03635503
12	0x3c411211	0.0117840925
13	0x3d573922	0.05254472
14	0x3c5b0684	0.013368253
15	0x3d97c034	0.07409707
16	0x3caf8a69	0.021428304
17	0x3b9044a1	0.0044027125
18	0x3c6c6c9f	0.014430194
19	0xbc0189e2	-0.007906409
20	0x3d0803d7	0.033206787
21	0x3b37f679	0.0028070493
22	0xbb5d7bd0	-0.0033795722
23	0x3c80b971	0.015713425
24	0xbc287970	-0.010282859
25	0xbbf65a4e	-0.0075180894
26	0x3d5797bd	0.052634943
27	0xbd3f9a6d	-0.04677813
28	0x3cf141c7	0.02945031
29	0xbd95a511	-0.073068745
30	0xbdc06d58	-0.09395856
31	0xbd1272a9	-0.03575388
32	0xbd92fd7f	-0.07177257
33	0x3d16caf2	0.036814637
34	0x3cff5a6a	0.031171042
35	0x3bf21ba4	0.007388549
36	0xbc9cd654	-0.019145168
37	0xbc276524	-0.010216985
38	0x3cacf0e7	0.021110965
39	0xbcced064	-0.025245853
40	0xbd5ab8d6	-0.05339893
41	0x3d271ca5	0.040798802
42	0xbd5c0cc8	-0.053723127
43	0x3d2b481b	0.041816812
44	0xbd77e2da	-0.060519077
45	0xbd8ef813	-0.0698091
46	0x3d0b4aae	0.034006767
47	0xbd81f59c	-0.063456744
48	0xbc965926	-0.018353056
49	0x3d35eecd	0.04441719
50	0xbd5427ab	-0.051795643
51	0xbb8998b1	-0.0041991104
52	0xbce614d6	-0.028086107
53	0xbd272b48	-0.04081276
54	0xbc763fa0	-0.015029818
55	0xbd33ed31	-0.043927375
56	0x3c6acdc4	0.014331285
57	0xbc8046ea	-0.015658814
58	0xbd22c991	-0.03974301
59	0xbd64b02c	-0.055832073
60	0xbbdbf3ad	-0.006712398
61	0x3d334069	0.0437626
62	0x3c535057	0.0128975725
63	0x3afb948d	0.0019194052
64	0xbd4fec76	-0.050762616
65	0xbd3a5be6	-0.045497797
66	0x3d5903cd	0.05298214
67	0x3cbe037e	0.023195025
68	0x3c96dd04	0.018415935
69	0x3c8df7ae	0.017330017
70	0xbbae14ee	-0.0053125536
71	0x3d70fe52	0.05883629
72	0xbc94d39d	-0.018167311
73	0xbc6b098a	-0.014345536
74	0xbcc8e144	-0.024521478
75	0x3ce81eef	0.028335063
76	0xbd36964a	-0.04457692
77	0xbc54ac43	-0.0129805235
78	0xbd118012	-0.035522528
79	0xbbb074ab	-0.0053850017
80	0x3be34f7a	0.0069369646
81	0x3d5b5e17	0.053556528
82	0xbd7513e5	-0.059833426
83	0x3d1e4e25	0.038648743
84	0x3c3a61aa	0.011375824
85	0x3bce5cac	0.0062976684
86	0x3b5ad806	0.003339292
87	0x3d5fb934	0.054619983
88	0xbbe9ffdb	-0.007141096
89	0x3b80502e	0.003915808
90	0xbd27c8e1	-0.040963057
91	0xbbfcc629	-0.007714052
92	0xbda1e4e8	-0.079049885
93	0xbd730f82	-0.05934096
94	0xbd94a4ac	-0.07257971
95	0xbce9bd27	-0.028532578
96	0xbd915f52	-0.07098259
97	0xbd8ec389	-0.06970889
98	0xbae58f86	-0.0017514087
99	0xbd0e8623	-0.03479589
100	0x3bcb7892	0.0062094415
101	0x3c80bc08	0.01571466
102	0xbc9736c2	-0.018458728
103	0xbc8f5788	-0.017497793
104	0x3d74ad2a	0.059735455
105	0x3c8dec16	0.017324489
106	0xbdaa6d22	-0.08321597
107	0xbbe2036e	-0.0068973815
108	0x3d0733c3	0.03300835
109	0x3b81ede6	0.0039651273
110	0xbbcb9f20	-0.0062140375
111	0x3b826ef2	0.003980511
112	0xbc846cd0	-0.016165167
113	0x3ca55f08	0.020186916
114	0xbcb57c1d	-0.022153908
115	0xbd44856b	-0.0479788
116	0xbc30dbc5	-0.010794585
117	0x3cd03ba6	0.025419068
118	0x3d3da2c0	0.04629779
119	0xbc60c313	-0.013718384
120	0xbc37ee25	-0.011226212
121	0xbd642b8f	-0.055705603
122	0xbc8becb3	-0.01708064
123	0x3cef35d0	0.029200464
124	0x3d3e7470	0.046497762
125	0x3cf39974	0.029736258
126	0x3d739d0c	0.059475943
127	0x3ce01a26	0.027356219
128	0xbd086788	-0.03330186
129	0xbd907d9e	-0.070552096
130	0xbd1c4c89	-0.038158927
131	0xbcb88260	-0.022523105
132	0x3d403695	0.046927053
133	0x3c8fa6d6	0.017535608
134	0xbd3e75dd	-0.046499122
135	0xbc9449b7	-0.018101556
136	0xbd1ecb01	-0.03876782
137	0xbd3dbacd	-0.046320725
138	0xbd8aca78	-0.06776899
139	0xbc76f9ac	-0.015074175
140	0x3b9c956c	0.0047785547
141	0xbd0c6ca1	-0.034283284
142	0xbd966a79	-0.07344527
143	0xbd2f4e7a	-0.04279945
144	0x3d02da51	0.031946484
145	0x3d584387	0.052798774
146	0xbdb85c58	-0.09001988
147	0xbb1a808a	-0.002357515
148	0x3cf26292	0.029588018
149	0x3c9a1a02	0.01881123
150	0xbb915599	-0.004435253
151	0x3b75cbbe	0.0037505473
152	0xbd874912	-0.06605734
153	0xbd8e5b06	-0.06950955
154	0xbdacda5f	-0.084400885
155	0xbd67f777	-0.056632485
156	0xbd85fb83	-0.06542113
157	0xbc84e59d	-0.01622277
158	0x3c8f57d8	0.017497942
159	0x3cedec0a	0.029043216
160	0xbb3a6348	-0.0028440524
161	0x3d1db4f7	0.03850266
162	0xbc93944d	-0.018015051
163	0x3b505117	0.0031786615
164	0x3b3c7773	0.002875772
165	0xbc7d050f	-0.015443101
166	0xbca25b57	-0.019818945
167	0x3d4143a7	0.04718366
168	0xbd51ca67	-0.051218417
169	0xbc2f74aa	-0.010708967
170	0x3cb8597e	0.02250361
171	0xbca614b7	-0.02027355
172	0x3c85bbd6	0.016324919
173	0x3c9fe5ca	0.019518752
174	0xbd84241e	-0.06452201
175	0x3caa3889	0.020778911
176	0xbbc489e0	-0.0059978813
177	0xbd094c34	-0.03351994
178	0xbb6b17a0	-0.0035872236
179	0xbd99ba0c	-0.07506189
180	0xbd806d11	-0.06270803
181	0xbd463c1a	-0.04839716
182	0xbceebbb3	-0.029142236
183	0x3ce80a8d	0.028325344
184	0x3cdd535b	0.027017286
185	0xbd0472c9	-0.03233603
186	0xbd655be3	-0.055995833
187	0xbcf6519d	-0.030068213
188	0xbd53afc5	-0.0516813
189	0x3cd369cc	0.025807284
190	0x3d05fadc	0.03270994
191	0x3cbbaff5	0.022911051
192	0xbd08dcbd	-0.033413637
193	0x3d4e1556	0.050313316
194	0x3c4f089a	0.012636328
195	0x3d836952	0.06416573
196	0xbd4a7fde	-0.04943835
197	0x3cb4f633	0.022090053
198	0x3d8a9ce5	0.067682065
199	0xbc804b4d	-0.015660906
200	0x3b26dcfa	0.0025461302
201	0x3d6357b6	0.05550357
202	0xbb641626	-0.003480324
203	0x3d8bceb9	0.068265386
204	0xbcb4d7e2	-0.022075597
205	0x3c1cc76a	0.009569028
206	0xbd9fb6d4	-0.077985436
207	0xbd539b5f	-0.051661845
208	0x3d52955f	0.051411983
209	0x3d6ce60f	0.05783659
210	0xbceb1cdd	-0.028700287
211	0xbd873883	-0.06602576
212	0xbd51cc42	-0.051220186
213	0xbd24f661	-0.040274028
214	0x39b96e50	0.0003536814
215	0xbd10d380	-0.035357952
216	0xbd4ff0f9	-0.05076692
217	0xbcf21c11	-0.029554399
218	0xbd573788	-0.052543193
219	0xbd24e3ee	-0.040256433
220	0xbd8daeca	-0.06918104
221	0xbcf2b269	-0.029626088
222	0x3d944e2f	0.07241475
223	0xbd72069f	-0.059088346
224	0xbd571c47	-0.0525172
225	0x3c7a1591	0.015263931
226	0xbbf67772	-0.007521563
227	0x3d9cb359	0.07651395
228	0x3c89d1e5	0.016823718
229	0xbcb4178d	-0.021983886
230	0x3b9b8be1	0.0047468995
231	0x3c9492b8	0.018136367
232	0x3cc46e30	0.023978323
233	0xbbb52fa4	-0.005529361
234	0x3bf922ed	0.0076030404
235	0xbad28f48	-0.001606443
236	0x3ca3a976	0.019978266
237	0x3d98de6e	0.074643
238	0xbb717ae5	-0.0036846932
239	0xbd561827	-0.052269127
240	0x3dac6807	0.08418279
241	0xbbda02da	-0.006653172
242	0x3da7e149	0.081972666
243	0x3cc37b6e	0.023862567
244	0x3b928f42	0.004472644
245	0x3b48de50	0.0030650087
246	0xbdb5031b	-0.08838483
247	0xbd0ce642	-0.03439928
248	0x3d56f8b2	0.052483268
249	0x3c6fd5c1	0.014638365
250	0xbc6c9afe	-0.01444125
251	0x3c5640c1	0.013076962
252	0xbd0cbf95	-0.034362394
253	0xbcf9c988	-0.030491605
254	0x3d010fc7	0.031509187
255	0xba429559	-0.0007422767

fc4.weight f4 [3, 512]
0	0xbc727f58	-0.014800869
1	0x3c94c8fc	0.018162243
2	0x3d07e5e4	0.033178225
3	0xbb6c62ca	-0.0036069625
4	0xbc3d5f7d	-0.011558411
5	0x3ce5e42c	0.028062902
6	0xbcb79734	-0.022410966
7	0x3c67de0e	0.014152063
8	0xbd59d01e	-0.05317699
9	0x3d43af90	0.04777485
10	0x3d5179d0	0.05114156
11	0x3c9b2a56	0.018941086
12	0x3c7e8893	0.0155354915
13	0xbbe0ced7	-0.0068605947
14	0xbc28772c	-0.010282319
15	0xbca728dc	-0.020405225
16	0xbba621e2	-0.005069957
17	0xbd0f52f2	-0.034991212
18	0x3cd8006f	0.026367394
19	0xbcd95308	-0.02652885
20	0x3ca9392c	0.020657144
21	0xbad642a9	-0.001634677
22	0xbc513c74	-0.012770761
23	0xbca5f947	-0.020260466
24	0xbab5c1ec	-0.0013866997
25	0x3b64ef19	0.0034932552
26	0xbc441dac	-0.011969965
27	0xbcca40fc	-0.02468919
28	0x3c8f066a	0.017459113
29	0xbc41d424	-0.011830363
30	0x3c52e820	0.012872726
31	0xbc870702	-0.016482834
32	0xbb5fb6a9	-0.0034135974
33	0xbc721420	-0.014775306
34	0x3c538a04	0.012911323
35	0xbb547fd8	-0.0032424834
36	0xbacf9bdf	-0.00158393
37	0xbcd951b4	-0.026528217
38	0xbbd924cf	-0.0066267024
39	0x3d24a602	0.04019738
40	0x3d1ba7c8	0.038001806
41	0x3b974420	0.0046162754
42	0xbb97f4a9	-0.00463732
43	0xbcb0dd6a	-0.021589953
44	0xbbaffa05	-0.005370381
45	0xbc7f3c44	-0.015578333
46	0xbc947bd2	-0.018125448
47	0x3a8c4399	0.0010701298
48	0xbc80220a	-0.015641231
49	0x3d4208ea	0.047371782
50	0xbd0473f6	-0.03233715
51	0xbbde9944	-0.006793173
52	0x3cdb7e7f	0.026793716
53	0xbc6c172e	-0.014409823
54	0xbca5d242	-0.02024186
55	0xbc1fa5ce	-0.009744121
56	0xbbd172dd	-0.0063918666
57	0x3c375884	0.011190537
58	0x3c5fe7bd	0.013666091
59	0xbd096ee9	-0.033553038
60	0x3cf9a138	0.030472383
61	0xbc03b0cd	-0.008037758
62	0xbce0b34f	-0.027429251
63	0x3bd766e4	0.006573545
64	0x3c13b0a3	0.009014281
65	0x3c9f46d2	0.01944295
66	0x3bed5f1a	0.007244003
67	0xbce3a32b	-0.027787765
68	0x3c9e679a	0.01933651
69	0xbcfd09d1	-0.03088847
70	0x3b9d8b7f	0.004807889
71	0xbb838cc0	-0.0040145814
72	0x3c921d27	0.017836167
73	0xbb428182	-0.0029679243
74	0xbc53f69c	-0.012937214
75	0x3cd9149f	0.02649909
76	0x3c8bb40a	0.017053623
77	0xbb20d88d	-0.0024543137
78	0x3c0bd492	0.008534567
79	0x3cc6da15	0.024273911
80	0x3c648350	0.013947323
81	0x3cc0f3f7	0.023553832
82	0x3cb80bae	0.022466507
83	0x3cb7a99d	0.022419745
84	0x3cb88c06	0.022527706
85	0x3caa0597	0.020754619
86	0x3c392337	0.0112999
87	0xbcaf3510	-0.021387607
88	0x3cf41d52	0.029799137
89	0xbcf49f2f	-0.02986106
90	0x3c1d4f06	0.00960136
91	0xbd44f35c	-0.048083648
92	0x3cb6f247	0.022332324
93	0xbd05923d	-0.032610167
94	0x3c5459a3	0.012960824
95	0x3d05b8eb	0.032647055
96	0x3b3e5a4a	0.0029045516
97	0xbcb0dcd2	-0.02158967
98	0x3c39ecef	0.011347993
99	0x3d2f4b16	0.042796217
100	0xbd13ef1d	-0.036116708
101	0x3b4455b7	0.0029958317
102	0x3a87ab55	0.0010350744
103	0xbcf22ed5	-0.029563347
104	0xbd912383	-0.070868514
105	0xbb9eb16e	-0.0048429286
106	0xbd00843f	-0.03137612
107	0xbb73705c	-0.0037145829
108	0xbcaef564	-0.021357246
109	0xbc5f5ece	-0.013633443
110	0xbd317960	-0.043328643
111	0x3d125dd7	0.035734024
112	0xbc9cd989	-0.019146698
113	0x3c5ea5dc	0.013589349
114	0xba95a90d	-0.0011418179
115	0xbb8be4b6	-0.004269208
116	0x3c389c9a	0.0112678055
117	0xbc92896c	-0.017887793
118	0xbd1fd5b5	-0.039022166
119	0xbd136dfb	-0.035993557
120	0x3adc1394	0.0016790503
121	0xbce18c5d	-0.02753275
122	0x3d1fc579	0.039006684
123	0xb9b653a3	-0.0003477606
124	0xbd3e2fdc	-0.04643236
125	0xbcac2ccc	-0.021017455
126	0xbd034a11	-0.032053057
127	0x3cd89a90	0.026440889
128	0xbd19bffb	-0.037536602
129	0xbb9eed4a	-0.0048500644
130	0xbcbd9b2c	-0.02314528
131	0xbcb1e616	-0.021716159
132	0x3cbadcc9	0.022810357
133	0x3bb641b1	0.0055620302
134	0x3d0253b0	0.031818092
135	0x3cbc0c85	0.022955189
136	0xbd58f534	-0.05296822
137	0xbd20b7a9	-0.039237652
138	0x3c88a2b3	0.016679144
139	0x3cf7638f	0.03019884
140	0x3bfcec54	0.007718602
141	0xbbc469b6	-0.005994047
142	0xbb45684d	-0.0030121983
143	0xbce52c3b	-0.027975192
144	0x3b789666	0.0037931441
145	0x3c8463ae	0.016160812
146	0xbaf6011e	-0.0018768643
147	0x3cbcc8f4	0.02304504
148	0x3cf687b7	0.03009401
149	0xbc7ba62f	-0.0153594455
150	0x3cb228d7	0.02174799
151	0x3c51f174	0.012813915
152	0xbc7b9173	-0.015354502
153	0xbc9e80f2	-0.019348595
154	0x3d4b83c0	0.049686193
155	0x3b525eaa	0.0032099881
156	0xbce8f838	-0.028438672
157	0x3b91ea76	0.0044529987
158	0xbcb6e159	-0.022324251
159	0x3cdcc2f6	0.026948433
160	0xbc993637	-0.01870261
161	0xb98832d0	-0.000259778
162	0x37875826	1.6134301e-05
163	0x3c854013	0.016265905
164	0x3bf33f21	0.007423297
165	0xbcb54628	-0.02212818
166	0x39288a2c	0.00016073202
167	0xbcafb056	-0.021446388
168	0xbca81621	-0.020518364
169	0xbc8b0e7b	-0.016974678
170	0x3cd7ace8	0.026327565
171	0x3d09a518	0.03360471
172	0xbc7352cb	-0.014851282
173	0xbcb95efd	-0.022628302
174	0x3c988eb0	0.018622726
175	0x3c62f0d6	0.013851365
176	0xbcdbf90a	-0.02685215
177	0x3bf8ff68	0.007598806
178	0xbcbb245a	-0.022844482
179	0x3ca84c15	0.020544091
180	0x3c275f57	0.010215602
181	0x3cb42795	0.02199153
182	0xbcca297c	-0.024677984
183	0xbd57dfd2	-0.052703686
184	0xbce35f52	-0.027755413
185	0xbac7a603	-0.001523197
186	0x3cdd7828	0.027034834
187	0xbc98df59	-0.018661188
188	0x3b8fac0c	0.0043845233
189	0xbbdd5fec	-0.0067558195
190	0x3cb9293a	0.022602666
191	0x3a56163e	0.00081667665
192	0x3d0702c5	0.032961626
193	0xbc349dbb	-0.011023934
194	0xbb788e7a	-0.003792672
195	0x3d74aaee	0.059733324
196	0xbcb369ea	-0.02190109
197	0xbc392665	-0.011300658
198	0xbcd28888	-0.025699869
199	0x3c0b4886	0.008501178
200	0x3cefce99	0.029273318
201	0xbac64a38	-0.001512832
202	0x3cf5d6bd	0.030009622
203	0xbcab6f1a	-0.020927
204	0x3d19fea3	0.037596356
205	0x3c882aea	0.016622026
206	0xbbc2cf69	-0.0059451354
207	0x3d2fb03e	0.042892687
208	0xbc15f1e7	-0.009151912
209	0xbc3b508f	-0.011432781
210	0xbcbceba8	-0.023061588
211	0x3cd95497	0.026529593
212	0x3cc31a85	0.023816356
213	0x3cb480d7	0.022034092
214	0xbcc0a598	-0.023516461
215	0xbcd40695	-0.025882045
216	0xbd95d2bb	-0.07315584
217	0x3d199d33	0.037503432
218	0xbcd8e458	-0.02647607
219	0x3c33b331	0.0109680155
220	0xbac0510d	-0.0014672593
221	0xbcb5ca66	-0.022191238
222	0xbd2dc7a8	-0.042426735
223	0xbb3c7422	-0.0028755744
224	0xbca5bf76	-0.020232897
225	0xbce0c828	-0.027439192
226	0x3c881add	0.016614372
227	0xbbf2f354	-0.007414261
228	0x3d019f5d	0.03164612
229	0x3c2a981f	0.010412245
230	0x3cbac687	0.022799743
231	0xbc843690	-0.016139299
232	0xbca4281c	-0.020038657
233	0x3d1d35cb	0.03838138
234	0xbc84e569	-0.016222673
235	0x3c4939ca	0.012281844
236	0x3b7a7f8b	0.0038222994
237	0xbab31104	-0.0013661687
238	0xbc11e2ca	-0.008904168
239	0xbc60a2c8	-0.013710685
240	0xbc5f5cae	-0.013632936
241	0xbce731b0	-0.028221935
242	0x3d1a681f	0.037696954
243	0x3acb846b	0.0015527135
244	0xbc74714b	-0.014919589
245	0x3cf8dee2	0.030379716
246	0x3d00af29	0.031417046
247	0x3ccb87eb	0.024845084
248	0xbbf37a09	-0.007430319
249	0xbbf6654a	-0.007519399
250	0x3ce14ee2	0.027503435
251	0xbc39b4ab	-0.0113345785
252	0xbd759ec0	-0.05996585
253	0x3cf734a0	0.03017646
254	0xbba222ba	-0.0049479874
255	0x39f2ae09	0.00046287503

fc4.bias f4 [3]
0	0x3c61a10b	0.013771306
1	0xbc0fea7b	-0.008783932
2	0x3bc9ecd1	0.006162264
