data/trained_model.pth (torch, 691531 bytes, 8 tensors)

conv1.weight f4 [32, 3, 8, 8]
00000000: 7107 cd3c 8ccf 5abd f1d1 a7bb 2cd1 87bd
00000010: 98bb 86bd 4f50 96bd 76f0 d2bc 7370 49bc
00000020: ee78 4ebd aa7e 95bd 99b4 febc 585e f1bc
00000030: 8f5b 76bb 212b 3cbd c42e 1ebd b743 6d3d
00000040: 494d ec3b 79c2 783d 4fd4 84bb 0b85 2b3d
00000050: a62b 833d d204 61bc aec3 c4bc cb88 1abd
00000060: 7967 b33a ed0b 823c 5110 4fbc 8595 fe3c
00000070: 85bd 323d eb2d 1c3d 8666 6fbd 1c5a 80bc
00000080: d840 6dbc 67e7 91bd a42a 293d 3bde 0dbd
00000090: e9de 503d 0ff6 a1bd e4dc 90bc 91b1 76bd
000000a0: a874 eb36 770b 91bd 3ee8 053d 0224 4d3b
000000b0: 49e6 863d 03dd 1dbc a5cf 45bd 4abc cc3c
000000c0: b5bd 0fbd a067 4dbc 7881 8e3c 99ff 92bc
000000d0: f757 d9ba a1c1 babc 697d 983d 62de 303d
000000e0: 1593 5d3d 8e38 803c bde5 59bc 5d61 3bbb
000000f0: b2a5 71bd 00b9 2a3d 2063 5c3c 6c78 20bb
00000100: 14d5 77bd bdc9 b0bd 11f0 c3bc 95b4 1bbd
00000110: 44b8 a6bc 21af 933d 1c62 7e3d c3e1 0ebc
00000120: f509 393d 957a 92bd f1c7 54bd 32f8 49bd
00000130: c233 1c3d cd72 703d 59b0 243d 8ff4 eb3c
00000140: eae1 12bd b8d9 1ebd 5c38 683d a336 edbc
00000150: 729f 5ebc ca24 303d 1e90 503d 6e4e 223b
00000160: bb27 5fbc f607 973d 0eb9 023d 8db4 88bd
00000170: fff6 67bd 03dc bc3c c9e2 99bc 8c8f 5e3d
00000180: 3c2c 843d 149e f0bc bd1d 253d 93a2 0f3d
00000190: 27a5 0abd 6f95 923d 179c 33bb d549 22bd
000001a0: 00b7 33bd 9c50 3f3d abaa 3fbd eb85 d63b
000001b0: 5d4c e6bc 163f 733d 3504 7dbd 64df 82bd
000001c0: dc3c 8ebd 7db8 3f3d 3604 663c f747 43bd
000001d0: 4624 40bd d3ea 643d ea19 7ebc 1384 dcbb
000001e0: c412 973d 6763 7dbc c19b 993b 1b50 32bc
000001f0: 38c4 6c3c 7f88 353d 364f f4bc cd5b 873d
00000200: 117e 4c3d 183e 3d3d e95f 81bd c0c6 403d
00000210: 43ec 65bd f6a1 563d b258 8bbb aca6 963c
00000220: 023e c33c 5e3c 89bc 9871 803d 5061 8d3d
00000230: 8244 3fbc d9b0 ddbc e5a7 aabd 76ea 083d
00000240: 7cb6 1a3c 9967 363d 8075 783d 9e6b 46bc
00000250: ac3f e5bc f051 7bbd 019e c3bd d315 df3c
00000260: 418c d63b 4828 f537 988e 973c 8d44 903c
00000270: aa51 b8bc c54f 9dbc 51d2 a03c c7d1 3fbc
00000280: 9b18 763d ee75 29bb 4140 53bd 31ea 06bd
00000290: f27e b83d abc8 0e3d bdf8 6f3d 96f9 0d3c
000002a0: 4f5b 77bd 4b24 95bd d2d3 af3c 4628 313d
000002b0: 54cb 003d 335c c13c 6b4d cf3c bfc3 41bd
000002c0: 3b6a 3dbc 444f bc3c a5f4 123d f7af 5ebd
000002d0: 07ea 19bd fdc4 83bd 716d 283d 94ed 903d
000002e0: 5ba3 3abd d6ad 813d 16f7 543d b6c8 0b3b
000002f0: e5a4 4d3d 3511 f13c 4873 a1bc 8bad 9a3c
00000300: 0fac bcbc 5927 93bc d471 5bbd 27cd 203d
00000310: de72 0abd b393 07bd 31c5 193d fe08 313c
00000320: bf00 7fbb 25af 013b 51df 76bd efe1 f23b
00000330: a096 c03b 0b5e 59bc b96e b63c 0a13 5c3d
00000340: b8a4 09bc 6e50 63bd ac6d 483d 740d 5cbd
00000350: ff80 d3bc 4e53 a9b9 9147 a1bb b797 693d
00000360: cba1 70bd affa 90bc bfe6 1abd 64b7 0b3c
00000370: 93b1 293c 5a89 07bc 7d89 abbb cc1a a3bb
00000380: 41ed 523d fb03 5c3d 370d 463d 8d47 373d
00000390: 51be 0ebd d2d7 bdbc 4703 2fbd 0b15 97bc
000003a0: 5cea 773d 28b8 913d a57c 643c b723 83bd
000003b0: a5ea 033d 7fd2 1fbd bf49 1b3c 72b4 353d
000003c0: 9801 883d f559 343b ded1 33bc a0da 89bd
000003d0: 4b0c a0bc e448 b83c a357 843c 1249 0d3c
000003e0: 0580 ad3d 6fd1 3cbd 36fd 2ebd ca7f 68bc
000003f0: 1736 0cbd 9ef6 333c f129 7bbd 5853 7abd
0.025027962 -0.05342059 -0.0051214625 -0.06631693 -0.065787494 -0.073395364 -0.025749426 -0.012294876
-0.050408296 -0.0729955 -0.031091975 -0.029463932 -0.0037591194 -0.04593957 -0.038618818 0.057925906
0.0072113615 0.06073234 -0.0040536295 0.041874927 0.0640481 -0.013734059 -0.024019089 -0.037728112
0.0013687453 0.015874827 -0.0126381675 0.031077156 0.04363777 0.03812973 -0.058447383 -0.015667967
-0.014480792 -0.071242146 0.04130043 -0.034635764 0.050993834 -0.0790826 -0.017683454 -0.060227934
7.0171263e-06 -0.07082265 0.032692187 0.003130198 0.06586892 -0.009635213 -0.04829373 0.024992127
-0.035093028 -0.012536913 0.01739572 -0.017944144 -0.0016582002 -0.022797408 0.07445795 0.04318083
0.054095346 0.015651967 -0.013299403 -0.0028591969 -0.05899591 0.041680336 0.013451368 -0.002448584
-0.06050594 -0.086322285 -0.023918184 -0.038014013 -0.020351537 0.072111376 0.062105283 -0.008720818
0.04517551 -0.07152287 -0.05194849 -0.049308963 0.038135298 0.058703233 0.04020724 0.028803138
-0.03585998 -0.03878185 0.056694373 -0.028956717 -0.013587819 0.043003835 0.05091869 0.0024765986
-0.013620312 0.07374565 0.031914763 -0.06675062 -0.05663204 0.023054129 -0.018784897 0.054336116
0.064537495 -0.029372253 0.040311564 0.035067152 -0.033848908 0.071574084 -0.002740627 -0.039621193
-0.043875694 0.046707734 -0.04679362 0.006546726 -0.028112585 0.059386335 -0.06177159 -0.06390265
-0.06945202 0.0468068 0.01403909 -0.047676053 -0.046909593 0.05588801 -0.015509108 -0.0067296117
0.07376626 -0.015465594 0.0046877568 -0.010883356 0.014451079 0.044319626 -0.029822927 0.066093065
0.049924914 0.046201795 -0.063171215 0.047064543 -0.05613352 0.05240055 -0.0042525167 0.018390022
0.023833279 -0.016752418 0.06271666 0.069033265 -0.011674048 -0.027061867 -0.083328046 0.033426724
0.009442922 0.044532392 0.06065893 -0.012110619 -0.027984463 -0.06135744 -0.09551621 0.027232086
0.0065474813 2.9225033e-05 0.018500611 0.017610813 -0.022499878 -0.019203076 0.019631537 -0.01170773
0.06008206 -0.0025857645 -0.05157495 -0.032938186 0.09008588 0.03485934 0.058586825 0.008665463
-0.060389813 -0.07282313 0.021463308 0.0432513 0.03144391 0.023603534 0.02530547 -0.04730582
-0.011560972 0.022987016 0.035877842 -0.054367032 -0.0375767 -0.06434057 0.041119996 0.070765644
-0.045565944 0.06331985 0.051993452 0.002132935 0.050206084 0.02942715 -0.01970829 0.01888158
-0.023031263 -0.017963098 -0.05357535 0.03925815 -0.033800952 -0.03309984 0.037541572 0.010805367
-0.0038910357 0.0019788232 -0.060271565 0.0074121873 0.005877331 -0.0132670505 0.022269594 0.053729095
-0.008401088 -0.055496626 0.048932716 -0.053723767 -0.025818346 -0.0003229626 -0.0049218615 0.057029452
-0.058748048 -0.01769766 -0.037817713 0.00852761 0.010357278 -0.008272493 -0.0052348957 -0.0049775597
0.051495794 0.053714734 0.048352446 0.04474597 -0.03484947 -0.0231742 -0.042727735 -0.018442651
0.060526237 0.07115203 0.013945733 -0.064032964 0.032206196 -0.039019104 0.009478032 0.04436154
0.06640929 0.002751944 -0.010975329 -0.067311525 -0.019537112 0.022495694 0.01615507 0.008623378
0.084716834 -0.04609817 -0.04272195 -0.014190624 -0.03423127 0.010984091 -0.061319295 -0.06111464

conv1.bias f4 [32]
00000000: 356b 96bd f525 81bd c78d 463d 3430 353d
00000010: c269 08bd 0d52 9bbc cdb9 77bd 0a0c c4bc
00000020: d38a 8e3d 0af6 8c3d e46a 0fbd 34a7 bb3d
00000030: 788f 29bd fac0 c1bc 6d00 893d 8389 713d
00000040: b444 8abd a13d d13c 3123 fc3d 172d 973c
00000050: ebbf d0bc 376b b43d bfe0 93bd cc78 5d3c
00000060: 7046 92bd 69c4 77bd d976 39bc 226d f3bc
00000070: 5a20 43bd 8f36 ac3c 1181 6f3d 2ab8 573d
-0.07344667 -0.06306068 0.048475053 0.044235423 -0.033303984 -0.018960023 -0.060479928 -0.023931522
0.06960072 0.06882866 -0.03501405 0.09162751 -0.041396588 -0.023651589 0.06689534 0.058969032
-0.06751385 0.025542082 0.123114 0.018454118 -0.025482139 0.08809512 -0.07220601 0.01351757
-0.07142341 -0.060490046 -0.011319839 -0.029715125 -0.047638275 0.02102211 0.058472697 0.052665867

conv2.weight f4 [64, 32, 4, 4]
00000000: 8cac f43c 6bcf 043d 402b 92bc 55dc 38bd
00000010: 7e5c 063c 6eab a2bb 33f2 41bd 1ac7 20bc
00000020: 0e8d 1f3c bde8 49ba 12fd 2d3c cfcd 873c
00000030: a165 9a3c 77a6 2f3c 5ffd 9b3c 8ab3 02bd
00000040: 58c7 c13b 63f0 04bd 63b7 62bd ccb4 cdbc
00000050: 7a19 0bbd 173a 07bd 88d2 1bbd ded2 c53c
00000060: 153d 193d e8c8 d7bc de07 c8bc 5485 9e3c
00000070: f388 45bd a8e1 b6bb 5390 3bbd 960d 00bd
00000080: 2cf6 083d f847 35bd 4fa2 d3ba 298d 043d
00000090: 4a63 74ba d675 20bd a055 75bc cd00 1bbd
000000a0: 2251 0b3c d0ee 42bd f11a d7bc 1162 273d
000000b0: af22 863c 05f4 c13c 08bc 2bbd 33ee d4bc
000000c0: 4af9 043d 05e2 cfbc 126f 2cbd 806f 05bd
000000d0: 8083 c2bc 0268 3abd d10f b1bc c122 a3bb
000000e0: 9a0a 1ebd 137c 2bbd ca0f 933c 107e 31bb
000000f0: b3ff bc3c 0fd1 f53c d567 0ebd a500 23bd
00000100: 33a9 893c eaba 79bc 7e2a fa3c b2d9 ecbc
00000110: 3809 e5bc 2ef0 a1bc 172d 393c b7b4 03bb
00000120: 2c88 923b 7dbd 9b3c 53e7 e13c d3bf 233d
00000130: aacd b7bb 7b33 c1bc 66ef 993c bc8f a83b
00000140: cd79 083d af75 2c3c 46da 33bd b4d6 b43c
00000150: f0ff 063d 7685 1abc e43c f63c 4890 a1bc
00000160: 9175 f5bc 971f 6dbc 45c9 d6bc e7f5 d9bc
00000170: e405 253d f206 9cbc 60b9 ff3b 6c00 20bd
00000180: 0731 fc3a ae9c 35bd 36a8 153d 4fad 8bbc
00000190: 6b4b 1ebd bbba 42bd 3a87 19bd 676c 1abc
000001a0: 7632 d73c 9350 9dbb a879 9cbb add8 a7bb
000001b0: 0d43 51bc 2d93 61bc 9703 c63c 7a5e 973c
000001c0: 84bf f53a 9c57 6b3c fafe ee3c 2219 dd3b
000001d0: b8d5 22bd f093 f0ba 160b 0a3d f09f 013d
000001e0: 304f ab3b e324 083d 465b 45bd dbd4 0dbd
000001f0: dd38 8d3a bac8 97bc 6130 20bc 9692 1abd
00000200: f648 43bd 2afd 32bc 80c0 42bd 3258 4dbc
00000210: d1d8 31bc 1f50 f33c 014d ff3c 06ee ebbb
00000220: 04c4 44bd c80e bdbc 6494 c43c dcbf 3cbd
00000230: 4906 bab9 8e46 b3bc 67ef a4bc f10b acbc
00000240: 8ca8 383b 0d8b 003d b392 11bd a71e fbbc
00000250: 2026 d2bc 872a 4a3c 263e 443c c9af ff3c
00000260: a6ba e13b d073 2fbd 2923 23bd de05 6a3c
00000270: 9f10 c73c b05a 123d f60c 163d 32ab c63c
00000280: 28ec 8ebc fa02 c63c 679c d23c 3aef 853b
00000290: ce2a c93c 3e1a f43c bcb9 26bd 8156 5cbd
000002a0: 897d d3bb ca96 bebc 03d9 e8bb 6c3f e1bb
000002b0: 3f83 febb 1754 a53b 901a a73c 89f7 3ebd
000002c0: fb5a 60bb 0cf8 1dbd 9063 3dbd 7103 45bd
000002d0: 8827 f3ba 5683 18bc 9f30 3bbd f432 b4bc
000002e0: 6b76 39bd ba84 c23c a231 153d 21ed 1ebd
000002f0: a051 25bd 19a2 0fbb c5da 28bd 2128 d93c
00000300: d5d3 fdbc 2f6f 183d a04f d0bc ada4 a7bb
00000310: c422 963c 77a2 10bd b5df 633c d83d 9f3c
00000320: 1207 aabc 9611 bdbc 3f02 713c 91bd 1b3d
00000330: 7a47 a0bb bc67 b73c 87e1 f8ba c3c1 8c3c
00000340: 3439 80bc 9b5f 42bd 224c 043d 61a9 41bc
00000350: b2a0 113d 699c 7f3c 4b1a c3bc 4d2f 2fbd
00000360: f093 43bd 7833 b5bb 8268 9f3c 0c59 593c
00000370: e458 43bd 635d a93b 4c91 adbc 8459 203c
00000380: b787 1dbc 0270 25bc bb3c 98bc b3da 38bd
00000390: 117d 17bd 53fc 86ba e857 22bd 2e99 e7bc
000003a0: 5612 233d 6e31 893c 6c08 aebc 0fcb 393c
000003b0: 9583 c6bc 56a4 4abc 4490 b43c 5c63 7b3c
000003c0: f17a b73b 23f5 0d3d fc31 feba 2920 0dbd
000003d0: 0888 c93c c242 563c c723 203d 69fb f2bc
000003e0: 663f f2bc d563 07bd 3cb3 e3bc eb96 64bb
000003f0: cd48 fbbc 68d3 9cbb 8592 873c a907 213c
0.029867433 0.03242437 -0.017842889 -0.045132 0.008200763 -0.0049642837 -0.04735012 -0.0098130945
0.00973822 -0.0007702222 0.010619419 0.01657763 0.018847289 0.010720841 0.019041715 -0.031909503
0.005913656 -0.032455813 -0.055350672 -0.025110625 -0.033959843 -0.033014383 -0.038042575 0.0241484
0.037411768 -0.026340917 -0.024417814 0.019350685 -0.048226308 -0.0055810995 -0.045791935 -0.031262957
0.033437893 -0.044258088 -0.0016146394 0.032361183 -0.00093226566 -0.039174877 -0.014974028 -0.03784256
0.00850323 -0.04759103 -0.026257964 0.040865008 0.01637396 0.023675928 -0.041927367 -0.025992488
0.032464303 -0.02537633 -0.042098112 -0.032577038 -0.023744345 -0.045509346 -0.021613987 -0.004978508
-0.03858433 -0.041866373 0.017951865 -0.0027083196 0.023071146 0.030006913 -0.03476699 -0.039795537
0.016804313 -0.015242318 0.03053784 -0.028912399 -0.027958497 -0.019767847 0.011302254 -0.0020096728
0.0044717994 0.019011253 0.027576124 0.03997786 -0.005609234 -0.023584118 0.018790912 0.0051440876
0.033319283 0.010526105 -0.043909334 0.022075035 0.032958925 -0.009431234 0.030058332 -0.019722119
-0.029963287 -0.014472864 -0.02621902 -0.026606513 0.04028882 -0.01904628 0.007804081 -0.039062902
0.0019240686 -0.044338875 0.03653737 -0.017050413 -0.038646143 -0.04754136 -0.037482478 -0.009425259
0.026269179 -0.004800865 -0.0047752447 -0.0051222653 -0.012772334 -0.013768 0.024171634 0.018477667
0.0018749093 0.014364149 0.029174317 0.006747381 -0.0397546 -0.0018354636 0.03370198 0.03164667
0.0052279457 0.033238303 -0.04818275 -0.034626823 0.0010774393 -0.018528331 -0.009777159 -0.03773745
-0.047677003 -0.010924617 -0.047546864 -0.012533234 -0.010854916 0.02970129 0.031164648 -0.0072000055
-0.048038498 -0.023078337 0.02399654 -0.04608141 -0.00035481367 -0.021884229 -0.020133687 -0.021001788
0.0028176634 0.03138261 -0.035540294 -0.030654265 -0.025652945 0.012339241 0.011977708 0.03121175
0.0068887053 -0.042835057 -0.039828453 0.014283625 0.024299918 0.035731018 0.036633454 0.024251554
-0.017446592 0.024171341 0.025709344 0.004087356 0.024556544 0.02979767 -0.040704474 -0.053793434
-0.006454174 -0.023265261 -0.007105948 -0.0068740156 -0.0077671106 0.0050454247 0.020398408 -0.046622787
-0.0034233916 -0.038566634 -0.04623753 -0.048098985 -0.001855121 -0.009308657 -0.045700666 -0.021996953
-0.045278948 0.02374493 0.036424287 -0.038800362 -0.040361047 -0.0021916686 -0.04122426 0.026508393
-0.030984798 0.037215408 -0.025428593 -0.0051160664 0.018327124 -0.03531119 0.013908316 0.01943867
-0.020755325 -0.023079675 0.014710008 0.03802258 -0.004891333 0.022388332 -0.0018988111 0.017182237
-0.015652277 -0.047454458 0.03229917 -0.011820168 0.03555364 0.015601256 -0.023816248 -0.04276972
-0.047748506 -0.005529817 0.019459013 0.013265859 -0.047692195 0.0051686033 -0.021187447 0.009786967
-0.0096148765 -0.0100975055 -0.018583646 -0.045130443 -0.036984507 -0.0010298587 -0.039634615 -0.028271284
0.03981241 0.016747203 -0.02124425 0.011339917 -0.024232665 -0.012368282 0.022041447 0.015343513
0.0055993726 0.03465761 -0.0019393559 -0.0344545 0.024600998 0.01307744 0.03909662 -0.029660897
-0.029571246 -0.03305419 -0.027795427 -0.0034879993 -0.030674363 -0.004785944 0.016549358 0.0098284865

conv2.bias f4 [64]
00000000: 7db4 c63c 18df 20bd 2743 053c beaf d83c
00000010: f017 75bc 6fe5 50bd 7c1c 17bb 777a 37bd
00000020: 3eb5 963b 3b8c 0d3d c253 cc3c 0937 d63b
00000030: b57d 33bd 7ad9 ae3c d702 0bbd de8c 48bd
00000040: 5082 b93c 93c0 39bd f7aa a839 44e3 d93c
00000050: 47fc 17bb 0136 d3bc 3782 14bd 13d3 e53b
00000060: 6f7a b93b 0763 35bd 13b1 4cbd 981a 143c
00000070: 1ff7 0dbc 9ab2 51bb 00a8 20bd 14c7 2f3b
00000080: ed14 f93a ea2a 2cbd 28dd e23c f268 04bd
00000090: 1784 dd3b f275 d4bb 6273 523c 01e8 61bd
000000a0: 78c4 66bd c17a 37b9 8fb7 933c 8cc9 2abd
000000b0: d2be abbc edc0 fa3a 944a 59bd be68 1a3c
000000c0: 5363 00bd 1abe 66bc bcfb eebc eba2 65bd
000000d0: 36d6 19bd 5870 d53a 1f95 46bb 25c6 cd3b
000000e0: b561 27bc a157 df3c 08e0 d8bc cf2a e03c
000000f0: 7f66 07bd 0738 9e3c bb15 4dbd e417 ddbc
0.024255985 -0.03927526 0.008133686 0.026450988 -0.01495932 -0.051000055 -0.002305775 -0.044794526
0.0045992425 0.034557562 0.024942283 0.0065373224 -0.043821055 0.021343935 -0.033938255 -0.048962466
0.022645146 -0.04534967 0.00032170836 0.026597627 -0.002319114 -0.025782587 -0.036256995 0.0070136874
0.005660347 -0.044283893 -0.04997356 0.009039544 -0.008664875 -0.0031997324 -0.039222717 0.002682154
0.0019003429 -0.042033114 0.027693346 -0.032326646 0.006760131 -0.0064837867 0.012844892 -0.055152897
-0.05633971 -0.0001749797 0.018031863 -0.041696116 -0.020965014 0.0019130983 -0.05304964 0.009424387
-0.031344723 -0.01408341 -0.02917277 -0.056063574 -0.037557803 0.0016284091 -0.0030301285 0.006279724
-0.010216166 0.027263464 -0.026474014 0.027364163 -0.033056732 0.019313825 -0.050069552 -0.026988931

fc3.weight f4 [512, 256]
00000000: eafe 9f3c 5cdb e5bb 2bf3 713d 21f1 cc3b
00000010: 3046 6a3d b06a e53c b23d cebc 0096 0abd
00000020: c4e1 02bd f16c 613c 85b2 aabb 6c5b 4b3d
00000030: 2255 80bc c650 94bc 1c22 9d3c ebab c0bc
00000040: 8205 42bd 9932 1d3d 2400 26bd 3029 8b3d
00000050: e80c 2f3d f41c d43b 3e12 533d 14cc 993c
00000060: 9281 7fbd f44f 823c 7eab dbbc c2b6 593d
00000070: 2ef7 30bd 94d7 2c3d 96d2 c1bc 915b 51bd
00000080: f586 603d 0e57 3b3d f9e3 01bd 2cac 4cbd
00000090: 28e5 75bd 1419 77bd f70f 563d 4b08 4d3d
000000a0: 54f6 803c 7bc9 eb3b a5cb 283d 6156 4bbd
000000b0: bd50 c13c cedc 733c 3e1f b2bc f353 1f3a
000000c0: 14ce b8bc 77aa 9539 713a 233c 4f2e a2bc
000000d0: 4c90 bcbc 1a1d cc3c 60fe 803c caa3 96bc
000000e0: 67b1 2cbd be06 14bd fc95 683d e063 0cbb
000000f0: 2305 53bc 1908 173d 623c 42bd 5420 5d3d
00000100: 6720 963c b845 923d c378 433d 9630 cbbc
00000110: f128 2bbd ebac 8e3c b4b7 08bd 83ae 1b3d
00000120: 45d6 b83c f70c 773c 049c 04bd 03c1 f3bc
00000130: 45d8 1dbd 012a 6c3d 069c 903c 285e 79bc
00000140: 3678 fb3c d343 4ebc a4d0 853b 81ea 873c
00000150: af39 723d 0292 ce3c 0059 38bd d374 143d
00000160: 0ea8 d7bb cb3e 013d c067 823d 849c 6dbd
00000170: 44c3 cf3b 63b4 a93c e8a9 37bd 4cdf b33c
00000180: 3c3c 5dbd 0167 a53c 9dd7 403d 81c3 3a3c
00000190: b0e3 b7bb 1d44 09bd adc1 69bd 72b0 2ebc
000001a0: 42b1 a1bc d329 453d d1cf 09bd bb1f 0fbd
000001b0: 4ee9 39bd ec3a 39bd 14c6 0c3c fc62 803c
000001c0: a41a 1e3d 57eb 71bd 62ea 44bd b3d4 afbc
000001d0: c7ae ce3c 298f f4bc 86b0 1bbd 0c50 57bc
000001e0: 5079 e23c 1af3 193d ebc9 85bd 24f3 19bd
000001f0: dad3 6abd 8b5c 6bbc 3997 3e3d 05b5 383d
00000200: cf7a 2bbd b8fd 62bd aa1b 2dbd ad5e 02bd
00000210: 3c11 633d e789 503d bff2 c0bc 5922 89bc
00000220: b121 553d 45b1 3e3d 02a5 1dbd 36a3 86bc
00000230: 20fb 94bc db46 ff3c ac22 af3c 2f68 22bd
00000240: d9a8 0dbc 8593 8abc ab45 53bd 4cf0 a6ba
00000250: e220 68bd 28b5 62bc 9da1 4bbd 5fa1 d9bc
00000260: e195 b5bc 21aa ffbc 4284 2dbc 893e 5e3d
00000270: 69d5 b9bc ff93 39bd 10b6 66bd 4ef4 f93c
00000280: 5ac5 3ebd 3fdb 1abc a4af d5bc 83ef 9a3c
00000290: 2fae 3ebd 1236 8cba 7e58 783d 09f7 223d
000002a0: ab53 2e3d be82 363d eb5c c4bc a467 6bbd
000002b0: 4848 abbb b31d 033d c4d2 64bc 4f10 0bbb
000002c0: bd5f 3dbd bf63 2c3c c2c4 aa3c dd20 383c
000002d0: fa45 31bd 8697 773d 0e84 47bc 732e 473b
000002e0: 0098 d138 9ae4 58bd bf67 9e3c d595 38bc
000002f0: 4b65 5bbd 836b 04bd ad4c 8b3b 37a2 183d
00000300: dd56 8fbc 53f9 3cbc 98d4 193c 4967 723d
00000310: ed72 083c d773 6abc c91b d13c 80af 0d3a
00000320: 39d6 b73c e4c9 f1bc 2215 053c 9289 b73c
00000330: acfc 6d3d f269 643d 5e20 75bd ee92 563d
00000340: 6784 0e3d 0e5b 9a3c 0713 bfbc 5a42 413d
00000350: e7db c3ba 1d12 993c 3618 81bd 2a11 d23c
00000360: 5e6c daba 4dad 693d d965 85bd 9afc c13c
00000370: e16e 303d 4418 5abd 2313 82bd 5309 053d
00000380: b489 0a3d 0841 bbbc cc45 7c3d abaa 4b3c
00000390: 1f0d b03c 10b7 423d 21e4 323d fef3 e93c
000003a0: db75 4b3d 4c9c a03c 143b a0bc 25d4 9ebc
000003b0: 1021 943c 0cec 1b3d f12b c43a 1683 77bd
000003c0: 33e2 8dbb 0a05 113d 115f 153d 846f a23c
000003d0: af37 233d 6056 d23c 407d 2e3d 5a78 203d
000003e0: b0ed 4c3c 7a53 5b3a c71b 073d 1a01 8a3a
000003f0: 02a5 32bd 1bbb a33a 73d6 29bd 1fd2 153d
0.019530732 -0.007014675 0.059069794 0.0062543307 0.057195842 0.028004974 -0.025175903 -0.033834457
-0.031953588 0.013758884 -0.0052092695 0.049647734 -0.015665594 -0.018104922 0.019181304 -0.023519477
-0.047368534 0.03837833 -0.040527478 0.06794965 0.042736918 0.006473178 0.05153107 0.01877407
-0.062379427 0.015907265 -0.026815172 0.053152807 -0.04320448 0.04219778 -0.023659986 -0.051112715
0.054816205 0.04573732 -0.031711552 -0.049968883 -0.060032994 -0.06032665 0.05226132 0.050056737
0.015742458 0.007195649 0.041209836 -0.049642924 0.02359807 0.014884187 -0.021743413 0.0006077878
-0.022559203 0.000285465 0.009962664 -0.019797472 -0.023018025 0.02491622 0.015746295 -0.018388648
-0.04216137 -0.036139242 0.05678366 -0.0021421835 -0.012879643 0.036872957 -0.047420867 0.05398591
0.018325998 0.07142204 0.04772259 -0.024803441 -0.04178709 0.017416438 -0.033378318 0.038008224
0.02256311 0.015078775 -0.03237535 -0.029755121 -0.03853633 0.057657246 0.017652523 -0.0152202025
0.03069697 -0.012589413 0.00408371 0.016591312 0.059137043 0.025216106 -0.045006752 0.036244225
-0.006581313 0.031554025 0.06367445 -0.058010593 0.006340416 0.020715898 -0.04483977 0.021957062
-0.054012522 0.020190718 0.047080625 0.011399151 -0.0056118593 -0.033512224 -0.05706947 -0.010662185
-0.019737843 0.04813559 -0.033645455 -0.03494237 -0.045388512 -0.045222208 0.008592147 0.0156722
0.038599625 -0.05906233 -0.048075087 -0.021463728 0.025229825 -0.02985342 -0.038010143 -0.013141643
0.027645737 0.037585355 -0.065326534 -0.037585393 -0.057330944 -0.014365326 0.046530936 0.04509451
-0.041865166 -0.055417746 -0.04226271 -0.03182857 0.055436358 0.050912764 -0.02355325 -0.016740011
0.052034084 0.046555776 -0.03848744 -0.016435247 -0.018186152 0.031161716 0.021378838 -0.03965014
-0.008646213 -0.016916046 -0.051580112 -0.0012736409 -0.056671984 -0.013837136 -0.049714673 -0.026566206
-0.022166194 -0.031209053 -0.010590615 0.054258857 -0.02268477 -0.045307156 -0.056325972 0.030512001
-0.046574928 -0.009451686 -0.026084729 0.018913036 -0.046552833 -0.0010697267 0.060631268 0.039786372
0.04256026 0.04455828 -0.023970088 -0.057471886 -0.0052271225 0.032010745 -0.013966266 -0.0021219437
-0.04623388 0.010521828 0.020845775 0.011238304 -0.043279625 0.06044724 -0.01217748 0.0030392676
9.994209e-05 -0.052952386 0.01933658 -0.0112661915 -0.053563397 -0.032329094 0.004251084 0.037264075
-0.017497474 -0.011534053 0.009389065 0.05918053 0.008328182 -0.014309845 0.025525944 0.00054048747
0.022441017 -0.029515214 0.008122714 0.022404466 0.058102295 0.0557651 -0.05984532 0.052386217
0.034794237 0.018842246 -0.023324503 0.04718242 -0.0014942855 0.018685395 -0.06303446 0.02564295
-0.0016664376 0.057050038 -0.065135665 0.02368002 0.043074492 -0.053245798 -0.06351306 0.032479595
0.03382273 -0.022858158 0.06159 0.012430827 0.021490632 0.047537863 0.043674592 0.028558727
0.049672943 0.019605778 -0.01955942 -0.019388268 0.018082172 0.03806691 0.0014966709 -0.060427748
-0.0043299436 0.035405196 0.036467616 0.019828565 0.039848026 0.025675952 0.042599916 0.039177276
0.012507841 0.0008366626 0.032985475 0.0010528893 -0.043614395 0.0012491675 -0.04146428 0.03657734

fc3.bias f4 [512]
00000000: 988b d73c fd8c 42bd a943 e3bc 5392 423d
00000010: 458d 6dbd 3340 093d c7d7 243d 640f 993c
00000020: 1081 40bd 3509 1cbd 534d 4c3d 46f4 18bd
00000030: a809 71bc 3ba6 7dbd b141 2bbd c7b6 8b3d
00000040: 5443 23bd 5444 8bbc f396 a33c 1ca6 db3c
00000050: 1ede 25bc e91b bbbb 1db0 783d 6dc9 99bd
00000060: 119b 88bc f38b cebd c877 073b 61a5 d6bc
00000070: 45f2 afbb d219 49bc 0c9b 1a3d cf41 17bd
00000080: 9296 3b3d 0bda 84bc 3e30 cebc 3d6d 643d
00000090: bd50 2abd 1fca 183d 0fc0 6b3c 4817 3ebc
000000a0: 4f09 abbc 1f17 22bd 4e0e acbd f1b6 77bc
000000b0: 873f 8c3d ea77 27bd 8765 a83c 0d73 a9bd
000000c0: c725 c73c 63a3 39bd 849b b8bc 8db1 853c
000000d0: 83f5 733c d94f 913c 98d9 643c 74f2 36bd
000000e0: 69c9 6abd 1f26 bdbd d15d cdbc 4bc6 33bd
000000f0: b19b 483d d145 a7bc c17c e6bc c31c 5ebd
00000100: 749e 283c e525 893c 8be9 c73c 7274 983c
00000110: cbb5 3bbd ccfd 243d 71fe db3b 7626 fdbb
00000120: bc0b eebc 4f89 74bd 2d76 b3bd cfe3 86bd
00000130: be13 793d 3bf7 28bc bea6 96bc 1cf4 95bc
00000140: bc5b 633d 4b66 99bc a2ec 3bbd daee 43bd
00000150: 99af 6cbd 38de d13c 6384 57bc 49ad 353d
00000160: 03ee 9d3c a708 4cbd c037 46bc aea7 90bd
00000170: 794d a5bc 29bb 073c a83e 443d 7eb3 8e3c
00000180: d5f3 0dbd 87fb 5ebd 465a 833d c7d7 c6bc
00000190: b05e 09bc 5ccc e6bc 6342 1fbb 71e5 80bb
000001a0: 6d3b 543d 4897 75bd 60c6 c83b be11 3e3d
000001b0: cb19 d7bc 7776 62bd a834 f6bb 7d48 39bb
000001c0: 23d1 4dbc 690e adbd 247e 29bd faf1 253d
000001d0: ceae 9bbc 06fb c63c 2b71 01bc a533 533d
000001e0: 20a3 1f3c a97e 62bd b30c 81bd a3ee d63b
000001f0: d37d 61bc 4473 7fbd 809f 573d c580 d0bb
00000200: 56e3 a33c 5b6e 17bc e6ca 88bb 7375 b6bd
00000210: b435 6a3d cdab 5c3d 5e7a aabd 5dd6 de3c
00000220: 322e 24bd 442b 86ba 60da 22bd 5667 01bb
00000230: 01b3 6dbc f959 a8bc 0c45 efbc 88ed 61bc
00000240: 0891 b93c b673 cfbd 324f d0bc fe9a bcbd
00000250: 13cf 9a3a 0b34 d4bb b03f 3dbd 5024 fdbb
00000260: 309a 66bc 1122 81bd 8218 59bd 018e 253d
00000270: a478 f5bc acf6 09bd 7b09 09bd cf77 6fbd
00000280: c28d e33c 4967 513d bc4e b5bc d1bf 193d
00000290: 6db3 a6bc c5c6 a63c be45 a9bc 1fb5 8cbb
000002a0: bf3d acbd 13a6 0e3d 4620 ef3c 6da8 273d
000002b0: e2d3 2fbd b2e6 fe3c e7b1 823c 35d4 afbd
000002c0: dfd1 073d 0297 81bc 6b9f 03bd 6104 353b
000002d0: 0008 9d3d 1e7a 533c 0809 fbbb 4e2a 86bd
000002e0: c6c8 803d 5e0c 32bd 978b b2bd a459 85bb
000002f0: 69ac babb ca94 71bd c054 16bd d659 c03b
00000300: d858 5ebd 6bd7 2fbd f842 81bd e39a 243d
00000310: e12f 89bc 3459 0b3d ca43 f93b 59c0 35bd
00000320: ee99 fa3c a1fa 5c3d 0894 753d d748 52bd
00000330: a38b 263d 6603 9fbc 7817 273d c029 a6bc
00000340: 715d 243d 6edc 33bc 1ea9 24bd 30ab 3cbc
00000350: 6ab4 43bb 4dd1 7abb e4e1 3c3c 6f98 51bc
00000360: bd65 debc 05c6 063d 2e7f 05bd 5ccb 8ebd
00000370: 2ae3 d53c 2549 203a 5b07 75bd 501d 6c3d
00000380: e246 8abd 21e4 be3c ac43 18bd 1037 16bd
00000390: 6f46 c23c 7670 3cbd a2a6 f23c bf7b ea3c
000003a0: 6730 db3b 4d28 babd 2f68 e5bc 1ac3 e3bc
000003b0: 86bf d93c 5542 3dbc ab1b f73b 4b8d db39
000003c0: e9cb dabc 8ef7 953d d486 9abd 388e dbbd
000003d0: 63a6 283d 6f13 38bd bbd3 01bd c0d7 e6bc
000003e0: 87fb 86bc c5a3 e13c 35d2 ecbc 6727 19bd
000003f0: 1067 64bd 2514 5c3d bcce 10bb d9d8 203d
0.02631168 -0.04749774 -0.027742224 0.047502827 -0.057996053 0.03350849 0.040244844 0.018684097
-0.046998084 -0.038094718 0.04987843 -0.037342332 -0.014711775 -0.061926108 -0.041810695 0.068219714
-0.03985913 -0.017000355 0.01996944 0.026812606 -0.010123758 -0.0057101143 0.06071483 -0.07509122
-0.016675504 -0.10085287 0.002067076 -0.026201906 -0.005369457 -0.012274222 0.03774552 -0.036927994
0.045797892 -0.016217252 -0.025169488 0.05576824 -0.041580904 0.037302133 0.014389052 -0.01160223
-0.020878462 -0.03957283 -0.08401166 -0.0151193 0.068480544 -0.040885843 0.020556225 -0.08273897
0.024310006 -0.045321833 -0.022535093 0.016320014 0.0148900775 0.01773827 0.013967894 -0.044664815
-0.057320986 -0.09235787 -0.02506915 -0.04389028 0.048976604 -0.020419033 -0.02813566 -0.054226648
0.010291684 0.016741702 0.024403354 0.018610213 -0.04582767 0.040281102 0.0067136814 -0.007725532
-0.02905833 -0.05970126 -0.087627746 -0.0658642 0.060809843 -0.010312851 -0.018390056 -0.018304877
0.055507407 -0.018725535 -0.045879968 -0.04783521 -0.05778465 0.025618657 -0.013154122 0.04435471
0.019278532 -0.04981294 -0.012098253 -0.07063232 -0.020178543 0.008284369 0.047911316 0.017419573
-0.034656364 -0.054439094 0.06413703 -0.024272813 -0.008384392 -0.028173618 -0.0024301044 -0.0039336015
0.051814485 -0.059958726 0.006127164 0.04640364 -0.026257416 -0.055288758 -0.0075136013 -0.0028271966
-0.012562069 -0.08450014 -0.041380063 0.04051397 -0.019004252 0.02428962 -0.0079005165 0.051562924
0.009743482 -0.055296574 -0.0630125 0.0065592094 -0.013762909 -0.062365785 0.052642345 -0.006363007
0.020005863 -0.009242619 -0.004174578 -0.089091204 0.05718012 0.05387478 -0.08324121 0.027201826
-0.040083118 -0.0010236283 -0.03975904 -0.001974543 -0.01450801 -0.020550715 -0.029207729 -0.013789542
0.022652164 -0.10129492 -0.025428388 -0.0920925 0.001181098 -0.0064759306 -0.046203315 -0.007725276
-0.014074847 -0.06305326 -0.053001888 0.04041863 -0.029964752 -0.03368251 -0.033456307 -0.058463868
0.027777556 0.05112389 -0.02213227 0.037536446 -0.020349229 0.020358453 -0.020663138 -0.0042940523
-0.08410215 0.03482635 0.029190194 0.040932108 -0.042926677 0.031115863 0.015953971 -0.08585397
0.033159133 -0.015819076 -0.032134455 0.0027621018 0.076675415 0.012907533 -0.0076609887 -0.06551038
0.062882945 -0.043468826 -0.08718031 -0.004069524 -0.0056968224 -0.058979787 -0.036701918 0.0058700843
-0.054283947 -0.042930048 -0.063116014 0.040186774 -0.016746463 0.034020618 0.007606958 -0.04437289
0.030590978 0.053949956 0.059955627 -0.051338997 0.04066051 -0.0194108 0.040793866 -0.02028358
0.040128175 -0.0109778475 -0.040200345 -0.011515424 -0.0029862174 -0.0038271726 0.011528466 -0.012792691
-0.027148122 0.03290369 -0.03259199 -0.069723815 0.026109297 0.0006114415 -0.059821468 0.057645142
-0.06751801 0.02330214 -0.037173912 -0.036673605 0.023715226 -0.04600569 0.029620472 0.02862346
0.0066891196 -0.09089718 -0.02800378 -0.027802993 0.026580583 -0.011551459 0.00754114 0.00041876207
-0.02670856 0.07322608 -0.07545248 -0.107204854 0.041174304 -0.04494041 -0.031696063 -0.02817905
-0.01647736 0.027543912 -0.028908828 -0.037391093 -0.05576235 0.05373015 -0.002209588 0.039269302

fc4.weight f4 [3, 512]
00000000: 1aa1 4d3c deab 943c 0285 fabc f953 19bc
00000010: eaf2 ec3c 2dac 053d 6178 4cbc 07c7 e9bb
00000020: d397 023d bb38 2cbb cb0b 72bc fa80 94bc
00000030: 9715 43ba d74e e3ba 63fb 5dbc 7e64 93bc
00000040: 7c2a 1f3d fd3a 74bb be87 fc3c d124 bc3b
00000050: e243 6dbc 4b29 48bb a12d 5e39 379f 13bd
00000060: a695 31bc be1c b23d 80ad 843c 3666 803b
00000070: 5d16 b13c e7b2 16ba 3aff fabb db58 1b3d
00000080: 143b 8d3c 76ae aa3c 8011 903c 8bbe f43c
00000090: 122c 413d 03be b2bc 4dd0 0b3d e6c5 96bc
000000a0: 32e3 d93c 1282 c2bc 0e30 493c 1046 0c3c
000000b0: 0511 1fbd 3bd8 a53c 12ff 37bd 822f 303b
000000c0: 9291 023d 99da 8c3c 8771 353d 14ef 52bc
000000d0: 716c d9bb 04ef b6bc 9798 0dbd 3baa 9ebc
000000e0: fb81 b2bc ce19 a03a 3883 8d3c 20da b83c
000000f0: 4b33 afbc 2b49 0fbd 066b f7bc 29a6 d53c
00000100: ba2b ee3c 0bae debc 6ca2 05bd 9445 ec3c
00000110: 9534 193c b2af b03c 7b6a 9bbc 0340 273d
00000120: d140 fa3c b622 1e3d 25b5 8dbb d0d7 563c
00000130: 1606 01bc 34f0 7a3d 6a7a 303d ebdc 8c3c
00000140: 5775 db3a 6fe3 6cbc 93f6 0f3d 94ff 653c
00000150: cc8e d23c e097 cfbc 015f ff3c 9ce4 87bc
00000160: b489 203d 093d f93c 7894 393b 5bf8 7ebd
00000170: 188a 003b 5706 1d3d 267f 243d 704f 253b
00000180: 0116 14bd 07e0 0f3d 8c1a 23bd 17ca 253c
00000190: 6af0 153c f21d 0e3d 3c2e a0bb 5596 09bc
000001a0: e4b2 91bb ac49 053d e64b 8cbc 6998 9fbc
000001b0: 8386 373d 6c6a c53c 9e71 7dbc 686c 87bd
000001c0: a089 eabc 9bd1 54bd 5928 cf3c 3204 5d3c
000001d0: c64d 343b f10e bebc 918b ae3c 342e bf3b
000001e0: 6a29 03bc e92f 7abb 7a71 473b 8eb1 633c
000001f0: 6cca 0e3d e7e7 2abb 8d2f 873b 9349 08bd
00000200: 62d8 8abc 7d55 8c3c 7fc7 313d e13b cc3c
00000210: 8634 5dbc 74e3 0abd cb68 bfbc fbaa f73c
00000220: 28bb e6bc b438 60bd 4b4e b3b9 10d2 a63b
00000230: d586 bebc d079 dbba 7a4f 853c 64e6 c4bc
00000240: ebc0 c7bc 5de8 573c 7109 01bd 83fa b43b
00000250: 6547 7a3b 301b 04bc 683d 9f39 5e3a 70bc
00000260: 50a8 2a3d f5ed 1a3c bfa8 af3b 5c5c bcbc
00000270: 6e5c f4bb ef87 e13b 39a8 c73c 4ec8 a83c
00000280: 6dbb 5fbc 99bb 2cbd 2dc7 7d3c 99de 5abc
00000290: c08c 93ba 8187 edbc 35a6 87bc dcc9 043c
000002a0: 8f04 1e3d 6654 273d 58f5 033d b37d 1cbd
000002b0: 5a54 8bbb c293 b83b a814 3b3c ba85 393c
000002c0: 6e7b 323d 4c01 80bc d132 67bc 7ed1 02bd
000002d0: 17db d73c 3380 4a3b 1b9b d8bc 98bb 61bc
000002e0: b74b 34bd 8a97 0ebc 1ae5 5fbd ebd9 d1bb
000002f0: 220a a3bb e928 3e3d 2f5c 093d 5355 063c
00000300: bfb3 1b3d df16 6b3d 7be3 edbc 7ec9 683c
00000310: bd22 2e3c 1cb1 d03c 8eb4 e13c ae00 eabc
00000320: b8a2 58bd 535c f5bc 4ba2 45bc 6f7d 6ebb
00000330: e58a 03bd a70e 093d a800 32bd a347 acba
00000340: f434 3e3c 832a f7bc 2202 df3c 509c 393d
00000350: f646 903c b795 063c d3cf 24bd 33ce 013d
00000360: 7079 12bd c564 27ba ae39 74bb 7911 dc3c
00000370: 9493 d2bc 1275 113a 54b6 fd3c 6f39 b2bc
00000380: 5124 c8bb d726 f03c df7f 98bb b82a 0bbd
00000390: 765f 523c 0f2d 98bc 8673 b53c ac47 dd3c
000003a0: 56dc c43c cc4b febc d5ce e6bc 3293 98bb
000003b0: 8b64 db3a fddc df3c 095b bbbc cfea 8fbc
000003c0: 3b3b d2ba c1b6 8fbc 4f4a 81bc 43e7 353c
000003d0: 7969 17bd 0132 00bc 6d3b 973c 8575 1b3c
000003e0: 6698 cfbc 32ac 04bd 6ba0 053c a250 50bc
000003f0: 4b11 72bc 6193 df3b 1c26 643d 50d6 613c
0.012550617 0.018148359 -0.030581001 -0.0093584 0.028924424 0.032634903 -0.012479872 -0.0071343216
0.031883072 -0.0026278931 -0.0147733195 -0.018127907 -0.0007441877 -0.0017342222 -0.013548705 -0.017992254
0.038858876 -0.0037266605 0.030826446 0.0057416935 -0.014481517 -0.003054219 0.00021188568 -0.03604051
-0.010838902 0.086968884 0.016196012 0.0039184345 0.021617109 -0.00057487044 -0.00765982 0.037926536
0.017240085 0.020835143 0.01758647 0.029876014 0.04716117 -0.02181912 0.034134198 -0.018404912
0.026597593 -0.023743663 0.012279524 0.008561626 -0.03883459 0.020244708 -0.04492099 0.0026883786
0.031877108 0.01719408 0.04429772 -0.0128743835 -0.0066352417 -0.022330768 -0.03456935 -0.019368282
-0.021790495 0.0012214722 0.017274484 0.022564948 -0.021386763 -0.034981888 -0.0302024 0.026080208
0.029073585 -0.0271826 -0.0326256 0.028841771 0.009350915 0.021568153 -0.018971672 0.04083253
0.030548485 0.03860732 -0.0043245726 0.013112977 -0.007874986 0.06126423 0.043085493 0.017195186
0.0016743344 -0.014458521 0.03514726 0.014037985 0.025702856 -0.025340974 0.031173231 -0.016588502
0.039193824 0.030424612 0.0028317254 -0.06224857 0.001961356 0.038336124 0.04016032 0.002522435
-0.036153797 0.03512576 -0.03982024 0.010118983 0.009151557 0.034696527 -0.004888324 -0.008397658
-0.0044463743 0.032540962 -0.017126035 -0.019481855 0.044806015 0.024098597 -0.015468983 -0.06612474
-0.028630078 -0.051957708 0.025287794 0.01348977 0.0027512177 -0.023200484 0.021306785 0.0058343653
-0.008005479 -0.003817553 0.0030432628 0.013897313 0.034861013 -0.0026078166 0.0041255415 -0.03327329
-0.016948882 0.017130608 0.043403145 0.024930896 -0.013501292 -0.033908322 -0.023365399 0.030232897
-0.028165415 -0.054741576 -0.00034199873 0.0050909594 -0.023257652 -0.0016744677 0.016273249 -0.02403564
-0.024383983 0.013177958 -0.031503145 0.0055230274 0.0038189527 -0.008063123 0.00030372594 -0.014662353
0.04166442 0.009456147 0.0053606923 -0.02299326 -0.0074573075 0.0068826596 0.024372207 0.020603325
-0.013655526 -0.042171095 0.015489382 -0.0133587355 -0.0011257157 -0.028995277 -0.016558746 0.008104768
0.038578566 0.040851973 0.0322164 -0.038205814 -0.004251999 0.0056328485 0.011418499 0.011323387
0.043574743 -0.015625618 -0.014111237 -0.03193807 0.026349587 0.0030899167 -0.026441148 -0.013777636
-0.04401752 -0.008703122 -0.054661848 -0.0064041517 -0.004975573 0.046425734 0.03353518 0.008199054
0.038013216 0.05739486 -0.029039135 0.014208196 0.010628399 0.025475077 0.027551915 -0.028564777
-0.052889556 -0.02995125 -0.012062619 -0.0036390682 -0.032114882 0.03346124 -0.043457657 -0.0013143908
0.011609305 -0.030171638 0.027222697 0.045315087 0.017611962 0.008214406 -0.04023726 0.031690788
-0.035760343 -0.000638556 -0.0037265825 0.0268638 -0.025705136 0.0005548756 0.03097073 -0.021755902
-0.006107845 0.029315395 -0.0046539153 -0.033976287 0.0128401425 -0.018576173 0.022149812 0.027011715
0.024030846 -0.031042002 -0.028174797 -0.004656219 0.0016738338 0.027327055 -0.022870557 -0.01756802
-0.001603938 -0.017543199 -0.015782503 0.0111025 -0.03696582 -0.007824422 0.018460954 0.009488468
-0.025341224 -0.03239078 0.008155922 -0.012714537 -0.014774631 0.006822989 0.055700406 0.013784006

fc4.bias f4 [3]
00000000: f102 ab3c 5c14 76bc 41f7 9abc
0.020875426 -0.0150195025 -0.018916728
