data/trained_model.pth (torch, 691403 bytes, 8 tensors)

conv1.weight f4 [32, 3, 8, 8]
0	0x3a92af02	0.0011191072
1	0x3d01c4d5	0.031681854
2	0x3d8adb7a	0.06780143
3	0xbcbf31b9	-0.02333914
4	0x3db81391	0.08988107
5	0x3d7d826f	0.06189197
6	0x3d9aba4d	0.07555065
7	0x3d6cd4cf	0.057820138
8	0x3dbb458e	0.09144126
9	0x3d9bc27a	0.07605453
10	0x3ddce0e7	0.10785084
11	0xbccdbd1a	-0.025114585
12	0x3d3f8c5a	0.04676471
13	0x3d954bdd	0.072898604
14	0x3dcd592c	0.10026774
15	0x3d71a649	0.058996473
16	0x3da3fcb6	0.08007185
17	0xbbf1e195	-0.007381628
18	0xbcfc53b0	-0.030801624
19	0x3cd44a3c	0.025914304
20	0xbc39f4e0	-0.011349887
21	0x3b62909c	0.0034571057
22	0x3d9905be	0.07471798
23	0x3d2af853	0.041740727
24	0xbc28770d	-0.01028229
25	0x3dc5d8d4	0.09660497
26	0x3d560b78	0.05225703
27	0xb92e6904	-0.00016633054
28	0x3d65f0c2	0.056137808
29	0x3d3674af	0.044544872
30	0x3dcd4bea	0.10024245
31	0xbc7f2330	-0.015572354
32	0x3daec069	0.08532793
33	0x3da9c0f6	0.082887575
34	0xbcc7e4d3	-0.024401104
35	0x3d9b7781	0.07591153
36	0x3c95761c	0.018244796
37	0xbc445ae7	-0.011984563
38	0x3c83b98c	0.016079687
39	0x3cde3090	0.027122766
40	0x3c8db205	0.0172968
41	0x3dd2ac3a	0.10286756
42	0x3d31ad7c	0.04337834
43	0x3c1aa0b4	0.009437729
44	0x3d7678f8	0.06017396
45	0x3b896df4	0.0041940156
46	0x3d774d68	0.060376555
47	0x3df292ea	0.11844428
48	0x3d8b1712	0.0679151
49	0x3d8e93d1	0.069617875
50	0x3dbdf16c	0.09274563
51	0x3cd3ab79	0.0258386
52	0x3d6f3bba	0.05840657
53	0x3d5059cf	0.0508669
54	0x3dca9813	0.09892287
55	0x3c45717b	0.012050982
56	0xbcd31002	-0.025764469
57	0x3dd699a3	0.10478523
58	0x3dad1365	0.08450965
59	0x3cc15266	0.023598861
60	0x3d35f907	0.044426944
61	0x3d5ad0c5	0.053421754
62	0x3d23bace	0.039973073
63	0x3dff5133	0.124666594
64	0x3d5dcd66	0.05415096
65	0x3d80ff72	0.06298722
66	0x3c9d6f8c	0.019218229
67	0x3d4f7973	0.050652932
68	0x3d770712	0.060309477
69	0x3d30cb60	0.043162704
70	0x3e074a6a	0.1321198
71	0x3daa3185	0.08310226
72	0x3c3256d6	0.010884961
73	0x3c96dd56	0.018416088
74	0x3dad788c	0.08470258
75	0x3dde2791	0.108473904
76	0x3cc4369d	0.023951823
77	0x3df32dae	0.11873947
78	0x3d5e79b4	0.054315284
79	0x3defe41c	0.1171343
80	0x3e178386	0.14796266
81	0x3d08ba0c	0.033380553
82	0x3dcbc445	0.09949545
83	0x3c419e6e	0.011817558
84	0x3e0ddd23	0.13853888
85	0x3de39ada	0.1111352
86	0x3db1fa3e	0.08690308
87	0x3db2627c	0.08710191
88	0x3bcc0f2c	0.0062273946
89	0x3da4a141	0.08038569
90	0x3bb59fd8	0.0055427365
91	0x3dbb2d63	0.09139516
92	0x3db53544	0.0884805
93	0x3dfa4463	0.12220075
94	0x3dc9a2e6	0.098455235
95	0x3de90930	0.113787055
96	0x3df0fb93	0.11766734
97	0x3c9fbd0b	0.019499322
98	0x3da7e306	0.08197598
99	0x3a9ffe80	0.0012206584
100	0x3e081e72	0.13292864
101	0x3df0c2f8	0.11755937
102	0x3d0b80d1	0.034058396
103	0xbc0dd279	-0.008656138
104	0x3d529f82	0.05142165
105	0x3de5ffc4	0.11230424
106	0x3dad2eb3	0.08456173
107	0x3e03629f	0.1283059
108	0x3e02cf0b	0.12774293
109	0x3d86031d	0.065435626
110	0x3d556358	0.052096695
111	0x3ce2dc39	0.027692901
112	0x3c8fd5d9	0.017558025
113	0x3b867b84	0.0041040797
114	0x3ded9450	0.11600554
115	0x3dccc611	0.09998716
116	0xbbf5416e	-0.0074846065
117	0x3de1a158	0.11017102
118	0x3cb3c137	0.021942718
119	0x3d9b62da	0.07587214
120	0x3c20fdcf	0.009826138
121	0x3deabcad	0.11461768
122	0xbb827033	-0.0039806603
123	0xbaa20377	-0.0012360652
124	0x3d4f5e77	0.050627198
125	0x3dcc7508	0.099832594
126	0xbb4f6da2	-0.003165104
127	0x3df07f95	0.11743084
128	0x3ce6a26c	0.02815362
129	0x3d9bca42	0.07606937
130	0x3c93e98e	0.018055703
131	0x3d7558dc	0.059899196
132	0x3dbd7094	0.09249988
133	0x3dc07936	0.09398119
134	0x3de258b3	0.11052074
135	0x3dab7faa	0.08373959
136	0x3d2cac94	0.04215677
137	0x3d830d66	0.0639904
138	0x3d0b584e	0.03401976
139	0x3dd96487	0.10614877
140	0x3d8ca087	0.06866556
141	0xbc20e5f1	-0.009820447
142	0x3da1ffb8	0.079101026
143	0x3d162973	0.036660623
144	0x3bd5f654	0.0065296087
145	0x3bcf7c59	0.006331962
146	0x3ca20ae0	0.019780576
147	0x3d620479	0.055180047
148	0x3d9b06cf	0.07569658
149	0x3d1b834b	0.037967008
150	0xbbdab282	-0.006674112
151	0x3dbf713e	0.09347771
152	0x3c9d4443	0.019197589
153	0x3d9a33de	0.07529424
154	0x3ce1b237	0.0275508
155	0xbc884f0c	-0.016639255
156	0x3c59c1e6	0.013290858
157	0xbc8cdefc	-0.017196171
158	0x3db24d5f	0.087061636
159	0x3db94482	0.0904627
160	0xbc032fbb	-0.008006985
161	0xba69e374	-0.0008922138
162	0x3d030561	0.03198755
163	0x3b909311	0.004412063
164	0xbbda41b4	-0.0066606645
165	0x3db6db39	0.08928532
166	0xbccf20c3	-0.025284177
167	0xbbdc162c	-0.0067165103
168	0x3c6d337a	0.014477605
169	0x3db3bd7b	0.08776375
170	0x3d1849ac	0.037179634
171	0x3aeac9b3	0.0017912894
172	0x3d671851	0.056419674
173	0x3db41989	0.08793933
174	0xbc96e5c4	-0.018420108
175	0x3ce398fa	0.027782906
176	0x3d41cebf	0.04731631
177	0x3dc84f2a	0.09780724
178	0x3dcb3655	0.099224724
179	0xbcbf207e	-0.023330923
180	0xbbdbe2a6	-0.006710368
181	0x3d3e74df	0.046498176
182	0xbc1c1ebc	-0.009528812
183	0x3d8282b4	0.06372586
184	0x3c6e2ec3	0.014537516
185	0x3d0301a8	0.031984
186	0x3d4b25c1	0.04959655
187	0xbc62d47e	-0.013844607
188	0x3c770afb	0.015078302
189	0xbc660c6f	-0.01404105
190	0x3dbd363b	0.09238859
191	0x3db82be0	0.089927435
192	0x3d3cac01	0.046062473
193	0x3ce74680	0.02823186
194	0xbc56a192	-0.013100045
195	0xbc39d379	-0.011341923
196	0xbd0e08a2	-0.0346762
197	0x3caaa829	0.020832138
198	0x3c661ba2	0.014044674
199	0xba08afe0	-0.00052141957
200	0xbc3b5bad	-0.011435431
201	0x3cefd02a	0.029274065
202	0x3d4ccb5e	0.049998634
203	0xbcefd102	-0.029274467
204	0xbca8773c	-0.020564668
205	0x3d68a410	0.056797087
206	0xbd6eb2d4	-0.058276013
207	0xbd56b91d	-0.05242263
208	0x3b9e0690	0.0048225597
209	0x3c493e26	0.012282884
210	0xbd00c9c6	-0.031442426
211	0x3d17d392	0.037067004
212	0x3d31a1cf	0.043367203
213	0x3cf5e8f7	0.030018313
214	0xbaabac15	-0.0013097549
215	0xbd676e3d	-0.056501616
216	0x3c7c46be	0.015397726
217	0x3d124515	0.035710413
218	0x3d881595	0.066447414
219	0x3d9617be	0.07328747
220	0x3d9f433b	0.07776495
221	0x3d0da805	0.034584064
222	0x3cdb976b	0.0268056
223	0x3c977d0f	0.01849225
224	0xbd5b6945	-0.05356719
225	0xbc1cc54e	-0.0095685255
226	0x3ccab689	0.024745243
227	0x3d6d1573	0.057881784
228	0xbd5d8781	-0.054084305
229	0x3d604989	0.05475763
230	0xbd3f104e	-0.04664641
231	0x3d4ee270	0.050508916
232	0x3c2180ef	0.0098574
233	0x3d79bec0	0.06097293
234	0xbd7c996a	-0.061669745
235	0xbd6035b5	-0.05473872
236	0xbd3f99c9	-0.04677752
237	0x3d98bfd3	0.074584626
238	0xbbe2d1bb	-0.0069219745
239	0x3c7ece13	0.015552062
240	0xbd27d618	-0.04097566
241	0x3d7e1e3c	0.062040552
242	0x3cd29fa5	0.02571089
243	0x3d912ab4	0.07088223
244	0xbd41abeb	-0.047283094
245	0xbd796228	-0.060884625
246	0x3d392326	0.045199536
247	0x3d5ff26e	0.05467456
248	0xbd6078bf	-0.054802652
249	0xbc3cb523	-0.011517796
250	0xbd093854	-0.033500984
251	0x3cf889d0	0.030339152
252	0x3d8a80f7	0.06762879
253	0xbd117ec1	-0.035521273
254	0xbcf93cd0	-0.030424505
255	0xbd0d5c72	-0.03451199

conv1.bias f4 [32]
0	0x3d5f39a5	0.054498333
1	0x3d49537e	0.04915189
2	0x3af48b7c	0.0018657292
3	0xbb79b996	-0.0038105003
4	0xbd4845bf	-0.04889464
5	0x3cdf4a47	0.027257098
6	0x3d60db22	0.05489648
7	0x3d262e09	0.040571246
8	0xbd52b5e2	-0.05144299
9	0xbd76dc48	-0.06026867
10	0xbcbc0592	-0.022951875
11	0xbd58b257	-0.052904453
12	0xbd399994	-0.04531248
13	0xbd90c68f	-0.07069122
14	0xbbb6c282	-0.0055773864
15	0x3b0adcd3	0.002118875
16	0x3d356c9a	0.044293024
17	0x3bbbee0a	0.0057351636
18	0x3cb7359d	0.022364432
19	0xbc860067	-0.016357614
20	0x3c942de8	0.018088296
21	0x3d502e68	0.050825506
22	0xbaeeb105	-0.0018210715
23	0xbbfe8cf2	-0.007768267
24	0x3d80b7d5	0.06285063
25	0x3c942c79	0.018087612
26	0x3d1747d3	0.03693373
27	0x3cb9b374	0.022668578
28	0xbb12d941	-0.0022407325
29	0x3d5016c0	0.050802946
30	0xbd5b94af	-0.053608593
31	0x3ca7c180	0.02047801

conv2.weight f4 [64, 32, 4, 4]
0	0xbcf932a4	-0.030419655
1	0xbcbac631	-0.022799583
2	0x3cf8176e	0.03028461
3	0xbc00dcdc	-0.007865157
4	0xbceb244c	-0.028703831
5	0x3b583b3e	0.0032994295
6	0x3d1798ae	0.03701084
7	0xbd3aff70	-0.04565376
8	0x3ca26b3b	0.019826522
9	0x3cf6487c	0.03006386
10	0x3cdfd1c2	0.0273217
11	0xbb01df2b	-0.0019816856
12	0x3c118dc1	0.008883894
13	0xbbb03cdc	-0.0053783488
14	0x3ceb4e0c	0.02872374
15	0xbc5d0184	-0.013489131
16	0x3d222b2f	0.039591964
17	0x3c63d2b6	0.013905218
18	0xbd0dc1f6	-0.034608804
19	0xbcbe25e5	-0.023211429
20	0x3ce02488	0.02736117
21	0x3d159223	0.03651632
22	0xbcf8b88c	-0.030361436
23	0xbcf38899	-0.02972822
24	0x3bff4f62	0.0077914456
25	0x3d0d6a6e	0.034525327
26	0x3cd10ec2	0.025519732
27	0x3b30d527	0.0026982517
28	0x3ce4ae57	0.027915163
29	0xbcdbb108	-0.026817814
30	0x3b83bbb0	0.004020177
31	0x3cbc08ef	0.022953479
32	0xbcad1256	-0.021126907
33	0xbd13d440	-0.03609109
34	0x3d1f00b6	0.038819037
35	0xbbbac774	-0.005700046
36	0x3c561fd8	0.013069116
37	0x3d1ce155	0.03830083
38	0xbd0472ca	-0.032336034
39	0xbcfb97ff	-0.030712126
40	0x3b985f95	0.004650066
41	0xbb7c177f	-0.0038466153
42	0x3c37e1c2	0.011223258
43	0xbce674af	-0.028131811
44	0xbcfc160e	-0.030772235
45	0x3c2a9028	0.010410346
46	0x3ca90c69	0.0206358
47	0xbd40cc81	-0.04707003
48	0xbd539e82	-0.051664837
49	0xbde17184	-0.110079795
50	0xbdb4ee96	-0.08834569
51	0xbd8579e8	-0.065173924
52	0xbdb01871	-0.08598412
53	0xbdd466a3	-0.10371139
54	0xbdb6eb2f	-0.089315765
55	0xbddef108	-0.10885817
56	0xbd2f26c2	-0.04276157
57	0xbd4c9c81	-0.04995394
58	0xbdcab61e	-0.09898017
59	0xbdcf7b30	-0.10130918
60	0xbcbc58a2	-0.022991482
61	0xbd613c02	-0.05498887
62	0xbc8398e8	-0.016064122
63	0xbd8ffb6b	-0.07030376
64	0xbc324345	-0.010880296
65	0xbc9f031b	-0.01941066
66	0xbad1eb0d	-0.0016015485
67	0xbbb52391	-0.0055279215
68	0x3ca285c8	0.019839182
69	0x3c93264c	0.017962597
70	0xbcb5d691	-0.02219704
71	0x3cde9477	0.027170403
72	0xbb8f8e65	-0.0043809884
73	0xbc10c515	-0.0088360505
74	0xbc9fa1ec	-0.01948639
75	0xbd586444	-0.052829996
76	0x3c6c8625	0.014436279
77	0xbd125e83	-0.035734665
78	0xbd7b8c1a	-0.061412908
79	0xba6471ee	-0.00087144866
80	0x3cba738d	0.022760177
81	0xbd0bb0c5	-0.034104127
82	0xbbaeb087	-0.0053311023
83	0xbcac6905	-0.021046171
84	0x3c7ae8a7	0.015314258
85	0x3ca7d14a	0.020485539
86	0x3ce32084	0.027725466
87	0x3ca8be89	0.020598667
88	0xbc57f327	-0.013180531
89	0x3ab3b732	0.0013711213
90	0xbcbfcbea	-0.023412663
91	0x3bcde1e2	0.006283031
92	0x3cdc7a1a	0.026913691
93	0x3caab2ca	0.020837206
94	0xbaee7ae4	-0.0018194583
95	0xbd26f3bd	-0.04075979
96	0xbcb19b03	-0.02168036
97	0xbc67a2e5	-0.014137958
98	0x3b847438	0.0040421747
99	0xbc85be8c	-0.016326211
100	0xbc893608	-0.016749397
101	0xbd23b9d1	-0.03997213
102	0xbd55de29	-0.05221382
103	0x3b886491	0.004162379
104	0x3ad9d5a7	0.001661946
105	0xbcf85f07	-0.03031875
106	0xbcbd496e	-0.023106303
107	0xbc83ded3	-0.016097462
108	0xbd20ab0c	-0.039225623
109	0xbd0ac170	-0.033875883
110	0x3ca05df3	0.019576048
111	0xbd114656	-0.03546747
112	0xbc017b42	-0.007902922
113	0xbcb3e273	-0.021958565
114	0xbd100afa	-0.035166718
115	0xbc535dad	-0.012900752
116	0xbd8e6a8c	-0.06953916
117	0xbd743ac0	-0.05962634
118	0xbd563c40	-0.052303553
119	0xba13b7bb	-0.0005634983
120	0xbbd7ee6a	-0.0065897005
121	0xbc2719fe	-0.010199068
122	0xbd22cc8b	-0.03974585
123	0xbd7c3783	-0.061576378
124	0x3c804c9c	0.01566153
125	0xbc863a5b	-0.016385248
126	0x3c248cca	0.010043332
127	0xbd8c0d36	-0.06838457
128	0xbd15aa39	-0.03653929
129	0xbc8821d2	-0.01661769
130	0xbbca8762	-0.0061806897
131	0xbd1de38c	-0.038547084
132	0xbd8cd182	-0.06875898
133	0xbd52fed6	-0.05151256
134	0xbd92a5db	-0.07160541
135	0xbd7eb746	-0.062186502
136	0xbd92b4ad	-0.071633674
137	0xbd8fb902	-0.07017709
138	0xbc37d58e	-0.011220349
139	0xbd9c614e	-0.07635747
140	0x3b54ee39	0.0032490625
141	0xbcd3cf33	-0.025855636
142	0xbadb3ffd	-0.0016727444
143	0xbd60b2cd	-0.054858018
144	0xbc8a0062	-0.016845886
145	0xbd13ae73	-0.03605504
146	0x3d13e7c2	0.036109693
147	0xbd01c99a	-0.031686403
148	0x3bc2d989	0.0059463424
149	0x3b04cc11	0.0020263235
150	0x3ae41968	0.0017402591
151	0x3c3a38a7	0.011366046
152	0x3cee8e19	0.029120492
153	0xbd36b2a9	-0.044603977
154	0xbd16f9f7	-0.03685948
155	0xbcd584c2	-0.02606428
156	0xbd147792	-0.036246844
157	0xbd2d48a8	-0.04230562
158	0x3cc5381c	0.024074607
159	0xbc785804	-0.015157703
160	0xbce1130e	-0.027474906
161	0xbd229b0d	-0.03969865
162	0xbca4bc26	-0.020109247
163	0xbd4b15f3	-0.04958148
164	0xbcb3564a	-0.021891732
165	0xbd94a1be	-0.072574124
166	0xbd45ac6a	-0.04826013
167	0xbbad40bf	-0.0052872594
168	0xbbf117cf	-0.0073575745
169	0xb9fef75c	-0.00048630952
170	0xbd9b2c9b	-0.07576867
171	0xbd8d715d	-0.06906388
172	0xbd52f231	-0.051500503
173	0x3c6f0645	0.014588897
174	0xbca26189	-0.019821899
175	0xbc5f71da	-0.013637984
176	0xbd263e19	-0.040586565
177	0xbc23f8cd	-0.010008049
178	0xbd21d03e	-0.039505236
179	0xbc9dea8b	-0.019276878
180	0xbae75fca	-0.0017652449
181	0xbd140bd6	-0.0361441
182	0xbd50086a	-0.050789274
183	0xbd16017b	-0.036622506
184	0xbd486fef	-0.048934873
185	0xbcc1d415	-0.023660699
186	0x3c930d83	0.017950779
187	0x3c4d5477	0.012532345
188	0xbd2a25cf	-0.041539963
189	0xbd1dd2d0	-0.038531125
190	0xbd484c11	-0.048900668
191	0xbca753e3	-0.020425742
192	0xbd2bbfbd	-0.041930903
193	0xbd25c6a6	-0.04047265
194	0x3a73fdec	0.00093075517
195	0xbd2a612b	-0.041596573
196	0xbcee1cd0	-0.029066473
197	0x3c8a78f1	0.016903372
198	0x3d1cb7d4	0.03826125
199	0xbcb31758	-0.021861717
200	0x3cd773bb	0.026300302
201	0xbcc6642d	-0.02421769
202	0xbd2433e7	-0.04008856
203	0xbcce37d1	-0.0251731
204	0x3ced8148	0.02899231
205	0xbd340022	-0.04394544
206	0xbc928327	-0.017884804
207	0x3ca2ec56	0.019888084
208	0xbcca3c97	-0.024687095
209	0xbc89493a	-0.01675855
210	0xbcbf8b80	-0.023381948
211	0xbd13600c	-0.03598027
212	0x3cda55d7	0.02665226
213	0x3d1410ef	0.03614896
214	0x39cff612	0.00039665453
215	0x3a8a0e6f	0.0010532866
216	0x3cf5adc1	0.029990079
217	0xbcace21c	-0.021103911
218	0xbcb240d1	-0.021759422
219	0xbc817426	-0.015802454
220	0x3bc396ac	0.005968889
221	0x3c136716	0.008996746
222	0x3cf2a215	0.029618302
223	0xbc074354	-0.008255798
224	0xbdb11b90	-0.08647835
225	0xbddc32f1	-0.10751904
226	0xbe00090a	-0.12503448
227	0xbe08f210	-0.1337359
228	0xbdc6bf1a	-0.097044185
229	0xbe03066e	-0.12795421
230	0xbd9e7770	-0.07737625
231	0xbdcb7949	-0.09935243
232	0xbde2ec1d	-0.11080191
233	0xbdfe3f8d	-0.12414465
234	0xbdb64a49	-0.089008875
235	0xbd6f1239	-0.058366988
236	0xbddea9e1	-0.108722456
237	0xbd7298de	-0.059227817
238	0xbda6b9f4	-0.081409365
239	0xbdd8a57a	-0.10578437
240	0xbd871dd6	-0.06597488
241	0xbb762ef1	-0.00375646
242	0xbcbb3548	-0.022852555
243	0xbd8d2972	-0.06892671
244	0x3c65e461	0.014031501
245	0xbbea68f2	-0.0071536237
246	0xbb3a7ae1	-0.002845459
247	0xbd167d5c	-0.036740646
248	0xbc4b5c02	-0.012412073
249	0xbc8984c7	-0.016786946
250	0xbc0afd07	-0.008483178
251	0xbd7b64ca	-0.061375417
252	0x3b83026f	0.003998093
253	0x3b82c871	0.0039911796
254	0x3c6d06c0	0.014466941
255	0x3c9c661a	0.019091655

conv2.bias f4 [64]
0	0xbb95fc7b	-0.004577217
1	0xbb8b83d5	-0.004257659
2	0xbcf77074	-0.030204989
3	0xbd2dca15	-0.04242905
4	0x3ce6cd42	0.028174046
5	0xbcb5b40e	-0.022180583
6	0xbbf3dfbe	-0.0074424436
7	0x39d828f3	0.0004122924
8	0x3c9d7dc9	0.019225018
9	0xbd26dcbd	-0.040737856
10	0x3c596cd1	0.013270573
11	0xbc1fd4a0	-0.009755284
12	0x3cd61ff3	0.026138281
13	0xbd3017e3	-0.04299153
14	0x3d06c36a	0.032901205
15	0x3c1e5ecf	0.009666159
16	0xbb6eaa44	-0.0036417404
17	0xbb28e500	-0.002577126
18	0xbcf5f3d0	-0.030023485
19	0xbd02c07a	-0.03192184
20	0x3ccf0fac	0.025276028
21	0xbd206ea0	-0.039168
22	0xbd24cc3c	-0.040233836
23	0xbd0bfffd	-0.034179676
24	0xbcd1c5b9	-0.025606977
25	0xbcf21f6c	-0.029555999
26	0xbc081316	-0.008305332
27	0x3c6773f5	0.014126767
28	0x3d00fdee	0.031492166
29	0x3bb8a014	0.005634317
30	0xbcf29c01	-0.029615404
31	0xbc18c242	-0.009323658
32	0xbb974306	-0.004616144
33	0xbc70b7cd	-0.014692259
34	0x3c93a32d	0.018022144
35	0xbcc89a33	-0.02448759
36	0xbc12c3f7	-0.0089578545
37	0xbd21f477	-0.03953978
38	0xbc231209	-0.00995303
39	0x3aebc834	0.0017988742
40	0x3c105be0	0.008810967
41	0xbcc36c38	-0.023855314
42	0x3ad3873b	0.0016138324
43	0xbd2fbe14	-0.042905882
44	0xbbfeb376	-0.0077728583
45	0xbbd6e822	-0.006558434
46	0x3b460ae1	0.0030218887
47	0xbce2fd9c	-0.027708821
48	0x3cdff4be	0.027338382
49	0x3d21fa3c	0.039545283
50	0x3d311933	0.043236922
51	0xbcfa3821	-0.030544342
52	0xbb788f64	-0.0037927264
53	0xbc523b99	-0.012831592
54	0xbc97c2ab	-0.018525442
55	0x3cc9dd85	0.024641762
56	0xbb66afe2	-0.003520005
57	0xbc2f835f	-0.010712474
58	0x3b859077	0.0040760594
59	0xbaab8848	-0.001308688
60	0x3d344d01	0.04401875
61	0xbd1971d0	-0.037462056
62	0xbbab6b4d	-0.005231297
63	0xbd1d3880	-0.03838396

fc3.weight f4 [512, 256]
0	0xbd780743	-0.0605538
1	0xbd877807	-0.0661469
2	0xbd388180	-0.045045376
3	0xbb3d6d34	-0.0028904201
4	0x3cdc0888	0.026859537
5	0xbd59c1e6	-0.05316343
6	0x3c2f3168	0.010692932
7	0xbd772eee	-0.06034749
8	0x3d18de9e	0.03732168
9	0xbd828073	-0.06372156
10	0xbd76fbbe	-0.060298674
11	0xbca9c11c	-0.020721965
12	0x3c70822d	0.014679474
13	0xbd7356ee	-0.059409074
14	0xbd3d2c62	-0.046184905
15	0xbd3e94ed	-0.046528745
16	0xbd4c0260	-0.049806952
17	0xbd386c5e	-0.045025222
18	0x3cad000c	0.021118186
19	0xbd0abff6	-0.033874474
20	0xbd57181c	-0.052513227
21	0x3cc30d02	0.023809914
22	0xbd7ec133	-0.062195968
23	0xbd70a031	-0.05874652
24	0xbd0cc51e	-0.034367673
25	0x3d3040c5	0.04303052
26	0x3d2d3cd6	0.042294346
27	0xbd44a2c4	-0.048006788
28	0x3a954e00	0.0011391044
29	0xbd041858	-0.03224978
30	0xbd6fa90c	-0.058510825
31	0x3c20fa3c	0.0098252855
32	0xbd8a5d17	-0.06756037
33	0xbc0a2d03	-0.008433583
34	0xbd33e002	-0.043914802
35	0x3d320b7b	0.04346798
36	0xbd85a233	-0.06525078
37	0xbcd05b64	-0.025434203
38	0xbd3b02f0	-0.0456571
39	0x3d61f4c9	0.055165086
40	0x3a6d1680	0.0009044185
41	0xbd61ef66	-0.05515995
42	0x3d6caa60	0.05777967
43	0xbc0c87f8	-0.008577339
44	0x3d5fcf68	0.054641157
45	0xbd4f77e1	-0.050651435
46	0xbd2c58e3	-0.042076956
47	0x3d182b2f	0.037150558
48	0x3c35b7f1	0.011091218
49	0xbc55b9aa	-0.013044754
50	0xbcbfe408	-0.023424163
51	0xbd8b222c	-0.06793627
52	0x3d74c5e4	0.059759036
53	0xbd1149a4	-0.03547062
54	0xbd3b1164	-0.045670882
55	0x3b8c21c0	0.0042764843
56	0x3d348e5f	0.04408109
57	0xbd162f7a	-0.03666637
58	0x3a6b4f4b	0.0008976354
59	0xbd154b18	-0.036448568
60	0xbd6620fa	-0.056183793
61	0x3d1139ff	0.0354557
62	0xbd37a8ad	-0.044838596
63	0x3b91bc38	0.0044474863
64	0xbcc381b0	-0.02386555
65	0xbd266cbc	-0.04063104
66	0x3d51c76e	0.05121558
67	0xbd273c6a	-0.0408291
68	0x3cf3ce2b	0.029761394
69	0x3d3ac789	0.045600448
70	0xba2a2eae	-0.0006491941
71	0x3caade09	0.020857828
72	0xbd64e144	-0.055878893
73	0xbc8012dc	-0.015633993
74	0x3c063978	0.008192413
75	0x3b832f80	0.004003465
76	0x3bcd4994	0.0062648747
77	0xbd3236ef	-0.04350942
78	0xbd4a37ad	-0.049369503
79	0x3c84f634	0.01623068
80	0x3d77cb42	0.060496576
81	0xbbe7a250	-0.0070689097
82	0xbc8fd9c8	-0.0175599
83	0xbc818824	-0.015811987
84	0x3ca4857f	0.020083187
85	0x3c29a2c7	0.010353751
86	0xbb31deba	-0.0027140812
87	0xbd0ccafb	-0.034373265
88	0xbc5f58b4	-0.013631988
89	0xbc2b2020	-0.010444671
90	0xbd0888ee	-0.03333371
91	0x3cd989c2	0.026554946
92	0xbd816924	-0.06318882
93	0x3ca5f7dd	0.020259792
94	0xbd54b6e7	-0.05193224
95	0xbd6f6f7b	-0.058455925
96	0xbcc7173c	-0.024303071
97	0x3b34c840	0.0027585179
98	0xbd280a18	-0.04102525
99	0xbc16a420	-0.009194404
100	0xbd0d416c	-0.03448622
101	0x3d1ea59d	0.03873216
102	0x3c73eb99	0.014887714
103	0xbbc202ca	-0.0059207426
104	0xbca5bc4b	-0.020231387
105	0x3b444101	0.0029945972
106	0x3d273a25	0.040826935
107	0x3ca8bc41	0.020597579
108	0xbb937196	-0.0044996245
109	0xbdb2b541	-0.08725978
110	0xbd82118c	-0.06351003
111	0xbc4774be	-0.01217383
112	0xbcbe53ab	-0.023233255
113	0xbcdf0122	-0.02722222
114	0xbd9e2cbf	-0.077233784
115	0xbc33107d	-0.010929224
116	0xbd5be7c8	-0.05368784
117	0xbc0bdf78	-0.008537166
118	0x3d7d7dea	0.06188766
119	0x3be286e0	0.006913051
120	0xbb85d0e0	-0.0040837377
121	0x3d5464da	0.051853992
122	0x3d1b0170	0.037843168
123	0xbcaeba98	-0.02132921
124	0xbd376c87	-0.044781234
125	0xbd358c36	-0.04432317
126	0x3d0bae58	0.034101814
127	0x3b5a215c	0.0033284044
128	0x3d175570	0.036946714
129	0x3d6e62a2	0.058199532
130	0x3a4bfa80	0.0007781163
131	0x3b7a42a0	0.0038186684
132	0x3d130206	0.0358906
133	0x3d61327e	0.054979794
134	0xbd62b932	-0.055352397
135	0x3cfdca14	0.030980147
136	0xbd4beadc	-0.049784526
137	0x3d2ff2e6	0.042956255
138	0xbd532bec	-0.05155556
139	0x3d151206	0.03639414
140	0xbd5ec00c	-0.05438237
141	0xbc8f26e1	-0.017474594
142	0xbd65bfb1	-0.056091014
143	0xbce25492	-0.027628217
144	0x3c812148	0.01576294
145	0x3c3b95f8	0.01144933
146	0xbbd23780	-0.0064153075
147	0xbc962804	-0.018329628
148	0x3c9f6c1c	0.01946073
149	0x3cc0c4fc	0.02353143
150	0xbd542730	-0.051795185
151	0x3d6e733a	0.058215357
152	0x3bd328a0	0.006444052
153	0x3cd86858	0.026416942
154	0x3d35a35c	0.044345245
155	0x3cffa928	0.03120859
156	0xbc5e8937	-0.013582519
157	0xbcb1cd83	-0.021704441
158	0x3d5cd0d3	0.053910088
159	0xbd8b5c0e	-0.068046674
160	0xbd0caad2	-0.034342594
161	0xbc20f188	-0.009823211
162	0x3c4a8c78	0.012362592
163	0xbc446e40	-0.011989176
164	0x3ae8374c	0.0017716675
165	0xbd42eb88	-0.0475879
166	0x3d43c298	0.047793
167	0xbcc7488e	-0.024326589
168	0x3cf4afea	0.029869039
169	0xbd88abd3	-0.06673398
170	0x3c8448c0	0.016147971
171	0xbc1988db	-0.009371008
172	0x3d01e29a	0.031710245
173	0x3d17b460	0.037037253
174	0xbc9d743c	-0.019220464
175	0xbd86f695	-0.065900005
176	0xbd0319f0	-0.032007158
177	0x3a8ccb00	0.0010741651
178	0xbbbbc45c	-0.005730195
179	0x3c3b0380	0.011414409
180	0x3c7d2119	0.015449786
181	0x3d1a53ef	0.0376777
182	0xbd502027	-0.050811913
183	0xbcf86152	-0.030319843
184	0x3d08bece	0.03338509
185	0xbcbdd0df	-0.023170887
186	0x3d0a1b3b	0.033717375
187	0x3a905cea	0.0011014019
188	0xbd43feb9	-0.047850344
189	0xbcbecc40	-0.023290753
190	0xbd048e8a	-0.0323625
191	0xbd09f978	-0.033685178
192	0x3c403b4a	0.011732886
193	0xbd5adc06	-0.053432487
194	0x3d10dfd1	0.035369698
195	0xbcd71768	-0.026256278
196	0xbd84086f	-0.06446921
197	0xbce35903	-0.027752405
198	0x3d6a5d14	0.057217672
199	0xbd01d05f	-0.03169286
200	0x3ba7b252	0.005117693
201	0xbc63476a	-0.013872007
202	0x3d228477	0.03967711
203	0x3cd097c7	0.025462998
204	0x3d48d46a	0.0490307
205	0x3d6cdf7e	0.057830326
206	0xbcae6318	-0.021287486
207	0xbd2fdf16	-0.04293736
208	0xbd4c3c30	-0.049862087
209	0x3ce9aab8	0.028523788
210	0x3a7e9400	0.0009711385
211	0xbd73e882	-0.05954791
212	0xbd6bbe86	-0.057554744
213	0xbd574a8a	-0.05256132
214	0xbd179d52	-0.037015267
215	0x3d0366c2	0.03208042
216	0x3cc4315c	0.023949318
217	0xbd52b448	-0.05144146
218	0x3cd58f4c	0.026069306
219	0x3cc0ef34	0.023551561
220	0x3d23bb27	0.039973404
221	0xbd679ad0	-0.056544125
222	0xbce605c3	-0.02807892
223	0x3cbd75c3	0.023127442
224	0xbbb88c97	-0.005631994
225	0xbd244945	-0.040108938
226	0xbca022cc	-0.019547842
227	0x3cce1fcc	0.025161646
228	0x3cfeca08	0.031102195
229	0x3d45cad6	0.048289143
230	0x3d4d3076	0.050095044
231	0xbd69d8ed	-0.057091642
232	0x3d2f3233	0.042772483
233	0x3b47a1c9	0.0030461422
234	0x3d03f210	0.03221327
235	0xbd047b2f	-0.03234404
236	0xbcc4ab9c	-0.024007611
237	0x3cd98cec	0.026556455
238	0x3d271710	0.04079348
239	0xbd7b09d0	-0.061288655
240	0x3d580aae	0.05274456
241	0x3d7594d6	0.059956394
242	0x3d5eb872	0.05437512
243	0x3d424f12	0.04743869
244	0x3c0699fd	0.008215425
245	0xbbfc794c	-0.0077048894
246	0xbd8c5ea2	-0.06853987
247	0xba8bbd5d	-0.0010661293
248	0x3c609571	0.013707505
249	0x3d0ad0bd	0.033890475
250	0x3d3d034c	0.046145722
251	0xbd0180f5	-0.031617124
252	0x3c9fb901	0.019497396
253	0xbc51a76a	-0.012796262
254	0xbd4b12c9	-0.04957846
255	0x3cdbb30e	0.026818778

fc3.bias f4 [512]
0	0xbd2f2aee	-0.04276555
1	0x3d75da36	0.060022555
2	0x3cbc32db	0.022973469
3	0x3c9b225c	0.018937282
4	0xbd465332	-0.048419185
5	0xbd4f43d5	-0.0506018
6	0x3ccb38ec	0.024807416
7	0xbd1b106d	-0.03785746
8	0xbc099070	-0.008396253
9	0x3d106a3f	0.035257574
10	0xbd2cd0d7	-0.042191353
11	0xbcb06148	-0.021530762
12	0x3c9b69c4	0.018971331
13	0x3ad59a4f	0.0016296598
14	0xbc588790	-0.013215914
15	0x3cbb9fe4	0.02290339
16	0x3cd41761	0.025890054
17	0x3d24cd21	0.04023469
18	0x3cce9640	0.02521813
19	0xbd6acfb4	-0.057326987
20	0xbc89334c	-0.016748093
21	0xbb567ee0	-0.0032729432
22	0xbd493309	-0.049120937
23	0x3d7548be	0.059883825
24	0xbc573800	-0.01313591
25	0xbce46fa8	-0.027885273
26	0xbd3729e4	-0.044717684
27	0xbd118f42	-0.035537012
28	0x3c1260e0	0.00893423
29	0x3d3d8049	0.04626492
30	0x3d0e190f	0.034691866
31	0xbd19108c	-0.037369296
32	0x3bff1634	0.0077846292
33	0x3d798ca7	0.060925152
34	0x3d20596b	0.039147776
35	0x3c5abf2a	0.013351241
36	0xbb4a71a0	-0.003089048
37	0xbb49b4ac	-0.0030777855
38	0x3d08d86a	0.033409514
39	0xbb8fd41a	-0.004389298
40	0xbd5679b4	-0.05236216
41	0xbcf935b8	-0.030421123
42	0xbd022368	-0.031772047
43	0xbbd6cbd0	-0.006555058
44	0xbaea43ad	-0.0017872952
45	0xbd78d5b4	-0.06075068
46	0xb9cd2480	-0.00039127842
47	0xbd49c08e	-0.0492559
48	0xba46f280	-0.0007589236
49	0xbd52753e	-0.051381342
50	0x3cb0404c	0.021515034
51	0x3d63b022	0.055587895
52	0xbc9f5009	-0.019447343
53	0x3c13c56b	0.009019236
54	0x3d739c20	0.059475064
55	0xbb8dd112	-0.0043279016
56	0xbd649b8c	-0.055812404
57	0xbd02a370	-0.031894147
58	0x3d636cf2	0.05552382
59	0xba9bff40	-0.0011901632
60	0x3d0632d0	0.032763302
61	0xbcb49819	-0.022045182
62	0x3cbbb6ec	0.022914372
63	0x3cd962fc	0.026536457
64	0xbd4d968b	-0.050192397
65	0xbd3fe722	-0.046851285
66	0xbd6f4f86	-0.05842545
67	0x3c29c992	0.0103629995
68	0xbd58b74f	-0.05290919
69	0x3c87bb54	0.016568817
70	0xbc05f490	-0.008175984
71	0xbc53a0fb	-0.012916799
72	0x3c20f3d6	0.00982376
73	0xbd07f9f8	-0.033197373
74	0xbd6186be	-0.05506014
75	0x3ce6a806	0.028156292
76	0x3cfdb292	0.030968938
77	0x3c90c83a	0.0176736
78	0x3d4a984c	0.049461648
79	0x3cc06bf2	0.023488972
80	0x3bd30310	0.006439574
81	0x3d1fb6c4	0.03899266
82	0x3d4af760	0.04955232
83	0x3d27fee2	0.04101456
84	0xbd67c714	-0.05658634
85	0x3c20d660	0.009816736
86	0xbb9e5a80	-0.004832566
87	0xbd569b62	-0.05239428
88	0xbc8ff9fc	-0.017575257
89	0x3d36956e	0.0445761
90	0xbb82eaee	-0.003995291
91	0xbca5a7c0	-0.020221591
92	0x3b08ea7e	0.0020891721
93	0x3d441ab2	0.04787702
94	0xbd6c618e	-0.057710223
95	0x3d154755	0.03644498
96	0x3ce7b66f	0.028285233
97	0x3a66f800	0.00088107586
98	0xbd168cce	-0.036755376
99	0x3d14a198	0.03628692
100	0x3d5e3098	0.05424556
101	0xbd03cc20	-0.03217709
102	0xbcb74bbf	-0.022374986
103	0x3d2a4652	0.04157097
104	0xbaaabd40	-0.0013026372
105	0xbcf2967e	-0.029612776
106	0xbca83156	-0.020531338
107	0x3d5b83f4	0.053592637
108	0x3c1771ac	0.00924341
109	0xbd179ac3	-0.037012827
110	0x3d7ed602	0.062215813
111	0xbc94ff90	-0.018188268
112	0xbcd73818	-0.026271865
113	0x3b5d0423	0.003372439
114	0x3b594960	0.0033155307
115	0x3d321e67	0.043486025
116	0xbd0cb17e	-0.034348957
117	0xbb31ae40	-0.0027111918
118	0xbca91c84	-0.02064348
119	0xbcfab780	-0.030605078
120	0x3c967948	0.018368378
121	0x3cd10658	0.02551572
122	0xbd746c64	-0.05967368
123	0xbcc29f38	-0.023757562
124	0xbc8a5adb	-0.016889026
125	0xbd6cf6a0	-0.057852387
126	0xbd4a88d5	-0.0494469
127	0xbd68cb7a	-0.056834675
128	0x3d0dc98b	0.034616034
129	0x3cb1e620	0.021716177
130	0xbb905a00	-0.00440526
131	0xbd010b21	-0.031504754
132	0xbcbb8ad8	-0.022893354
133	0xbd284daa	-0.04108969
134	0x3d69bfaa	0.05706755
135	0x3c354090	0.011062756
136	0xbc5e126c	-0.013554197
137	0xbc18fad0	-0.009337142
138	0x3d4e7876	0.05040785
139	0xbd797d80	-0.0609107
140	0x3a8cd7c0	0.0010745451
141	0xbd7fd105	-0.062455196
142	0x3d0f338c	0.03496127
143	0x3d497a20	0.049188733
144	0x3d775626	0.060384892
145	0xbbdbf7bf	-0.0067128832
146	0xbd002d3e	-0.031293146
147	0x3d31fd6a	0.043454565
148	0x3cd3aadc	0.025838308
149	0xbcc79660	-0.024363697
150	0xbd780600	-0.060552597
151	0xbc4658be	-0.012106119
152	0xbd166de3	-0.03672589
153	0x3c468e40	0.012118876
154	0x3b828740	0.003983408
155	0xbcdee7d4	-0.027210154
156	0xbd52d494	-0.05147226
157	0x3d578d14	0.052624777
158	0x3d47aece	0.04875069
159	0x3d80ebaf	0.06294953
160	0x3c3f48e8	0.011675097
161	0x3b420700	0.0029606223
162	0xbca0f1d0	-0.019646555
163	0x3c6a09a8	0.014284529
164	0x3cf4200c	0.029800437
165	0xbd6104cc	-0.054936215
166	0x3b80bdb0	0.0039288625
167	0x3bd0c180	0.0063707232
168	0xbd772ff4	-0.060348466
169	0x3d2b5bfe	0.041835777
170	0x3cd93d8f	0.026518611
171	0xbc063c60	-0.008193105
172	0x3d4f046a	0.05054132
173	0xbbe1998a	-0.0068847584
174	0xbc9cf7ac	-0.019161068
175	0xbc6f7d60	-0.014617294
176	0x3c337e2d	0.010955376
177	0xbcb74ff0	-0.022376984
178	0xbd4f394c	-0.050591752
179	0x3cd084ca	0.025453944
180	0xba9aef00	-0.0011820495
181	0x3cfaa4b9	0.030596124
182	0x3cb46414	0.022020377
183	0xbc0898b0	-0.008337185
184	0xbd32bb31	-0.04363555
185	0xbd3b4260	-0.045717597
186	0xbb66aff1	-0.0035200084
187	0xbceb632c	-0.028733812
188	0x3ce9680c	0.028491996
189	0xbd1cfe3e	-0.0383284
190	0xb9b9bbcd	-0.00035425872
191	0xbce8320c	-0.028344177
192	0x3d3b12ac	0.045672104
193	0x3d2a569a	0.041586496
194	0xbd56a938	-0.052407473
195	0x3b464de0	0.003025882
196	0xbd278c7a	-0.040905453
197	0xbd163072	-0.036667295
198	0xbd75755c	-0.059926376
199	0xbccb29a8	-0.024800137
200	0xbb9cd740	-0.004786402
201	0x3c4791d0	0.0121807605
202	0xbd7ee9c1	-0.062234644
203	0xbd5ebd88	-0.05437997
204	0x3cc2d4fc	0.0237832
205	0xbc81aa53	-0.015828287
206	0x3d58bcc2	0.05291439
207	0xbd37c847	-0.044868734
208	0xbcd3e89c	-0.025867753
209	0xbd12f7a2	-0.035880692
210	0xbcbe66e2	-0.023242418
211	0x3c23bbdf	0.009993522
212	0xbb5412c0	-0.0032359809
213	0xbd0a9e88	-0.033842593
214	0xbcce1817	-0.025157971
215	0xbcc90cb4	-0.02454219
216	0x3d61dd54	0.055142716
217	0x3d5ab614	0.0533963
218	0xbd34e10e	-0.04415994
219	0x3d806b36	0.06270449
220	0x3bd9f55d	0.006651564
221	0x3b2ae899	0.002607858
222	0x3cf06894	0.029346742
223	0xbcccef72	-0.02501652
224	0xbd670273	-0.05639882
225	0x3d4b95b9	0.049703334
226	0xbc944b94	-0.018102445
227	0x3bf24cf0	0.0073944256
228	0x3c00fda8	0.007872976
229	0x3c981874	0.018566348
230	0xbd22dd43	-0.039761793
231	0xbcf4ff70	-0.029906958
232	0xbd693083	-0.05693103
233	0x3d1e1059	0.03858981
234	0xbd6a7ddc	-0.057248935
235	0x3d04a400	0.032382965
236	0x3d0f35c8	0.0349634
237	0xbd3ff9ba	-0.046869017
238	0xbd523060	-0.051315665
239	0xbd114eb1	-0.035475437
240	0xb9dafdbf	-0.00041769256
241	0x3c6a5dc8	0.014304586
242	0xbd3e9cfe	-0.04653644
243	0x3d715f3e	0.05892872
244	0x3d638fd0	0.055557072
245	0x3c01376a	0.007886747
246	0xbd5e2ef0	-0.05424398
247	0xbcc30424	-0.023805685
248	0x3b884373	0.004158431
249	0x3b593aa0	0.0033146515
250	0xbc77dd10	-0.015128389
251	0xbd623b71	-0.05523247
252	0x3d26c8ef	0.04071897
253	0xbd7976f4	-0.06090446
254	0x3c88af87	0.01668526
255	0xbd47ab1f	-0.04874718

fc4.weight f4 [3, 512]
0	0x3c8994ff	0.01679468
1	0x3cd897ca	0.026439566
2	0x3ca217eb	0.019786796
3	0x3d036338	0.032077044
4	0xbc8e6818	-0.01738362
5	0x3c269e47	0.010169572
6	0x3c321707	0.010869748
7	0xbaa71296	-0.0012746628
8	0xbcb75eb2	-0.022384021
9	0xbb291c44	-0.00258042
10	0x3c923e03	0.017851835
11	0x3ca50090	0.02014187
12	0x3cae1064	0.02124805
13	0xbd28cf2f	-0.04121321
14	0x3cf9a17e	0.030472513
15	0xbc0db2dd	-0.008648601
16	0xbcad6a7d	-0.021168942
17	0x3d13091b	0.035897356
18	0xbb6fd92d	-0.0036597953
19	0xbc81e026	-0.015853953
20	0x3b1c7106	0.0023871078
21	0xbd091a62	-0.033472426
22	0x3c086a55	0.008326133
23	0xbcdcef5f	-0.02696961
24	0xbc9c7ede	-0.019103464
25	0x3d0475cf	0.032338914
26	0x3ce764a7	0.028246237
27	0x3c9ac80e	0.018894222
28	0xbcd0a4d0	-0.025469214
29	0xbd1ea96a	-0.038735785
30	0x3c4d1d10	0.012519136
31	0xbc904c57	-0.017614527
32	0xbbbdf5d6	-0.005797128
33	0x3ce5f2bc	0.028069846
34	0xbca1a3f8	-0.019731507
35	0xbb0754dd	-0.0020649948
36	0x3c829427	0.015939785
37	0x3c954c67	0.018224908
38	0x3c2e3df7	0.010634891
39	0xbcbdf258	-0.023186848
40	0xbd1d4350	-0.038394272
41	0xbc9ebe4b	-0.019377848
42	0x3ce85654	0.028361477
43	0xbaaf9b60	-0.0013397746
44	0x3cc49b31	0.023999782
45	0x3d0ec224	0.034853116
46	0x3c4b38b5	0.012403657
47	0xbd1cbf85	-0.038268585
48	0xbca627ee	-0.020282712
49	0xbbc30ff8	-0.0059528314
50	0x3c09efeb	0.008419017
51	0x3cc18bc6	0.02362622
52	0xbd0fb807	-0.03508761
53	0xbbd3502c	-0.006448766
54	0xbc41d765	-0.011831139
55	0x3d170dfa	0.036878563
56	0x3c875cfc	0.01652383
57	0x3c02d116	0.00798442
58	0x3c53fa0c	0.012938034
59	0x3b5f3727	0.0034059973
60	0x3b4de2de	0.003141574
61	0xbcccb59f	-0.024988947
62	0xbc2451a1	-0.0100292275
63	0xbcaa4447	-0.02078451
64	0x3be12a24	0.0068714786
65	0xbc89270e	-0.016742256
66	0xbc0e194a	-0.008673022
67	0xbd211688	-0.039328128
68	0xbc865a03	-0.016400343
69	0x3afe0f81	0.0019383283
70	0x395ecca5	0.00021247806
71	0xbceee125	-0.029160092
72	0xbc9397aa	-0.018016655
73	0xbc8bef00	-0.017081738
74	0x3c0525a4	0.00812665
75	0xbcb84f3a	-0.022498716
76	0xbd2c16d4	-0.042013958
77	0x3d0b711e	0.034043424
78	0xbd029bd2	-0.031886883
79	0xbc7b0ecd	-0.015323353
80	0x3cdb1e5f	0.02674788
81	0x3d00eaf3	0.031474065
82	0xbd251f35	-0.040312964
83	0xbd05ecf5	-0.032696683
84	0xbd0bf459	-0.034168575
85	0x3cc08bda	0.023504186
86	0xbd300c61	-0.042980555
87	0xbcf28021	-0.029602112
88	0xbca4ca03	-0.020115858
89	0xbcb3d4ac	-0.021951996
90	0x3cb51987	0.022106899
91	0x3cf45702	0.029826645
92	0x3d07b107	0.03312781
93	0xbc4fa1da	-0.012672866
94	0x3c5c74bb	0.013455565
95	0x3ce5601f	0.027999936
96	0x3cd61981	0.026135208
97	0x3d08ad99	0.03336868
98	0x3c8b7805	0.017025003
99	0xbcf7c5ff	-0.03024578
100	0xbcbf9106	-0.023384582
101	0xbcf8f101	-0.030388357
102	0xbd27f4d4	-0.04100497
103	0x3cf55045	0.029945502
104	0xbbb1e2d3	-0.005428651
105	0x3d08d1e1	0.03340328
106	0x3c75d9a2	0.015005501
107	0xbcf2a776	-0.029620867
108	0x3b3fea99	0.0029284118
109	0xbd17c29b	-0.037050825
110	0xbbae6b40	-0.005322844
111	0x3bc6d104	0.006067397
112	0x3bb27a80	0.005446732
113	0x38230833	3.8869865e-05
114	0xbccda8d4	-0.025104918
115	0xbd16a333	-0.036776733
116	0xbc945c4c	-0.018110417
117	0x3c85d408	0.016336456
118	0x3d083a3b	0.033258658
119	0x3b5f8f8b	0.0034112658
120	0xbb6da449	-0.0036261252
121	0xbcd92774	-0.02650807
122	0xbcf51ecc	-0.029921912
123	0xbd2d1bc3	-0.042262804
124	0x3b9ffc59	0.004882377
125	0x3d1c5f3a	0.038176753
126	0x3cfbaa65	0.030720899
127	0x3cfeb651	0.031092795
128	0xbd00755a	-0.031361915
129	0xbca34383	-0.019929653
130	0xbcb44e9d	-0.022010142
131	0x3af24edb	0.0018486636
132	0x3ba2a0e6	0.0049630282
133	0x3d34148f	0.04396492
134	0x3d02c75d	0.03192841
135	0x3c0215ec	0.007939797
136	0xbc1b8c21	-0.009493859
137	0xbaeaab43	-0.0017903823
138	0xbc2fd397	-0.010731599
139	0xbd236aff	-0.03989696
140	0xbc978478	-0.018495783
141	0x3cfe22ff	0.031022547
142	0xbd115a67	-0.035486605
143	0x3d13ddf7	0.036100354
144	0x3d1f2d23	0.038861405
145	0xbd18c2b5	-0.037295062
146	0xbc714b4d	-0.014727426
147	0x3c6fb352	0.014630156
148	0xbcf47a7f	-0.029843567
149	0xbd0b29dd	-0.03397547
150	0x3d042ae5	0.03226747
151	0xbcf08fc2	-0.029365424
152	0xbc43b808	-0.011945732
153	0xbc44d3e0	-0.012013406
154	0x3b1d838f	0.0024034714
155	0x3d1b40f1	0.03790373
156	0x3ba89309	0.005144481
157	0xbd0b3fc1	-0.033996347
158	0xbc2fe2a9	-0.010735192
159	0xbd1e51b3	-0.038652133
160	0xbc98f932	-0.018673513
161	0x3d178c15	0.036998827
162	0x3ccfbf64	0.025359817
163	0x3d2b443e	0.041813128
164	0x3d32da21	0.043665055
165	0xbd23ca37	-0.03998777
166	0xbc74eee4	-0.014949534
167	0x3cc1f8a6	0.023678135
168	0xbbe54c34	-0.0069976095
169	0x3b8f8868	0.0043802746
170	0xbd1bb27b	-0.03801201
171	0xbc95ad8b	-0.018271228
172	0x3d0d2d28	0.034466892
173	0xbc6d0a7a	-0.01446783
174	0xbc678ff5	-0.014133443
175	0xbcceefb3	-0.025260782
176	0xbcfabd30	-0.03060779
177	0x3c5685e4	0.013093445
178	0x3d289738	0.04115984
179	0xbcb79e58	-0.022414371
180	0xbbed314b	-0.007238542
181	0xbc79bd6a	-0.015242914
182	0x3cd56524	0.026049204
183	0xbd0aee73	-0.03391881
184	0x3d17ce96	0.03706225
185	0x3b5e3fbf	0.0033912507
186	0x3c9998ef	0.018749682
187	0xbb956e7a	-0.004560289
188	0x3cda9022	0.026680056
189	0xbd06cdc0	-0.032911062
190	0xbcaad216	-0.02085213
191	0x3c026bcb	0.00796027
192	0xbcd10580	-0.025515318
193	0x3d31c44f	0.043400105
194	0xbcf462ad	-0.029832209
195	0xbb01b315	-0.001979058
196	0xbd0fff92	-0.03515584
197	0xbd299da9	-0.041410122
198	0xbc19edba	-0.009395057
199	0xbc110ff2	-0.008853899
200	0xbd16fd45	-0.03686263
201	0xbd325463	-0.04353751
202	0xbc0fd3fe	-0.00877857
203	0x3ca7e3a7	0.020494295
204	0xbcb1945f	-0.021677194
205	0xbc5a63bd	-0.0133294435
206	0xbd0691d0	-0.0328539
207	0x3ab9200a	0.0014123928
208	0x3ceeae4a	0.029135842
209	0xbd1015cf	-0.03517705
210	0xbd0db263	-0.03459395
211	0x3d00a6cb	0.031409066
212	0xbbf9fcb3	-0.007629001
213	0xbc922bfb	-0.017843237
214	0x3cbcc2fb	0.023042193
215	0xbd0db713	-0.03459842
216	0xbc0927e0	-0.008371323
217	0x3caf94df	0.021433292
218	0xbcca0f42	-0.024665479
219	0x3d197d9f	0.037473317
220	0xbd248638	-0.040167063
221	0xbd05b0ec	-0.03263943
222	0xbc56aec0	-0.013103187
223	0xbc93cc87	-0.018041862
224	0xbc965a10	-0.018353492
225	0x3c2e37ca	0.010633418
226	0x3ce5c7fb	0.02804946
227	0xbbd4573b	-0.0064801252
228	0x3cb54264	0.022126384
229	0xbc3fd463	-0.011708352
230	0xbc61aad1	-0.013773636
231	0x3d308c11	0.043102328
232	0xbcc115ac	-0.023569904
233	0x3cf7834d	0.030213976
234	0x3d2f8fa8	0.04286161
235	0xbc11e8ac	-0.008905571
236	0xbd127af0	-0.035761774
237	0x3c467227	0.012112177
238	0x3c409ddf	0.011756389
239	0xbc488a72	-0.012240039
240	0xbcd8adb2	-0.026450012
241	0xbbf8e9e6	-0.0075962422
242	0xbd2782cb	-0.04089622
243	0x3c304a0c	0.010759842
244	0x3d0adab2	0.03389997
245	0xbd2aea89	-0.041727576
246	0x3d10499b	0.035226446
247	0xbcf32fc6	-0.029685866
248	0x3b8bb6e1	0.004263744
249	0xbcf37b60	-0.029721916
250	0x3cf07024	0.029350348
251	0xbccb16de	-0.024791177
252	0xbcdf0f50	-0.027228981
253	0xbd06dc85	-0.032925148
254	0xba4d6052	-0.0007834482
255	0xbaede56c	-0.0018150038

fc4.bias f4 [3]
0	0x3bd5f574	0.0065295044
1	0xbd4a6631	-0.049413864
2	0xbd4aadaf	-0.049482044
