data/trained_model.pth (torch, 691531 bytes, 8 tensors)

conv1.weight f4 [32, 3, 8, 8]
000000 e8 80 4f 3d 8e 6f 3c 3d ac 63 4b bc be 4e a2 bd
       0.050660044 0.046004824 -0.0124139 -0.07925175
000010 63 ac a6 bd 93 5f 53 bc 74 16 86 bc 62 72 09 3d
       -0.08138349 -0.012901205 -0.016368128 0.03355635
000020 5e 64 28 bc 14 30 0f bd f5 68 e2 3c 13 24 52 3d
       -0.010277836 -0.03495796 0.027637938 0.051303934
000030 d6 d1 89 bd ee b3 4b bd 66 15 70 3d ca 02 aa bd
       -0.06729476 -0.04973214 0.058614157 -0.08301313
000040 c3 79 53 bc 3f 9b 47 3d 9a 25 79 bc 64 34 1f 3c
       -0.012907448 0.04873204 -0.015206719 0.009717081
000050 d7 eb 59 3c ad 1e f2 bb b8 70 8d bd eb b0 68 bc
       0.0133008575 -0.0073889107 -0.06906265 -0.014202337
000060 75 3f 6d 3d 13 82 76 3d 30 83 2b 3d cd 90 6d bd
       0.057921845 0.060182642 0.041873157 -0.05799942
000070 f1 27 a1 bd 60 2c 28 bd e4 d2 c9 3c d4 df 54 bd
       -0.07868946 -0.041057944 0.024636693 -0.05197127
000080 e5 8a 25 bd 7f f5 53 3d 4f 04 10 3d 20 13 20 bd
       -0.040415663 0.051747795 0.03516036 -0.03908074
000090 f7 f4 b8 3c 2d 20 a6 bd 5b 34 86 38 3e bf 7f 3d
       0.022577746 -0.08111606 6.39937e-05 0.062438242
0000a0 5f 71 0c bb 51 0e 54 bd 51 57 a2 bc 88 51 5b 3d
       -0.002142988 -0.051771466 -0.019817026 0.05354455
0000b0 3c c9 03 3c 0d a1 38 bb 54 d2 6c 3c 8b 6c fe 3c
       0.0080435835 -0.0028172166 0.014454443 0.031057617
0000c0 af 19 26 3d 04 1c 76 bd 72 f1 a7 3d ce 1f 40 3d
       0.040551838 -0.06008531 0.08200349 0.04690533
0000d0 4a 2f 19 bd f8 bf 6d bc 5f 96 1f 3c cf e8 05 3c
       -0.037398614 -0.014511101 0.009740441 0.008173182
0000e0 98 a7 fe 3b 0e 0c 9b 3d 38 86 72 3d 26 9c 13 bd
       0.0077714436 0.075706586 0.059210032 -0.036037587
0000f0 6e 94 c3 bc 47 02 7a 3d 0a 23 62 3b d5 ff 5d bd
       -0.023874488 0.061037328 0.0034505748 -0.05419906
000100 1d 43 3a bc 50 b4 b7 3c 3a 11 9c 3c 6b 74 15 bb
       -0.01136854 0.022424847 0.019051183 -0.0022804986
000110 6e e7 ad bc 07 bd 6d 3d 19 6b d4 bc 0a 28 2c 3d
       -0.021228518 0.0580416 -0.025929974 0.04203037
000120 72 31 2a 3d cf 97 1d bd 8a e3 4d bd be fd 55 3d
       0.04155106 -0.038474854 -0.050265826 0.05224394
000130 de df d0 3c e8 46 3e bd 09 46 0c bb 50 65 87 bd
       0.025497373 -0.04645434 -0.002140405 -0.06611121
000140 98 0d 43 bd 4f 05 98 bd e9 80 f2 bc df b3 1e bd
       -0.047620386 -0.074228875 -0.029602485 -0.038745757
000150 eb dd cb 3b f5 49 55 bd 2e 4d c1 3c ac f6 7b 3d
       0.006221523 -0.052072484 0.023596372 0.06151454
000160 d5 ad ee bb 90 dc 85 3c f9 b3 2f 3d ef 65 84 bd
       -0.007283906 0.016340524 0.042896245 -0.06464755
000170 bc 44 5c 3c 26 9f 93 bd 68 22 53 bd 52 57 dc bb
       0.013444122 -0.072080895 -0.051546484 -0.0067242766
000180 7c 43 87 bd 91 ca a5 bd af 75 ce bc 45 ca d8 3c
       -0.066046685 -0.08095277 -0.0252026 0.026463637
000190 12 d0 a3 bc 6d a0 0b 3c 46 3d c8 bc 32 32 5b bd
       -0.019996677 0.008522135 -0.02444328 -0.053514667
0001a0 05 e8 1e 3c af 40 2f 3c fd 5c 2a bd 6b c9 0f 3d
       0.009698872 0.010696574 -0.041592587 0.035104197
0001b0 07 4c 8f 3d 82 b7 70 3c 22 cd ec 3c d9 52 94 bd
       0.06996923 0.014692189 0.028906409 -0.072423644
0001c0 d7 6e 0f bd 88 61 2f 3c ab 5d 6b 3d 46 9b 3b 3d
       -0.035017814 0.010704406 0.057462376 0.045802377
0001d0 00 af 04 3d a2 8d 0d bd 98 b4 72 bc 32 b6 ae bc
       0.032393456 -0.0345589 -0.014813565 -0.021327112
0001e0 92 45 20 bc 4f 35 9c bd 9b df 85 3d 1b 38 3b bd
       -0.009782212 -0.07627355 0.0653679 -0.045707803
0001f0 f4 99 6e 3d 7e 46 6f 3d e8 04 58 bd e6 d5 bf 3c
       0.05825229 0.058416836 -0.052739054 0.023417424
000200 2b 6e 1f bd 6e 57 5d bb 0d 6e 91 bd 0b e8 89 bd
       -0.038923424 -0.0033774036 -0.07101069 -0.06733712
000210 61 48 a1 bd 6c ca 8b bd 17 42 85 3c a5 c1 ad 3c
       -0.07875133 -0.06825718 0.016266866 0.021210501
000220 c2 b0 7f ba 1d 5b 70 3c 01 08 33 bd 68 ca 97 3c
       -0.0009753817 0.014670161 -0.043708805 0.018529132
000230 ac b2 87 bd 68 10 4a bd b0 ee fb 3c a2 8e c4 3c
       -0.06625876 -0.049332052 0.030753464 0.023993794
000240 ae 3a b0 bd b3 6b 4c bd 82 e5 a2 bd 19 a2 65 3d
       -0.08604942 -0.049907397 -0.079539314 0.05606279
000250 5d a8 f1 3c d0 ae 55 bd f0 d3 4e 3d 02 f6 38 3d
       0.029499227 -0.052168667 0.050495088 0.045156486
000260 0d 09 41 bd ac a4 92 bd cf 52 c2 bc e8 ed 32 3c
       -0.047127772 -0.07160315 -0.023721127 0.010920979
000270 d6 e5 16 3d 9d 81 79 bc bc da 0e bd 39 44 dd 3c
       0.036840282 -0.015228656 -0.03487657 0.02701007
000280 63 ae 59 3d 30 2e ba bd 8b cc f5 3b e5 53 92 bd
       0.053144824 -0.09090841 0.00750119 -0.07144908
000290 f1 16 8f bc fd 87 44 3d 38 c2 2e 3d 4e 8a 8e bc
       -0.017466994 0.04798125 0.04266569 -0.017399933
0002a0 e8 38 42 3c eb be 13 3d 5e c4 fe bc 28 55 92 bd
       0.011854388 0.036070745 -0.031099495 -0.071451485
0002b0 0e 32 63 3d 1b a6 94 bd c8 91 5f 3d b9 a7 03 bd
       0.055467658 -0.072582446 0.054582387 -0.032142375
0002c0 69 46 57 3d ba 22 00 3b 40 3c a9 3c d3 27 77 3d
       0.052557383 0.0019551949 0.020658612 0.060340714
0002d0 35 e4 64 3d 89 a8 cb 3c ed 41 20 bb 73 19 f3 3c
       0.055881698 0.024860637 -0.0024453357 0.029675221
0002e0 57 a2 07 bd 52 f8 59 bc c7 b9 4d 3d 04 30 62 3d
       -0.033113804 -0.013303833 0.050226 0.055221573
0002f0 16 c0 7c bd 2c 92 66 3d 27 92 bd bc b1 c5 5c bd
       -0.061706625 0.056291744 -0.02314098 -0.05389947
000300 54 72 a5 bc 86 95 38 bc b4 f3 95 3c 4d ee 60 3d
       -0.020196117 -0.011266118 0.018304683 0.05491476
000310 bb b9 46 bd db f8 02 3d 77 30 de 3c d2 a9 6e 3d
       -0.04851697 0.03197561 0.02712272 0.058267422
000320 a6 14 61 3d f4 3c 96 bd 6d 21 61 bd 01 3e 8d bd
       0.054951333 -0.07335845 -0.054963518 -0.06896592
000330 01 3a 95 bd ce b7 7a 3d 40 e6 1b bd 46 fb 22 3d
       -0.07286454 0.061210446 -0.03806138 0.039790414
000340 92 5d 59 3d bd e5 0a bc 89 61 31 3d 5a 69 8a 3d
       0.05306775 -0.008477625 0.043305907 0.067583755
000350 06 ef c2 bb 36 60 83 3d cd aa a6 3b 79 ba 70 bd
       -0.005948904 0.06414835 0.005086279 -0.058771584
000360 81 21 19 bd ab 4c 06 bb 2b 3c dc 3c 4d 57 81 3c
       -0.037385467 -0.0020492475 0.02688416 0.015788699
000370 6c 35 80 bd b3 5e b5 ba 5a 97 07 3d 19 04 76 3d
       -0.062601894 -0.0013837427 0.033103324 0.0600625
000380 12 22 51 bd 01 61 39 bd e6 42 98 38 33 be 88 3d
       -0.051057883 -0.045258526 7.2603856e-05 0.066769026
000390 bb 1c 83 3c 29 b9 6b 3d 16 f2 14 3d 2b 79 d8 3c
       0.01600491 0.05754963 0.036363684 0.026424965
0003a0 62 d5 b7 bc 4d b0 ab bd 97 f7 4a bd 3c 24 fe bb
       -0.022440616 -0.08383236 -0.049552526 -0.0077557843
0003b0 09 2a a6 bc 3d 2b 6b bc fe 2d 40 bd 94 ef 82 bd
       -0.020283716 -0.0143535705 -0.04691886 -0.06393352
0003c0 ed ea 68 3d 15 65 49 3d 69 6f 6b 3d c7 2d 40 3d
       0.056864668 0.049168665 0.057479296 0.046918657
0003d0 f3 ef 8e bd a3 b2 83 3c 2d a6 85 bd c6 c6 02 3d
       -0.069793604 0.016076392 -0.06525836 0.031927846
0003e0 9c bb 6e 3d 0b 1b 2f bd 53 e2 1b 3d c2 e1 4b 3d
       0.058284387 -0.0427504 0.038057636 0.049775846
0003f0 53 0d f0 bc c2 e7 83 bd fa 57 a7 3c 91 5f f7 3b
       -0.029303228 -0.06440689 0.020427693 0.007549234

conv1.bias f4 [32]
000000 d1 02 1c 3d ad b5 22 3a d9 b9 0c 3d 92 45 ac 3d
       0.038088623 0.00062068814 0.034356926 0.08411707
000010 c0 f6 ae 3d 99 26 23 bd dd 74 a1 3d bd 74 3a bc
       0.085431576 -0.03983173 0.07883618 -0.011380372
000020 91 ef 82 bd 2e 90 70 bd ac b9 f5 3c 07 21 8c 3d
       -0.0639335 -0.05873125 0.029995762 0.06842237
000030 a8 32 90 3d d2 dc 4e 3d 28 ca 96 bd b7 00 80 3d
       0.07040912 0.05050356 -0.07362777 0.06250136
000040 ea 7b 90 bd f7 8e 05 bd a7 40 8c 3d 7f 33 10 bd
       -0.07054885 -0.032607045 0.06848269 -0.03520536
000050 be 89 a7 3c 7d 3b a9 3d 18 17 86 bd de 6b 60 3d
       0.020451423 0.082632996 -0.065473735 0.05479037
000060 ae bb 11 3d bf dc 9a 3c 3c ad be bc c1 d8 a3 bc
       0.035579376 0.018904088 -0.023275964 -0.020000817
000070 b7 1a 0d bd b0 34 60 3d d7 57 77 3d 98 c0 94 bc
       -0.034449305 0.054737747 0.060386505 -0.018158242

conv2.weight f4 [64, 32, 4, 4]
000000 5d 7d 9c bc 45 12 85 3c d0 e4 82 3c 56 c1 d8 3c
       -0.019102747 0.016244063 0.015978247 0.026459377
000010 83 ae 53 3c a6 3c d9 3c db 0e 9d 3c 6c d3 d9 bc
       0.012920025 0.026518177 0.019172123 -0.026590072
000020 1c 87 00 3d 28 13 4f 3c 55 a9 82 bc fe 7f 7b bc
       0.03137885 0.012638845 -0.015949884 -0.01535034
000030 83 3c 02 3d 42 f2 54 3c 76 26 8f 3a 36 15 0a bd
       0.03179599 0.012997212 0.0010921496 -0.033711635
000040 f8 7b 37 3d e2 4e d3 bc c2 70 2c bd ef 64 25 bd
       0.04479596 -0.02579445 -0.04209972 -0.04037946
000050 dd 5e e5 3c 50 9f 88 3c 5d e4 b0 bc bb ae 92 bb
       0.027999336 0.016677529 -0.021593267 -0.004476396
000060 02 27 c3 3c 90 e9 05 bc 7e 5e 2c bd 24 1c 21 3d
       0.023822311 -0.008173361 -0.042082302 0.039333478
000070 05 f8 2b 3d 1a dd c1 bc b8 fd 20 3d ef 73 68 bb
       0.041984577 -0.023665 0.039304465 -0.0035469492
000080 b3 c5 17 bd 8a 76 ea 3c 89 34 3a bd b0 aa b2 3c
       -0.037053775 0.028620977 -0.045460258 0.021809906
000090 51 4c 81 3c d9 23 7a 3c b2 78 eb bc d4 58 e8 3c
       0.01578346 0.015267336 -0.028744075 0.028362669
0000a0 f7 94 67 3c a2 02 f4 3c fa 10 c7 bc 40 c4 9d 3c
       0.014134637 0.029786412 -0.024300087 0.019258618
0000b0 73 cc 71 bc 1a e5 28 3c a3 39 c5 3c 60 d9 f8 3c
       -0.014758217 0.010308528 0.024075335 0.03037709
0000c0 59 2a 83 3c 6c 2c 92 bc d7 65 9a 3c 8c c9 1c bd
       0.016011404 -0.017843448 0.01884739 -0.038278148
0000d0 75 b3 5f 3a 20 e9 7d bc fb ea 1f bd 7e 2b 98 bc
       0.0008533516 -0.015497476 -0.039042454 -0.018575426
0000e0 46 db 13 3d 2a 68 00 bd 38 c1 19 bd d8 d3 db 3b
       0.036097787 -0.03134934 -0.037537783 0.0067086034
0000f0 61 5e e9 bc 0a 2f 87 bc 5b df 36 3d 18 30 88 bc
       -0.028487386 -0.016501922 0.044646602 -0.016624495
000100 fa 82 35 3d 6c ee 46 3c 94 9b 0b bd 87 bd 90 bc
       0.044314362 0.012141805 -0.034083918 -0.017668499
000110 6b ec 3b bd 92 b0 ef 3c 4a 26 52 3c f7 64 80 bb
       -0.045879763 0.029259 0.012826512 -0.003918286
000120 ac e7 ad 3c ca 6f 2d bd 75 08 b7 bc 13 e6 04 3d
       0.021228634 -0.04234294 -0.0223429 0.03244598
000130 1f 60 87 bc a6 29 a7 bc 86 b7 c3 3b 9a 50 22 bd
       -0.016525326 -0.020405602 0.0059728054 -0.03962765
000140 a7 9d 42 3c 77 d6 d8 bc 96 67 c5 ba 5d 3f 19 b9
       0.011878408 -0.026469452 -0.0015060778 -0.00014614822
000150 d9 b4 9c bb 82 80 2a bb bb a7 df 39 ad b5 20 bd
       -0.004782301 -0.0026016538 0.00042658843 -0.03923576
000160 4e bf 22 3d b0 71 b4 3c bf 1e 2d bd 3d 3c b9 3c
       0.039733224 0.022026867 -0.04226565 0.022611732
000170 b5 46 cd bc e2 b4 55 bc 71 99 f2 3c c6 d5 2c bb
       -0.02505813 -0.013043614 0.029614182 -0.0026372536
000180 13 36 b0 3c cc 83 2b 3d f9 39 5e bc de a1 00 bd
       0.02151016 0.04187374 -0.013563626 -0.03140437
000190 e7 32 32 bd 8d 3a fb bc 1c e4 fe 3c 14 54 32 bc
       -0.043505576 -0.030667568 0.03111463 -0.010884304
0001a0 61 30 9e 3c bc a1 ae bc 39 d3 c6 bc c2 3b f4 3b
       0.019310178 -0.021317355 -0.02427064 0.0074534127
0001b0 a8 a9 21 bd 5b c8 26 bd 71 ab 27 3d 35 95 0b b9
       -0.039468437 -0.040718418 0.040934984 -0.00013311657
0001c0 ef 7b 3b ba 7b 7a 03 3c 90 b7 aa 3c c4 5d 07 3d
       -0.00071519514 0.008024807 0.020839483 0.033048406
0001d0 57 a2 7a 3b 8e 65 26 3d 4b 71 18 3d 5d ef af 3c
       0.0038243735 0.040624194 0.03721742 0.021476442
0001e0 e1 57 db 3a 48 62 f1 3b 0c 00 95 3c c6 8c 60 bb
       0.0016734564 0.0073664524 0.018188499 -0.0034263595
0001f0 a6 fe d8 bc ab aa 23 3d 30 26 d6 bc d9 09 aa 3a
       -0.026488613 0.039957684 -0.026141256 0.0012972906
000200 93 42 f5 bc 42 32 c5 bc e4 32 4f bb 0f aa b0 3c
       -0.029938972 -0.024071816 -0.0031616027 0.021565465
000210 95 b9 84 3c e7 0e be ba 7a 41 25 bc bb 14 04 bd
       0.016201774 -0.0014500291 -0.010086412 -0.032246333
000220 d9 8f 98 3b 3c 63 6d 3c 78 c4 de 3c 8b a7 0e 3d
       0.00465582 0.014488991 0.027193293 0.03482775
000230 d5 89 c9 3b 45 75 ba bc 52 ea 10 bd f9 e6 30 3c
       0.006150464 -0.022760997 -0.035379715 0.010797256
000240 10 bd 29 bd 86 7c 04 bd 29 15 dd 3b 8c ec f4 3b
       -0.04144007 -0.032345317 0.0067469073 0.0074744876
000250 b6 1e a4 3c 58 da 0e bc 01 79 4e 3c 6b 19 b2 3c
       0.020034175 -0.008719049 0.012602092 0.021740636
000260 15 d8 1e 3d 75 55 0e bd 39 c1 06 3c 1e 0e f9 bb
       0.03878029 -0.034749467 0.008224779 -0.00760056
000270 3a 6b e9 3c df d2 32 bc b3 59 5c bc ee ec cb bc
       0.028493512 -0.010914533 -0.01344912 -0.02489325
000280 c0 9c 2d 3b 8e d5 ce bb 64 ef 25 bd 9f f1 61 bd
       0.0026491135 -0.006312079 -0.040511504 -0.05516207
000290 17 b5 58 3c 73 3a 37 bc 01 1d a0 bc f4 5f ac 3c
       0.013226769 -0.011183369 -0.01954508 0.021041848
0002a0 66 c7 c6 3c 57 4e 4c 3c ed 2c 00 bc 20 ff dd bc
       0.024265002 0.01246985 -0.007823211 -0.027099192
0002b0 16 53 93 bc a8 b2 9f bc 64 42 74 bb 55 e2 7c bc
       -0.017983954 -0.01949437 -0.0037271017 -0.015434821
0002c0 4e 94 21 3d d8 d6 4b 3c 15 d6 a7 bb d0 41 93 bc
       0.039448075 0.012441359 -0.005121956 -0.017975718
0002d0 56 d3 de bc 92 09 14 3b 72 ba 94 bb eb 87 fb bc
       -0.027200382 0.0022588712 -0.0045388276 -0.03070446
0002e0 4f 35 16 3d f6 a2 03 3d c7 85 25 bd ad 8d a4 bc
       0.036671933 0.032137834 -0.040410783 -0.020087088
0002f0 3a 64 dd bc 7b 83 19 bd 21 e9 59 bc 55 20 0a 3d
       -0.02702533 -0.037478905 -0.013300211 0.03372224
000300 60 6f 24 bd fb 62 f5 bc 2b a7 fa bc 32 7f 27 bd
       -0.040145278 -0.029954424 -0.03059729 -0.040892787
000310 e4 01 14 3c b7 65 01 3d f2 ab d8 3b 5b 62 11 bc
       0.009033654 0.031591143 0.0066122944 -0.008873547
000320 78 f9 48 b9 1f b7 b6 3c 7c 36 30 bd f6 fc 2a bd
       -0.0001916642 0.022304116 -0.04302071 -0.04174515
000330 65 dd 43 bb ab 77 a8 bc 7d 15 22 bb 55 ed fe 3c
       -0.00298866 -0.020564875 -0.0024732046 0.031119028
000340 b6 8a 9a 3c da 60 29 3d e7 9f 2d 3d 6e 9f d8 3c
       0.01886497 0.04135213 0.042388823 0.02644321
000350 3d fe 43 ba 33 9a 7b ba 7c 83 35 3b 00 59 2e bd
       -0.0007476544 -0.00095978676 0.002769678 -0.042565346
000360 99 65 25 bd f6 a2 32 bd cc 38 d7 bc 2d a8 a0 bc
       -0.040380094 -0.043612443 -0.0262722 -0.019611442
000370 2e c9 19 bd 0a 88 0d bd be e7 f7 3b ab c5 2f 3c
       -0.037545376 -0.034553565 0.0075654676 0.01072828
000380 fb 0c 56 3d 65 4c e4 bc d3 49 f4 3c 19 bd 2d bc
       0.052258473 -0.027868459 0.029820358 -0.010604166
000390 f2 a7 50 3d 84 fa 32 3c 8b 69 84 bc 3b 90 ce bb
       0.050941415 0.010923985 -0.016163608 -0.0063038147
0003a0 6b 7e 0a bc a4 92 d2 bc b4 0d 26 bb ec c5 16 3d
       -0.008452992 -0.02570469 -0.0025337758 0.036809847
0003b0 63 41 8a bc dd 5a aa 3c ba 30 20 3d 2e f2 64 3c
       -0.016876882 0.02079528 0.03910897 0.013973756
0003c0 af 0b a6 3c 41 56 3d bd b0 70 19 bd de 37 70 3c
       0.020269243 -0.046224836 -0.037460983 0.014661757
0003d0 c4 77 c2 3c d1 2d 0a bd 77 43 6a bd ac f5 96 bb
       0.02373875 -0.0337351 -0.057193246 -0.004606923
0003e0 67 b3 3a bd 1e 28 c6 3c e8 fb 9d 3c eb e7 31 3b
       -0.045581248 0.024189051 0.019285157 0.002714629
0003f0 79 3f bd 3c 2c c4 81 3a a9 ef 07 3b 44 38 b9 3c
       0.023101555 0.0009900383 0.0020742214 0.022609837

conv2.bias f4 [64]
000000 c8 21 e2 bc c4 5b 6f bc 02 0f 1b bd 85 26 c9 bb
       -0.027603999 -0.014609281 -0.03785611 -0.006138625
000010 04 16 56 3c d8 68 9f 3b 61 f5 82 bd 3c 88 18 bd
       0.013066772 0.0048647933 -0.063944586 -0.0372393
000020 2f df bb bc 9b 77 17 bd 25 21 bd bc bf e7 45 bd
       -0.02293357 -0.0369793 -0.023087094 -0.048316713
000030 89 db 8c bd 35 ff ef bc 29 35 f0 ba 50 89 1f 3d
       -0.068778105 -0.029296497 -0.001832639 0.03894931
000040 76 bf 83 3c 15 9d 07 3a 96 9c ae 3c d9 19 82 3c
       0.016082507 0.00051732484 0.0213149 0.015881466
000050 96 39 f6 39 e6 34 70 bc b3 ef fb 3b 62 99 82 bd
       0.0004696368 -0.0146610495 0.0076884865 -0.06376912
000060 bf 22 99 ba ea 3b 11 3c dc 4d f1 bc ce 4a 98 bc
       -0.0011683329 0.008864382 -0.029456072 -0.018590357
000070 54 ef 5d bc 38 45 dd bc d0 78 df bc 2d 66 28 bd
       -0.01354583 -0.027010545 -0.027279288 -0.041113067
000080 67 82 93 bb 28 ed 05 3b 24 7a f4 bb fa 36 87 bd
       -0.004501629 0.0020435546 -0.0074608494 -0.06602283
000090 ba eb 02 bd 6d df 70 3c 47 64 5c bd 26 a7 9d 3b
       -0.031963088 0.014701706 -0.05380657 0.0048111854
0000a0 0c 12 64 bd 3c 9d 5b bd f5 0f 89 bc 4e 2d 2c bd
       -0.055681273 -0.053616747 -0.016731242 -0.042035393
0000b0 34 57 0a bb d1 b1 19 bd e3 1c 44 bd df 88 27 bd
       -0.0021109106 -0.037523095 -0.04787911 -0.040902015
0000c0 e0 26 54 3c f8 c8 d7 bb c0 dd f3 bc 3d 50 3b bd
       0.012948722 -0.0065852366 -0.029768825 -0.045730818
0000d0 c5 10 9d 3c 0d 8d e3 3b 67 c8 28 bd de 4a f0 37
       0.019173035 0.006944305 -0.041206744 2.8645092e-05
0000e0 ee cc 10 bd e9 3c 22 3b 83 6f 02 bb 8d 60 da 3b
       -0.035351686 0.0024755544 -0.0019902892 0.006664342
0000f0 5d 41 f3 bb c5 1f 50 3c 43 12 ab bc bf 08 ec bc
       -0.0074235634 0.012702887 -0.020882731 -0.028812764

fc3.weight f4 [512, 256]
000000 bb 1c 23 bb a2 9e 54 bd 05 f6 f0 ba 2d 2e bf 3c
       -0.002488895 -0.051909097 -0.0018383866 0.023337448
000010 6d 5f 57 3d 3e 4c 7b bc 3d d9 e6 bc c6 0c 58 bd
       0.05258124 -0.015338002 -0.02817976 -0.052746557
000020 f2 78 33 bc cf e8 0d 3d a9 01 33 3d ad 5e 1b bd
       -0.010954129 0.03464585 0.043702755 -0.037932087
000030 eb 69 e4 ba 28 62 ba 3c 0d 3f 0b 3d 8f fa 2e bd
       -0.0017426586 0.022751883 0.033995677 -0.04271942
000040 ce 3c 0a 3d c5 74 93 3c 85 c3 e1 bb 39 34 49 bd
       0.033749394 0.018000016 -0.006889763 -0.04912207
000050 8b 41 96 bd 1e 89 14 bd 65 d0 53 bd 0d a4 d0 3c
       -0.0733672 -0.036263578 -0.051712412 0.02546885
000060 63 5a 48 bd 73 23 91 3c ba 4f 68 ba 1c 6f 01 3d
       -0.048914324 0.017717099 -0.0008861978 0.031600103
000070 c7 d3 35 bd 84 c4 f9 3c a0 36 06 bd 70 e6 93 bd
       -0.04439142 0.030489214 -0.03276694 -0.07221687
000080 ea c7 58 bd 8e 7e cb bb 77 0b ef 3b 43 cf 0b bd
       -0.052925028 -0.006210155 0.007295068 -0.034133207
000090 05 2f bd 3a 5c e3 13 3d 74 ca 4f 3d 76 d7 ec bc
       0.0014433569 0.0361055 0.050730184 -0.028911334
0000a0 e3 e3 86 3d 51 7e 8c bd 28 26 2c 3d bb cc b9 bc
       0.06586435 -0.068600304 0.042028576 -0.02268063
0000b0 19 c3 df bc 6b 0b 13 bd bb 1a 19 bd c4 7e 58 bd
       -0.02731471 -0.03589956 -0.037379008 -0.052855268
0000c0 5e c7 27 3c 58 c6 ab bc 03 82 46 3d b5 f8 15 bd
       0.010240404 -0.020968601 0.048463833 -0.03661414
0000d0 c1 4c 40 bd fb 72 9f 3b 0d af 27 3d 27 6a 44 3d
       -0.0469482 0.0048660017 0.040938426 0.047952797
0000e0 e8 1f f8 3b 7d 9a b8 bc b7 72 5c bc 11 bb 87 3d
       0.007572163 -0.022534603 -0.0134550845 0.06627477
0000f0 8b ce 88 bd 8a 4e 46 bd 16 aa 00 3d dc b2 06 bd
       -0.0668002 -0.048414744 0.031412207 -0.032885417
000100 a3 08 cd bc 1b df 55 bd 91 fc a0 3c 08 f0 f2 3c
       -0.025028532 -0.052214723 0.019651683 0.029655471
000110 4d 09 e2 bc dd 94 17 3d 18 d2 da 3c 28 66 77 bd
       -0.027592326 0.0370072 0.026711509 -0.06040016
000120 e8 d7 b9 3b e1 f6 66 bd 0b 88 63 bd 1b 90 20 3d
       0.00567149 -0.056387786 -0.055549663 0.03919993
000130 f7 89 87 3d f1 1e 84 bc f6 fc 43 bd 32 44 56 3d
       0.066181116 -0.016128035 -0.047848664 0.05231113
000140 f4 9a d8 b9 6a 33 e1 bc 2f b8 3c 3d bc 0c 12 bd
       -0.0004131418 -0.027490336 0.04607409 -0.035656676
000150 23 22 fc bc bc 5a 49 3d c8 c0 bf 3c bd d4 9f bc
       -0.030777996 0.049158797 0.023407355 -0.019510621
000160 92 97 13 3d 45 a4 2d 3d 7e bd 39 3d b6 c6 06 bd
       0.03603322 0.042392988 0.04534673 -0.03290435
000170 69 27 dc 3c 3a e0 e5 bc ca 16 7c 3c 71 7b 40 3d
       0.026874261 -0.028061021 0.015386293 0.046992723
000180 88 bd 59 bc 8d 3f 5c bd 49 b9 e0 3c f8 d6 d9 3c
       -0.013289817 -0.053771544 0.0274321 0.026591763
000190 24 30 29 bd 50 49 2d 3d 4e e1 c8 bb 2c 7f 8e 3d
       -0.041305676 0.042306244 -0.006130374 0.0695785
0001a0 fc 51 5d 3d d2 e5 52 3d bb 1b a5 bb d9 05 86 3d
       0.054033265 0.051488705 -0.005038706 0.06544084
0001b0 f9 01 88 bd 64 8d d3 3b 9e d5 ff bc 6f 81 13 bc
       -0.06641001 0.006456064 -0.03122979 -0.009003027
0001c0 7b 41 90 3d 7f b3 a4 bd a0 c3 78 bd 44 b8 2d bc
       0.070437394 -0.08042049 -0.060733438 -0.010603014
0001d0 f8 64 90 bd 26 79 df 3c f9 f6 ac 3b 81 59 0d bd
       -0.07050508 0.027279448 0.005278465 -0.034509186
0001e0 46 45 5e 3c 41 36 44 3d 4c 7f 23 3d 40 18 2a 3d
       0.013566321 0.047903303 0.03991632 0.041527033
0001f0 b3 2a 54 bd b6 eb d4 bc cc 89 ca bc 93 68 a1 3a
       -0.051798534 -0.025991302 -0.02472391 0.0012314491
000200 e0 3d 2d bd 71 15 39 3d 48 d0 a7 3c 75 59 08 3d
       -0.042295337 0.045186464 0.020485058 0.033288438
000210 da 0b bc bc 1d d7 ba 3c 28 98 f4 bc 7e 47 64 bc
       -0.02295487 0.022807652 -0.02985771 -0.013933061
000220 1b 4d 5f bd 86 66 2c 3d e4 a6 16 bd b3 7b 86 bd
       -0.054516893 0.04208996 -0.036780253 -0.065665625
000230 2b 72 85 bc 6f 9f 6f bd 10 95 07 bc 6d ea d7 bc
       -0.016289791 -0.058501657 -0.008275285 -0.0263569
000240 cd 4b 29 bd 9f 7e b3 3c 3a 5c c7 3a 8e bf 5b bd
       -0.041332055 0.021910964 0.0015209981 -0.053649478
000250 15 7b 09 bd e9 12 1f bc d2 9f 77 bd 4d 53 05 3c
       -0.033564646 -0.009709098 -0.06045515 0.008137536
000260 34 9e ae 3c 0c 25 ea bb e7 2a 9b bb 6c 6e e3 bc
       0.021315672 -0.0071455296 -0.004735339 -0.027762614
000270 d6 4d 07 3d 36 0c 56 3c 8c 2f 30 bd 6b da 2f 3d
       0.033033215 0.013064435 -0.043014094 0.04293291
000280 f2 a2 86 3c 1b 1f 21 3d b5 d0 67 bd a1 f8 0b bc
       0.01643512 0.039336305 -0.056595523 -0.0085431645
000290 89 1f 2c 3d 3a 4a 91 bb 46 3e eb bb ae 08 88 bb
       0.04202226 -0.0044338973 -0.0071790544 -0.0041514253
0002a0 01 d9 b1 3c f2 11 59 3d bc 76 02 bd 6c 92 67 bd
       0.02170992 0.05299563 -0.031851515 -0.056536123
0002b0 b6 3f 28 bd 50 d6 b1 bc 73 08 5f ba 0e e9 d1 bc
       -0.041076384 -0.021708637 -0.0008508034 -0.025623824
0002c0 7d e6 39 3d 23 f2 d2 3b d4 37 2d bb 49 b6 eb bc
       0.045385826 0.0064375564 -0.0026430981 -0.028773444
0002d0 ba d6 97 3c 97 0f d8 bc 46 8f ab 3c ef 2a 46 bd
       0.018535007 -0.026374621 0.020942342 -0.04838079
0002e0 e8 b1 22 3b ec f5 9b bc fb 50 e9 3c 76 c5 c8 bb
       0.0024825279 -0.019038163 0.028480997 -0.006127055
0002f0 5c 3c 80 bc fa b9 73 bd 02 80 21 3d c7 a5 8f 3b
       -0.015653782 -0.059503533 0.03942872 0.004383776
000300 98 a4 9e 3b 70 dc 31 3d 27 70 4a bd ca 2f 07 bd
       0.0048413984 0.043423116 -0.049423363 -0.03300456
000310 ea 8e 04 3d dc ab 74 3d 52 a3 6f 3d 08 f8 82 3c
       0.032362856 0.05973421 0.058505364 0.015987411
000320 c8 2b 88 bc f4 5f 19 bd 58 08 66 bd fa 4f 02 3d
       -0.016622439 -0.037445024 -0.0561603 0.031814553
000330 2b f6 90 bc c0 b8 03 3d 14 9a 81 bd f3 f0 83 bc
       -0.017695507 0.032158613 -0.06328216 -0.016106104
000340 a3 6e b3 3c fc ea b8 bc 39 f5 83 bd e6 59 00 bd
       0.021903342 -0.022572987 -0.06443257 -0.031335734
000350 6a 98 a5 3c 61 c8 77 bd 74 de 69 3d 51 56 93 bb
       0.020214278 -0.06049383 0.057096913 -0.0044963737
000360 54 a1 0c bd d2 fe 10 bc 1d 25 08 3d d5 f7 a2 3c
       -0.034333542 -0.008849816 0.03323852 0.019893566
000370 d1 af a0 bc 8d c7 3d bd 68 6f e3 3c e7 c6 aa 3c
       -0.019615086 -0.046332885 0.027763084 0.020846797
000380 ec 9a 2a 3d 10 e2 9d bb 67 86 99 bc f0 4b 21 3d
       0.04165165 -0.0048182085 -0.018740846 0.03937906
000390 82 a1 e8 3b 18 65 eb bc 80 2e 01 bd a0 c0 2a bb
       0.0070993314 -0.028734729 -0.031538486 -0.0026054755
0003a0 ab 74 d5 bb de 33 af 3c c5 7d 09 bd c6 6f 5e 3d
       -0.006514152 0.021387037 -0.03356721 0.054305814
0003b0 78 c5 55 3d 54 e9 32 bd cd 09 56 bd 0a 21 bc bc
       0.052190274 -0.04367955 -0.05225544 -0.022964973
0003c0 dc 55 b5 bc 79 1e dd bc c8 86 87 bb dd c3 2f bd
       -0.022135668 -0.02699207 -0.00413594 -0.0429114
0003d0 36 9d 5f 3d 2d 13 6b bd ca 3c 06 bd a6 f6 6f bd
       0.054593287 -0.057391334 -0.032772817 -0.05858483
0003e0 a9 63 b7 bb 0d a6 a5 3c 21 08 3b bd 81 82 9a bd
       -0.005596597 0.02022078 -0.04566205 -0.07544423
0003f0 05 b9 7c bd cc b8 c6 bc 37 6f 5c bd 38 c9 f3 3c
       -0.061699886 -0.02425804 -0.053817 0.029759035

fc3.bias f4 [512]
000000 65 26 59 bd 52 1a 63 bd c8 79 01 3d dc fc 28 bd
       -0.05301513 -0.055445023 0.03161028 -0.04125677
000010 d3 93 96 3d 62 26 79 bd 48 e7 48 3c b0 b7 8f bc
       0.07352414 -0.06082762 0.012262173 -0.017543644
000020 4d e5 e0 3c 94 00 ad 3c 84 8d 5a bc 47 73 2b bd
       0.02745309 0.02111844 -0.013339404 -0.041857984
000030 e6 b2 33 bd 3a 29 78 bd 70 10 b3 3c 1f 0c d2 3c
       -0.043871783 -0.06058619 0.021858424 0.025640545
000040 4c 05 5b 3d b5 d8 97 bc ee 98 21 bd 96 e0 2a bc
       0.05347185 -0.018535951 -0.039452486 -0.010429522
000050 7e 57 14 3c 4c 79 01 3d a8 44 32 bd ad 4e 32 3d
       0.009054063 0.03160982 -0.043522507 0.043532062
000060 46 60 8c 3c 59 2b a5 bc a9 46 20 bd 80 dc 87 bd
       0.01713575 -0.020162271 -0.039129887 -0.06633854
000070 d7 cb 44 bd ae 24 9a bd 40 34 1c 3d 6f 91 9b 3c
       -0.04804596 -0.07526527 0.038135767 0.018990247
000080 e7 be 7b bd e0 cc f4 3b bf 8e 0a 3d ae f3 59 bd
       -0.061461356 0.007470712 0.03382754 -0.053210907
000090 bc 2d 11 bd 01 bc a2 bd ff 1a d7 3b e8 d2 f4 bb
       -0.035444006 -0.07946015 0.0065644975 -0.007471431
0000a0 b8 d0 8d 3c 09 e8 a9 bc 91 e2 a5 bd 38 f8 51 bd
       0.017311439 -0.020740526 -0.08099855 -0.05126211
0000b0 fa a0 19 bd 77 c2 33 bc 0d 88 83 bc 48 70 2c bc
       -0.037507035 -0.010971657 -0.016056085 -0.010524817
0000c0 c9 f8 a8 bc 35 38 9c bd 00 d0 f3 3c f1 e1 e2 3b
       -0.020626443 -0.07627908 0.029762268 0.006923907
0000d0 38 06 4b bd 27 ff b9 3c 4a 00 43 bd bf dd 92 bd
       -0.049566478 0.022704674 -0.047607698 -0.07171201
0000e0 39 01 98 3d f3 4e 2f bd d8 10 27 bd db 07 2a bd
       0.07422108 -0.0427999 -0.040787548 -0.041511398
0000f0 a3 77 dc bc 5a 0d 34 bd c1 92 d6 bd 4f 6f 50 3d
       -0.026912516 -0.043958046 -0.1047721 0.050887402
000100 4a 31 6c 3c 7f 86 6f bd 61 20 61 bd 42 17 07 3d
       0.014416048 -0.058477875 -0.05496252 0.032981165
000110 ad 6e 0c bc 66 3d 6e bd 80 31 13 3d 4a fd 68 3d
       -0.008571309 -0.058164023 0.03593588 0.05688218
000120 dd a2 2f 3b ab f2 4c bb 72 64 16 3b 92 52 97 bb
       0.0026799955 -0.003127257 0.0022948054 -0.0046179974
000130 90 2e 6b bd 40 22 f3 bb 5b 56 80 bd ae f1 ce bc
       -0.057417452 -0.0074198544 -0.06266471 -0.025261726
000140 2c 5e 4e bd a1 6d b7 3c 98 1f 27 bd f6 57 4e 3d
       -0.050382778 0.022391142 -0.040801615 0.050376855
000150 de 99 c0 bc 7d ad 34 3c b2 a2 7d 3c d8 ec 36 3d
       -0.02351087 0.011027691 0.015480684 0.044659466
000160 98 79 2e bc 43 81 00 bd c3 4e 4c bd d4 2f 22 3d
       -0.010649107 -0.031373274 -0.0498798 0.039596394
000170 9f f7 3e bd 77 6d 71 bb c6 eb ba bb be 24 9c bc
       -0.04662287 -0.0036838928 -0.005704376 -0.019060489
000180 e9 f8 6c bd c9 08 26 3b 95 43 c8 3c 86 c3 9c 3d
       -0.057854567 0.0025334826 0.024446288 0.07654481
000190 ef ba 8e bd 84 db 4c 3d 71 2f de 38 14 65 a8 3c
       -0.069692485 0.050014034 0.000105946216 0.02055601
0001a0 8e a2 12 bd 07 35 13 bc 44 06 9d bd 84 d5 a6 bd
       -0.035799555 -0.008984811 -0.07667211 -0.081461936
0001b0 4e b8 97 3c 5a 83 85 bc e3 d2 30 3d 48 0e 15 bc
       0.0185205 -0.016297985 0.043169867 -0.009097643
0001c0 40 e2 e9 bc 00 cd 90 3c 1b 3f 90 bd 0f 69 c1 bc
       -0.028550267 0.017675877 -0.070432864 -0.023609666
0001d0 24 57 2a bd c3 05 90 bd 4d 96 18 3d a6 9a 46 bd
       -0.04158701 -0.07032349 0.037252713 -0.048487328
0001e0 1c 3d 7b bd d1 a9 a7 bd 20 84 3e bd 98 2d cd bc
       -0.061337575 -0.08186687 -0.046512723 -0.025046155
0001f0 7d a1 90 bc 97 d2 87 bd 2c 44 39 bb 14 78 ad bc
       -0.017655129 -0.06631964 -0.0028269393 -0.021175422
000200 dc d9 34 bc 82 48 ae 3c 34 8d 61 bc 17 9d 6a bd
       -0.01103827 0.021274809 -0.013766576 -0.05727872
000210 7f c2 8c bb 87 00 bb 3a d0 a6 62 bd dc 76 36 3d
       -0.0042956467 0.0014267125 -0.055334866 0.044546947
000220 25 57 0a 3d 54 28 84 bd a4 f3 c6 ba d9 f5 83 bd
       0.033774514 -0.064530045 -0.0015178812 -0.06443376
000230 41 74 6c 3d 34 1d af b9 8f 59 bd 39 07 64 55 bd
       0.057728056 -0.0003340036 0.00036115616 -0.052097347
000240 e1 9d 8e bd f4 a3 09 bd 1e bb 38 bc f1 d2 0c bd
       -0.06963707 -0.033603624 -0.011275081 -0.034380857
000250 ff 4e 5a bc de 2a 31 bd aa d4 8a bc 2e 5b ca bc
       -0.013324498 -0.043253772 -0.01694711 -0.024701681
000260 b9 ac d7 3c 4e 2a 4e bc a5 22 13 bd ff 5b 45 bd
       0.026327478 -0.012583328 -0.03592171 -0.048183437
000270 59 b2 6f bd fc 03 b3 3b 27 dc ae bc 43 27 1b 3d
       -0.058519695 0.0054631215 -0.021345211 0.03787924
000280 5b 89 b1 bb a5 8f 54 bb 06 e8 80 bd c0 90 cb 3c
       -0.0054179854 -0.0032434252 -0.06294255 0.024849296
000290 d2 3d 29 3c ab 58 ad bc bb 25 7c bd bb 28 5b bd
       0.0103296805 -0.021160444 -0.06155942 -0.05350564
0002a0 72 79 84 bd 1d 76 af 3a 68 f4 0b bd 18 95 92 bd
       -0.06468476 0.0013386641 -0.03416863 -0.071573436
0002b0 e5 0c 2c 3c ad cf 31 3c 67 be 8c 3b 72 88 57 bd
       0.010501121 0.010852736 0.0042951587 -0.05262036
0002c0 a6 44 27 3d 44 7e 92 bd 40 fd 86 3d e8 5f 56 bd
       0.040836953 -0.071529895 0.06591272 -0.052337557
0002d0 ca 71 dd bb 91 19 8b bd 6f cd e6 3c 68 b0 fd bc
       -0.0067579495 -0.06791986 0.02817413 -0.030967906
0002e0 d9 8f 30 3b 40 f6 54 bc f8 b4 2b bd 2e e3 cd bc
       0.0026941209 -0.012998164 -0.041920632 -0.025132742
0002f0 57 26 1d bd f7 48 91 3d 13 d1 2c bd c6 cc e8 3c
       -0.03836664 0.07093995 -0.042191576 0.028417956
000300 b0 7a 4a 3d 56 d1 c0 bb 1c 86 17 3d b4 8b 1a bb
       0.04943341 -0.00588433 0.03699313 -0.0023581805
000310 1f b3 14 bc 1d 70 cd 3c fd d3 b9 bd 75 d1 af 3b
       -0.009075909 0.025077874 -0.09073637 0.0053655454
000320 95 ac 04 bd c2 2e 11 3d 9c 2d 98 bc 6d dd ef 3c
       -0.03239115 0.035444982 -0.018576436 0.029280389
000330 09 e7 92 bd 11 9f 8f bc ec e3 a7 bc ac 03 07 bd
       -0.07172973 -0.017531903 -0.020494424 -0.032962486
000340 8d 37 8e 3d 3a 7f 1a bd c0 20 c1 bc 9b aa 1c bc
       0.06944189 -0.03771899 -0.023575187 -0.00956216
000350 91 8a 76 bd 9e 8d 2d bd 77 26 03 bc 94 a5 92 3c
       -0.06019074 -0.042371385 -0.008004776 0.01790122
000360 c6 a3 cc bb 16 ca 9a 3c 1c 04 74 3d 10 0a 02 bc
       -0.0062451093 0.01889519 0.05957423 -0.007936969
000370 bb 1c 50 bc 39 15 80 bd 5b 4f 1d 3d b1 5e c5 bd
       -0.012702162 -0.06254048 0.038405757 -0.096372016
000380 bf c3 31 bd 60 00 55 3b 15 70 69 bd 40 69 3f bd
       -0.04339957 0.0032501444 -0.056991655 -0.046731234
000390 65 ae 2d 3d d4 1e 38 bc df cf 3a bd e4 74 5c bd
       0.042402644 -0.011237819 -0.045608398 -0.053822413
0003a0 d6 e7 b0 bc 02 e7 d7 bd af 26 c9 bb 43 71 80 bb
       -0.021594923 -0.10542108 -0.0061386446 -0.003919752
0003b0 26 d3 4e 3d 43 21 9a bc 46 72 00 3d 6d 73 ff bc
       0.050494336 -0.018814689 0.03135898 -0.031182969
0003c0 7d 1c 6a 3d f7 97 5c bc 37 13 30 bd f3 a7 5c 3d
       0.057156075 -0.013463966 -0.042987075 0.053871106
0003d0 84 02 30 bd 51 a9 40 bc 00 4e 44 bd e5 1b 57 3d
       -0.04297115 -0.011759118 -0.04792595 0.052516837
0003e0 d9 bd ac bc 90 53 38 bd ed 2f fd bb 0c 20 53 bd
       -0.02108662 -0.045001566 -0.0077266605 -0.051544234
0003f0 0f 1d 07 3c 3d 85 95 bd 8a d3 9b bc ec 69 76 bd
       0.008246674 -0.07300804 -0.019021768 -0.06015961

fc4.weight f4 [3, 512]
000000 e4 af 91 bc dc 64 35 bc 86 b6 8d bc 91 0f f0 3c
       -0.017784066 -0.01107141 -0.017298948 0.029304298
000010 14 96 1b bb dd d7 8c bc 64 6e 1a bc 4f 42 8a 3c
       -0.0023740577 -0.017192775 -0.009425733 0.016877322
000020 a0 e0 01 bd 11 4a f6 bb 19 43 96 bc 6d 7d 1f 3c
       -0.03170836 -0.0075161536 -0.018342542 0.009734494
000030 a0 16 21 bc c3 77 5a bc 67 79 b7 3b 7e 58 04 3d
       -0.009832054 -0.0133342175 0.005599189 0.032310955
000040 35 cb 4b 3a ec 4b a0 3c 63 c8 a3 bb a4 da 40 bb
       0.00077741157 0.019567452 -0.004998253 -0.0029427195
000050 41 19 e1 3c 74 83 35 bc e5 cb 8b 3b e3 59 c5 3c
       0.027477862 -0.011078704 0.0042662495 0.024090713
000060 37 57 aa 3c 16 6b 07 bc df dd 4f 3d ad 0a 01 bd
       0.02079354 -0.008265277 0.050748702 -0.03150432
000070 98 d6 86 bc cd 77 4b bc e6 2e 5e 3c 45 ad 9c 3c
       -0.016459748 -0.012418699 0.013560986 0.01912559
000080 3a d2 6b bc b8 ef 9d bc c6 73 7c bc 05 6b 62 3b
       -0.014393384 -0.019279346 -0.015408462 0.0034548652
000090 49 22 72 3c 31 4a f5 3b 0d 67 ee bb 64 a7 86 3a
       0.014778682 0.007485651 -0.007275468 0.0010273275
0000a0 eb 4f 60 3c 80 6d 43 ba ee a5 c5 3a 3a ff 1b 3c
       0.013690929 -0.00074549764 0.0015079358 0.0095213
0000b0 ea 84 5e bc 0e 74 e0 3c 80 af d4 bb 99 18 d6 3b
       -0.013581494 0.02739909 -0.006490648 0.006533694
0000c0 22 cb 02 3d e0 16 16 bd a4 c8 0a bd 65 11 f3 3c
       0.031932004 -0.03664291 -0.033882752 0.02967138
0000d0 f2 06 05 3d 7a 98 3e 3c f4 55 00 3c ad d8 68 bd
       0.032477327 0.011633033 0.007832993 -0.056847263
0000e0 70 f5 e3 3c 5b 85 b4 3c 7f e0 74 bc 21 f6 d0 bc
       0.027826995 0.022036245 -0.014946102 -0.025507988
0000f0 f9 6a 4d 38 95 2c 79 bb 22 49 83 bc dd 55 c5 bc
       4.8975435e-05 -0.0038020958 -0.016026083 -0.024088794
000100 67 20 cd 3c 4c 73 65 bd 45 c9 14 bd 66 47 a8 3b
       0.025039865 -0.05601816 -0.036324758 0.0051354645
000110 d1 fe d4 bc 96 8e 27 3a 5d 32 34 3d 2f 8e 5b 3b
       -0.026000412 0.00063917914 0.043993343 0.0033501496
000120 3d 0f 02 bd 7d 8f 57 3b 91 c6 73 bb 41 d2 64 bc
       -0.031752814 0.0032891922 -0.0037197212 -0.013966144
000130 36 20 3d bd be d2 0a ba 2a b9 93 bc 52 78 25 bc
       -0.046173297 -0.0005295685 -0.018032629 -0.010099487
000140 96 bc 7f bc 95 2c b1 3a ed 3a bb bc a1 af a8 3c
       -0.015608927 0.0013517315 -0.022855246 0.020591559
000150 a4 40 b5 ba a3 f5 47 bb b3 e6 f2 bc c9 d5 dd bc
       -0.0013828469 -0.00305114 -0.029651022 -0.02707948
000160 ce fa c4 3c a5 92 6f 3c b1 2b e3 3c af d4 fc 3c
       0.024045374 0.014622365 0.027730795 0.030863134
000170 6f 3b 00 3d 1d e0 f3 3c 14 7b 11 3d ec 36 19 bd
       0.03130668 0.029769951 0.035517767 -0.037405893
000180 44 cf 8b 3a d2 04 b1 bb e7 85 e9 bc 9f 8d ea bc
       0.0010666628 -0.005402186 -0.028506232 -0.028631983
000190 2b 60 1b bb cf e9 49 3b 56 cd 41 bc 8d 32 31 bd
       -0.0023708444 0.0030809527 -0.011828741 -0.0432611
0001a0 1d 92 da bc 88 8e f0 3c dc 3f 9c 3c bb d6 fd bc
       -0.026681 0.02936484 0.01907342 -0.03098618
0001b0 72 03 06 bd 70 25 4c 3b 70 27 80 3c cf b6 05 bd
       -0.03271813 0.0031150244 0.015643805 -0.032645043
0001c0 6f b1 0e bd c5 23 c6 3a e9 83 8b 3c dc c8 89 bc
       -0.034837183 0.0015116861 0.017030673 -0.01681941
0001d0 60 65 95 3c 7c 73 b0 3c 5e 77 d0 bb eb af ac bc
       0.018236816 0.021539442 -0.006361886 -0.021079978
0001e0 f4 a8 1a bb f8 a2 06 bb d2 d3 66 3d 0b 66 87 bd
       -0.002359924 -0.0020543914 0.05635435 -0.0661126
0001f0 6d 19 be b9 6f e8 3b bd 3a eb ad bb 4c 87 04 bb
       -0.00036258568 -0.045875963 -0.005307582 -0.0020222245
000200 12 45 12 3d 41 35 75 bc e1 f5 bd bc 2e 25 3c b9
       0.0357104 -0.01496631 -0.023188533 -0.00017942928
000210 a4 fe 6c bd 7d 6f 06 3c 32 85 b4 bc 57 bb f1 3c
       -0.05786003 0.008205292 -0.022036169 0.029508276
000220 0c a8 45 bc fd dd ee bc b0 69 e2 bb 9f 1c fe bc
       -0.012063991 -0.029158587 -0.0069095716 -0.031019507
000230 c4 84 43 3d e4 31 04 3c 99 50 e4 bc eb 88 1b bd
       0.047734037 0.0080685355 -0.027870463 -0.037972372
000240 cf 56 79 bc ab 58 18 bd 68 a2 e3 bb fe 3f 2b 3c
       -0.015218451 -0.037193935 -0.0069468506 0.010452269
000250 37 fb df bc 32 0b d3 3c 1a 7c 55 3c 25 94 e9 3c
       -0.027341468 0.025762174 0.013030076 0.028513024
000260 61 ff e9 3c f2 21 8f bc d5 4e fd bc 50 06 85 3c
       0.028564157 -0.017472241 -0.03092138 0.016238362
000270 91 9f 8f 3c 75 34 6b 3b 13 29 f1 3c c0 b3 86 bc
       0.017532142 0.003588942 0.029438531 -0.016443133
000280 cf b5 b3 bc c0 3c 3d 3c 64 42 25 bc 75 1c a6 bc
       -0.021937279 0.011550128 -0.01008663 -0.020277241
000290 45 6a 43 bd 27 a6 9c 3c db 4e 8c 3b 61 87 ff bc
       -0.04770877 0.019122196 0.0042818612 -0.031192483
0002a0 b3 a6 7f bc da b9 56 3c 36 fc 1a bb a5 ac 11 3d
       -0.015603709 0.013105834 -0.0023648865 0.035565037
0002b0 e8 ee fd bc 3f 8b a4 3c 47 4b de bb a2 a6 ee bc
       -0.030997708 0.020085929 -0.006783876 -0.029132191
0002c0 d5 53 b1 3c c7 2f c7 bc 65 35 a8 3c 89 77 c6 bb
       0.02164642 -0.024314774 0.020533273 -0.00605673
0002d0 fb 3a 09 3d e5 87 45 3c 48 ea 04 3c 8f 7c 1b ba
       0.033503514 0.012056326 0.008112498 -0.00059313414
0002e0 3e 7d 6f 3c 2c a4 4a 3c 44 11 d3 bb c7 03 88 3c
       0.014617262 0.012368243 -0.006441267 0.016603364
0002f0 bc 06 79 bc 7a b5 16 3c f8 96 f6 bb 5e f0 fb bc
       -0.0151993595 0.009198541 -0.007525321 -0.030754264
000300 5e ce a5 bc aa 82 a4 3c 52 83 87 3b e0 2c 2c bd
       -0.020240005 0.020081837 0.0041355276 -0.042034984
000310 28 43 07 bc 57 e9 51 ba c2 bf 6b 3c 62 e8 e8 3b
       -0.008255757 -0.00080074876 0.01438898 0.0071077803
000320 fd df ec 3c c9 e4 8a 3b 5f 2d 1c 3c 21 30 18 3c
       0.0289154 0.004238699 0.009532302 0.009288819
000330 be 45 12 bc 4d 26 20 bc 2b 92 26 3d d3 5b 01 bd
       -0.008927761 -0.009774757 0.04066674 -0.03158171
000340 d7 6c 4c bb 4f b2 8b 3b 8f f1 59 3c 61 83 aa 3c
       -0.0031192803 0.0042631994 0.013302221 0.0208146
000350 50 16 05 3d cd 0f 11 3d 51 dc 91 ba 29 59 7c 3c
       0.032491982 0.03541546 -0.0011128281 0.015402117
000360 50 50 bc 3c 31 0a 02 3b 3d c0 b1 bc 37 f8 1e bc
       0.022987515 0.00198425 -0.021698112 -0.009702734
000370 1a 49 61 3b 4d 5c bb 3c dc 9b 28 3c a1 98 cc 3a
       0.0034375847 0.02287116 0.010291066 0.0015609452
000380 ab d3 2e 3c f3 bd 02 3c 61 53 fe 3c fb 64 51 3c
       0.010670583 0.007979858 0.031045618 0.012780423
000390 50 ff ec 3c b6 65 90 3c de 18 a0 bb 30 de a3 bc
       0.028930336 0.017626625 -0.004885777 -0.020003408
0003a0 ab b8 5c 3b 78 c3 84 bc a0 58 5d 3c 9c 89 87 3c
       0.0033679407 -0.016206488 0.013509899 0.01654511
0003b0 ac d0 9a 3b f6 0f 4d bd 3b f3 5b bd f5 63 bc bc
       0.0047245827 -0.05006405 -0.05369876 -0.022996882
0003c0 1b c8 04 3c cc a2 45 3b 8b 98 1b 3d 5d 23 df 3c
       0.0081043495 0.003015685 0.037987273 0.027238542
0003d0 8a c9 1a bc f4 8d 84 3c 98 7e f2 bb d5 64 a9 3c
       -0.009447465 0.01618097 -0.007400345 0.020677963
0003e0 b8 1c 9d bc 8a 45 bf 3c 4f ad 10 3d a2 38 bb bc
       -0.019178733 0.023348588 0.03532153 -0.022854153
0003f0 c1 6f d1 bc 24 fe 4e bd ab 74 b3 bc 28 43 ea bc
       -0.025565984 -0.050535336 -0.021906218 -0.028596476

fc4.bias f4 [3]
000000 c3 12 b6 bc bc 5a 8a bc 10 c9 65 bc
       -0.022225743 -0.016888969 -0.014024988
