data/trained_model.pth (torch, 691531 bytes, 8 tensors)

conv1.weight f4 [32, 3, 8, 8]
0	0xb9e849c5	-0.0004430545
1	0x3d491292	0.049089976
2	0xbce5dd7a	-0.02805971
3	0xbc4da40b	-0.012551318
4	0x3dbb417c	0.091433495
5	0x3db38374	0.08765307
6	0x3d92e63f	0.07172822
7	0x3cc18a37	0.023625476
8	0xbd302865	-0.043007273
9	0xbb8cb581	-0.004294098
10	0xbd7ab7eb	-0.061210554
11	0x3d62ef39	0.05540392
12	0xbc5e0ac5	-0.013552372
13	0x3d0c38b2	0.034233756
14	0xbc8ca521	-0.017168583
15	0x3c73f0b1	0.014888928
16	0xbd4c7170	-0.04991287
17	0xbb6a6a4f	-0.0035768931
18	0xbca37e73	-0.019957757
19	0xbca664d9	-0.02031176
20	0x3d1ed579	0.038777802
21	0x3d35a4ee	0.044346742
22	0xbcd0ad6e	-0.025473323
23	0x3bb188c1	0.0054179137
24	0xbc906a96	-0.01762895
25	0xbc9ab889	-0.018886821
26	0x3d8e54b3	0.06949749
27	0xbd26e5c1	-0.040746454
28	0x3d332b44	0.043742433
29	0xbd03b474	-0.032154515
30	0x3d8b70ea	0.06808646
31	0x3dacc7e4	0.084365636
32	0xbd4cb9e8	-0.04998198
33	0x3cc62f40	0.024192452
34	0x3d560d70	0.05225891
35	0x3cddf379	0.027093636
36	0xbd4eb543	-0.050465833
37	0x3c21a31f	0.009865551
38	0xbd78f5b6	-0.060781203
39	0xbd391b37	-0.04519197
40	0xbd8be8d1	-0.068315156
41	0x3cb54dcc	0.022131823
42	0x3d3de40a	0.046360053
43	0x3c426b30	0.011866376
44	0xbd89c13f	-0.06726312
45	0xbd47910c	-0.04872231
46	0x3ce73be2	0.028226797
47	0x3d40296a	0.046914496
48	0xbdcfcb4b	-0.10146197
49	0x3d09c872	0.033638425
50	0xbd58620f	-0.05282789
51	0x39d1c9ff	0.00040014085
52	0xbd59bf01	-0.05316067
53	0xbd133bee	-0.035945825
54	0xbd45b468	-0.048267752
55	0x3bd9d1ee	0.00664734
56	0x3d63da33	0.055628013
57	0xbc162f9f	-0.009166627
58	0xbc9ca6ea	-0.01912256
59	0x3d8cf493	0.06882586
60	0x3d283d30	0.041073978
61	0x3d4ea1de	0.050447337
62	0xbcedc616	-0.029025119
63	0x3d91528e	0.07095824
64	0xbd97987a	-0.074021295
65	0xbd977486	-0.07395272
66	0xbcb95a79	-0.022626149
67	0x39cf7d23	0.0003957535
68	0xbda7c827	-0.08192473
69	0x3cfa3739	0.03054391
70	0xbd395c28	-0.045253903
71	0x3c978e2a	0.018500406
72	0xbd2d76a9	-0.04234949
73	0x3d7480db	0.0596932
74	0x3d03b3b7	0.03215381
75	0xbcb7cac4	-0.022435553
76	0x3d029b0c	0.031886145
77	0x3d957f98	0.07299727
78	0xbc687761	-0.014188618
79	0xbd272c65	-0.040813822
80	0xbc9ed477	-0.01938842
81	0x3db40bdb	0.08791324
82	0x3b0e572a	0.0021719434
83	0xbd02f24a	-0.031969346
84	0xbd49e3f7	-0.04928967
85	0x3cd22d4c	0.025656365
86	0x3d45e5d5	0.048314888
87	0x3d84c968	0.06483728
88	0x3db1660e	0.086620435
89	0xbd8266d9	-0.06367273
90	0xbd00176d	-0.03127234
91	0x3d6933ec	0.056934282
92	0x3d8b1cec	0.06792626
93	0xbd01e959	-0.03171668
94	0x3d755be5	0.05990209
95	0xbd4b60a7	-0.04965272
96	0x3d5fd0ae	0.05464237
97	0x3c214613	0.009843367
98	0x3c5624eb	0.013070325
99	0xbc582c7a	-0.013194198
100	0x3d182fde	0.037155025
101	0x3d2894fa	0.0411577
102	0x3b1e8022	0.002418526
103	0xbd1d67df	-0.038429137
104	0xbd653f2a	-0.05596844
105	0x3ce314f1	0.027719947
106	0x3d102bc0	0.035197973
107	0xbbda46e5	-0.0066612833
108	0xbd397165	-0.045274157
109	0x3d2f9063	0.042862307
110	0x3d77077f	0.060309883
111	0xbcf20455	-0.029543081
112	0x3d0c293e	0.03421902
113	0x3bc82478	0.006107863
114	0x3d532910	0.051552832
115	0x3d4be31b	0.04977713
116	0xbb9313ed	-0.0044884593
117	0x3c6f36d0	0.014600471
118	0xbd53a297	-0.05166873
119	0xbd89d2bf	-0.0672965
120	0x3d2475b9	0.04015133
121	0x3d23e6b5	0.04001494
122	0xbc9cf6ef	-0.019160716
123	0xbd34cd61	-0.044141177
124	0xba71dd6a	-0.00092264137
125	0x3cf6d969	0.030132966
126	0xbbcb7710	-0.0062092617
127	0x3d54f354	0.05198987
128	0x3d961fc8	0.073302805
129	0xbc6bf5a5	-0.014401828
130	0xbbe4e7b5	-0.0069856294
131	0x3b5ed245	0.0033999842
132	0xbd42100c	-0.047378585
133	0xbcd7c961	-0.026341142
134	0xbd74cf87	-0.059768226
135	0xbd4b1616	-0.04958161
136	0x3cab07bf	0.020877717
137	0x3d58b563	0.05290736
138	0xbd7f94d1	-0.06239778
139	0x3b78a9a0	0.0037942901
140	0xbb6b4d78	-0.003590433
141	0x3a8834b9	0.0010391689
142	0x3ddba1c0	0.10724211
143	0xbd353e80	-0.044249058
144	0xbd05c9a5	-0.032663006
145	0x3c56a390	0.01310052
146	0x3d1d68df	0.03843009
147	0x3d15a2f6	0.036532365
148	0x3c19e169	0.009392121
149	0x3c58fd37	0.013243965
150	0x3dc77dc7	0.09740787
151	0xbd12ee32	-0.035871692
152	0x3d8d6e9a	0.06905861
153	0xbcaeac0b	-0.02132227
154	0xbd6f0bd7	-0.0583609
155	0xbafe8c73	-0.0019420519
156	0xbd367414	-0.044544294
157	0xbc6bf535	-0.014401724
158	0x3c76203b	0.015022333
159	0x3c162a63	0.009165379
160	0x3d6a3ac6	0.057184957
161	0xbcd7d000	-0.0263443
162	0xbd6968ce	-0.056984715
163	0xbc6aa547	-0.014321632
164	0x3d334be4	0.043773547
165	0xbd476aa5	-0.04868569
166	0x3d100892	0.035164423
167	0x393dda28	0.00018105714
168	0xbd3ae616	-0.045629583
169	0xbd4f5f0d	-0.050627757
170	0x3c9758c9	0.018474953
171	0xbd3c2f89	-0.04594377
172	0xbd31c4da	-0.043400623
173	0x3d916ae8	0.07100469
174	0xbd57e473	-0.0527081
175	0x3d330244	0.043703333
176	0x3c971c67	0.01844616
177	0xbd0ebaeb	-0.034846228
178	0xbd2530a7	-0.0403296
179	0x3c563ad2	0.013075547
180	0x3cc33d4d	0.023832941
181	0xbda97cb1	-0.08275736
182	0x3d790af9	0.06080148
183	0xbcc6ac71	-0.024252148
184	0xbd77b2f6	-0.060473405
185	0xbd6a44d0	-0.05719453
186	0x3cb444eb	0.022005519
187	0xbd7786ce	-0.060431294
188	0x3d3e8731	0.046515647
189	0xbd20febe	-0.03930544
190	0x3aeaf1ca	0.0017924842
191	0xbdbf65c9	-0.09345586
192	0xbcaed3a4	-0.021341152
193	0xbd1556d6	-0.036459766
194	0x3c8cec1f	0.017202435
195	0x3d081834	0.033226207
196	0xbbcc2b96	-0.006230782
197	0xbd0e8fd5	-0.034805138
198	0xbbd01dff	-0.006351232
199	0xbd57fd84	-0.052732006
200	0x3d6b2461	0.05740774
201	0x3d002634	0.031286433
202	0xbd2823de	-0.04104983
203	0xbc5b2d01	-0.013377429
204	0x3d4e019a	0.050294496
205	0x3d268336	0.040652476
206	0x3c54005f	0.012939542
207	0xbd0459e0	-0.032312274
208	0x3cd8c41b	0.026460698
209	0xbd3f532a	-0.04671017
210	0x3d543e23	0.05181707
211	0x3d946e7d	0.072476365
212	0xbd9ae11c	-0.075624675
213	0xbd4911d9	-0.049089286
214	0x3d2b517b	0.041825753
215	0x3c996d8b	0.018728992
216	0xbd92ca97	-0.07167547
217	0xba4b7092	-0.000776061
218	0x3c1c5045	0.009540622
219	0x3b3c9465	0.0028774973
220	0xbc9aeb72	-0.018911097
221	0x3c9ac06e	0.018890586
222	0x3c0838de	0.008314339
223	0x3d3db2ca	0.046313085
224	0xbd4e4ac9	-0.05036429
225	0xbd69cdb1	-0.05708093
226	0xbc44238d	-0.011971367
227	0x3d4be39d	0.049777616
228	0xbd780ad4	-0.0605572
229	0xbccfea36	-0.025380235
230	0xbbe5d83b	-0.007014302
231	0xbd81586e	-0.06315695
232	0x3d116ac0	0.035502195
233	0x3d828a6c	0.06374058
234	0x3d8e047f	0.06934451
235	0x3db06a93	0.086140774
236	0xbc708f4a	-0.0146826
237	0x3cf7b5a7	0.030237986
238	0x3d2b8188	0.041871578
239	0xbd01a7e7	-0.031654265
240	0x3a0a7fa0	0.00052833
241	0xbd031598	-0.032003015
242	0x3da71d9b	0.08159944
243	0x3d1583d7	0.036502685
244	0x3da8be3d	0.0823941
245	0xbd9594b1	-0.07303751
246	0x3caa4548	0.020784989
247	0x3cded30b	0.027200243
248	0xbccd62d1	-0.025071533
249	0x3d291adf	0.041285392
250	0x3c7c101a	0.015384698
251	0xbd3ee56f	-0.046605524
252	0x3c47b467	0.012189007
253	0xbd7a90b7	-0.061173167
254	0x39517787	0.0001997632
255	0x3d30c076	0.043152295

conv1.bias f4 [32]
0	0xbd2831da	-0.041063167
1	0x3d0c1f03	0.034209263
2	0xbd2ceb49	-0.042216573
3	0x3c918254	0.01776234
4	0x3d5fe30d	0.054659892
5	0x3c8a23dd	0.016862804
6	0xbc01359a	-0.007886315
7	0xbcd80239	-0.026368247
8	0xbd24077a	-0.040046193
9	0x3d38d6a7	0.045126583
10	0x3d503276	0.050829373
11	0x3d3b7b6d	0.045772005
12	0x3c8f74c7	0.017511738
13	0xbd9b7e16	-0.07592408
14	0x3da33f28	0.079710305
15	0xbca89db9	-0.02058302
16	0x3c62a3d8	0.013833009
17	0x3d146543	0.036229383
18	0x3c954b0e	0.018224265
19	0xbc52326c	-0.012829404
20	0xbc5e43cf	-0.0135659715
21	0x3d306302	0.04306317
22	0x3ccaaaf6	0.024739724
23	0xbd72f41c	-0.059314832
24	0xbd8a77dd	-0.06761143
25	0x3c88620f	0.01664832
26	0x3d1bc941	0.038033728
27	0x3ccc146d	0.024912084
28	0x3db7dde6	0.08977871
29	0x3d85d1c3	0.065341495
30	0xbd56d0f1	-0.052445356
31	0xbd8f2793	-0.0698997

conv2.weight f4 [64, 32, 4, 4]
0	0x3cce3814	0.025173225
1	0x3ae97567	0.0017811478
2	0xbcc73733	-0.024318313
3	0x3c4d6d0f	0.012538209
4	0xbbbeabd2	-0.0058188224
5	0xbbbd2a36	-0.005772854
6	0xbcc54801	-0.024082186
7	0x3c1ead1c	0.009684827
8	0xbcd0cdb4	-0.025488712
9	0x3cd0afc9	0.025474446
10	0xbd029df7	-0.03188893
11	0x3d388d03	0.045056354
12	0x3b30ccb7	0.0026977488
13	0xbb044399	-0.0020181893
14	0xbd3e9e00	-0.0465374
15	0xbcaf0349	-0.021363871
16	0xbd020ed6	-0.03175243
17	0x3d3c1d72	0.04592652
18	0xbc604c03	-0.013689998
19	0x3d27731f	0.040881272
20	0x3c9d2aac	0.019185387
21	0xbbeb4287	-0.0071795615
22	0xbd36d57d	-0.044637192
23	0x3cca8ff5	0.024726847
24	0x3b808e5d	0.003923221
25	0xbba42f1c	-0.0050104987
26	0x3cded426	0.02720077
27	0xbc993f04	-0.018706806
28	0x3c8904f1	0.016725989
29	0xbd1431d2	-0.036180325
30	0x3d058324	0.03259577
31	0x3d0d8775	0.03455301
32	0xbce70fe6	-0.028205823
33	0xbc203230	-0.009777591
34	0xbd248196	-0.040162645
35	0xbd7016c9	-0.05861548
36	0xba0b70d6	-0.0005319243
37	0xbbf75185	-0.0075475597
38	0xbd01a233	-0.031648826
39	0xbd8ca9f1	-0.06868351
40	0xbcabe6e2	-0.020984117
41	0x3c08dc5f	0.008353322
42	0xbc2e3ead	-0.01063506
43	0xbccddba9	-0.025129156
44	0xbbd0f604	-0.0063769836
45	0x3c120635	0.008912613
46	0xbcd6523f	-0.026162265
47	0xb7492279	-1.198856e-05
48	0x3bb64308	0.00556219
49	0xbc99ee2e	-0.01879033
50	0x3ce129e9	0.027485805
51	0xbc2b28aa	-0.010446707
52	0x3c5dedd6	0.013545474
53	0xbc4e59f9	-0.012594693
54	0x3d00b4ba	0.031422354
55	0xbb12270e	-0.002230111
56	0x3bb3d4e9	0.0054880274
57	0xbcc00b65	-0.023442933
58	0x3c9ec585	0.019381294
59	0xbd1eaad5	-0.038737137
60	0x3c44bf93	0.0120085655
61	0x3d054e97	0.032545652
62	0x3cf99af7	0.0304694
63	0x3ce19c9d	0.0275405
64	0xb9ebd47f	-0.00044981015
65	0x3cf3054b	0.02966561
66	0x3d351f2a	0.044219173
67	0xbc60736f	-0.0136993965
68	0xbc0e6a57	-0.008692346
69	0x3cc3e68f	0.02391365
70	0xbc80727e	-0.015679594
71	0xbd002c95	-0.031292517
72	0xbc9a5b3e	-0.018842336
73	0x3b8e57d9	0.0043439684
74	0x3d1dc1f3	0.038515043
75	0x3d447d75	0.047971208
76	0xbc171cf9	-0.009223216
77	0xbc6057c2	-0.013692798
78	0x3d138e25	0.03602423
79	0x3cc25cd6	0.023725908
80	0xbc54da5d	-0.012991515
81	0xbcce281a	-0.025165606
82	0x3cbf9958	0.02338855
83	0xbd4d0263	-0.050051104
84	0xbac28a56	-0.0014842253
85	0xbc262038	-0.0101395175
86	0x3c377415	0.01119711
87	0x3c92d34a	0.017923016
88	0x3cea9353	0.028634703
89	0x3ce9c119	0.028534459
90	0xbd43f326	-0.047839306
91	0xbc9d8960	-0.019230545
92	0xbd0e0f76	-0.034682713
93	0xbafad2f0	-0.0019136351
94	0xbc37aece	-0.01121111
95	0x3c44b9d3	0.012007195
96	0xbcc4f331	-0.024041744
97	0x3d0eaed4	0.034834698
98	0x3bd94a1a	0.006631148
99	0xbd06d5f5	-0.03291889
100	0x3d12cdd2	0.035840817
101	0xbcbb75a1	-0.022883238
102	0xbcfeb0a0	-0.03109008
103	0xbd301f2f	-0.04299849
104	0x3d280276	0.041017972
105	0x3d1c05ea	0.038091578
106	0x3ba8f552	0.0051561976
107	0x3cf354a0	0.029703438
108	0xbce46c68	-0.027883723
109	0xbcb8550c	-0.022501491
110	0x3d16f82b	0.036857765
111	0xbd3313a3	-0.0437199
112	0xbc105e9b	-0.008811618
113	0xbd1181ec	-0.035524294
114	0xbc9965a1	-0.018725218
115	0x3cc944e1	0.024568977
116	0x3ce910a8	0.028450325
117	0x3c829f08	0.015944973
118	0x3c992e1b	0.018698743
119	0xbcc70074	-0.024292208
120	0xbd0897bc	-0.03334783
121	0xbd1a6600	-0.03769493
122	0x3b966fd7	0.004590969
123	0xbc8397b9	-0.016063558
124	0xbc583093	-0.013195175
125	0xbd271415	-0.040790636
126	0x3c1b46d4	0.009477336
127	0xbc71a9b4	-0.014749933
128	0xbc97fd72	-0.01855347
129	0x3c6ce1cf	0.014458134
130	0x3b60a07f	0.003427535
131	0xbcf3b2c7	-0.029748334
132	0x3d1362c4	0.035982862
133	0x3c873f47	0.016509665
134	0xbd0d4183	-0.034486305
135	0x3c9653de	0.018350538
136	0xbb22aa0e	-0.0024820599
137	0x3c3ed228	0.011646785
138	0x3a049044	0.00050568976
139	0xbcc6408a	-0.024200696
140	0x3c2ac9c7	0.010424084
141	0xbcf76bfd	-0.03020286
142	0x3cdfc849	0.027317183
143	0x3d0907a7	0.033454563
144	0x3c9917c7	0.018688096
145	0xbb085a5f	-0.0020805818
146	0x3c8c8ad4	0.017156042
147	0xba1eca11	-0.0006057332
148	0x3d4cdd3d	0.050015677
149	0x3d14c141	0.036317114
150	0x3cf71d04	0.030165203
151	0x3cc7b69f	0.024379073
152	0x3d0a04a7	0.033695843
153	0x3d26c1c1	0.040712122
154	0x3c708d82	0.014682176
155	0x3b8f2328	0.0043682046
156	0xbc541c29	-0.012946167
157	0x3b03c71c	0.0020107692
158	0x3d23e085	0.04000904
159	0xbc6aade9	-0.01432369
160	0xba12047e	-0.00055701274
161	0xbcaea6f7	-0.02131985
162	0xb9aada8c	-0.00032587757
163	0xbcc8dad2	-0.024518404
164	0xbd0e4306	-0.034731887
165	0xbd2a19a1	-0.041528348
166	0x3b515fe1	0.0031948017
167	0x3c462965	0.01209483
168	0x3a9c191f	0.0011909342
169	0xbc0df917	-0.008665345
170	0xbc5ab038	-0.013347678
171	0x3ceec12b	0.029144844
172	0xbb19581d	-0.0023398467
173	0xbbd78908	-0.0065776147
174	0x3d00990e	0.031395964
175	0x3d2e4711	0.042548243
176	0xbd319ac8	-0.0433605
177	0x3ccca017	0.02497868
178	0xbcb8aa7f	-0.022542236
179	0xbc11dc98	-0.008902691
180	0x3d382ca8	0.044964463
181	0x3c55851c	0.013032224
182	0x3d373d72	0.044736333
183	0x3d06bdb3	0.032895755
184	0xbd25d5f9	-0.040487263
185	0xbc67faf8	-0.014158957
186	0x3d2d0416	0.042240225
187	0xbce4c69d	-0.027926737
188	0xbc7f888c	-0.01559652
189	0xbcbf434b	-0.023347517
190	0xbc9bc3c5	-0.019014249
191	0xbcc85884	-0.02445627
192	0xb981eeeb	-0.00024782805
193	0xbc69acdc	-0.014262404
194	0xbbcf2fec	-0.0063228514
195	0xbd0c4bdc	-0.034252033
196	0xbba47aa5	-0.005019503
197	0x3cabf638	0.02099143
198	0xbc00e480	-0.007866979
199	0x3cefc288	0.029267564
200	0xbd3ccb45	-0.04609229
201	0x3c86d15c	0.016457252
202	0xbcd079d5	-0.025448719
203	0x3c324a68	0.010881998
204	0x3bc76228	0.006084699
205	0xbc9619c9	-0.018322842
206	0x3b90d0b9	0.004419413
207	0x3ce17cfd	0.02752542
208	0x3be78f9a	0.007066679
209	0x3c2867aa	0.010278622
210	0x3d0bcce5	0.03413095
211	0xbcacd1b6	-0.021096092
212	0xbd100167	-0.035157587
213	0xbcf62f99	-0.030051993
214	0x3ca4fd4c	0.020140313
215	0xbd03103e	-0.03199791
216	0xbce8b5d6	-0.028407019
217	0xbd29ec43	-0.041485082
218	0x3cd9257a	0.026507128
219	0xbb85ac6f	-0.0040793936
220	0x3bac6fb4	0.0052623395
221	0xbcd73263	-0.026269143
222	0xbd078294	-0.033083513
223	0xbcf9f7bc	-0.030513637
224	0xbd21eaf2	-0.039530702
225	0x3ab2c397	0.0013638613
226	0x3cefc847	0.029270304
227	0x3cb9f112	0.02269796
228	0x3d09a514	0.033604696
229	0xbccfc58e	-0.025362756
230	0x3c51b7a0	0.012800127
231	0x3c9e522c	0.019326292
232	0xbd129fcd	-0.03579693
233	0x3ce6f79c	0.028194241
234	0x3cdba21f	0.026810704
235	0x3b92a04e	0.004474676
236	0xbc8b81c9	-0.01702966
237	0xbc37d51f	-0.011220246
238	0x3cedadf0	0.029013604
239	0x3d00214a	0.031281747
240	0xbc0088b0	-0.007845089
241	0xbc921826	-0.01783378
242	0x3c1e214e	0.009651495
243	0xbbd2061e	-0.0064094206
244	0x3d1b24c6	0.037876867
245	0xbd12aca0	-0.03580916
246	0xbb82afa3	-0.0039882227
247	0x3ce02bd5	0.02736465
248	0x3c067afe	0.008208035
249	0xbbf28f00	-0.007402301
250	0xbc8f1106	-0.017464172
251	0xbc30a4eb	-0.010781507
252	0xbd485132	-0.04890556
253	0xbce4c16f	-0.027924268
254	0xbc267246	-0.010159081
255	0x3c9cb80a	0.019130725

conv2.bias f4 [64]
0	0x3ce44eda	0.02786963
1	0xbd222737	-0.03958818
2	0xbc3dcb87	-0.011584169
3	0xbd3a73c2	-0.04552055
4	0xbcc93974	-0.024563529
5	0xbd20e85c	-0.039284095
6	0x3cadfaeb	0.021237811
7	0xbce3b35e	-0.02779549
8	0xbd0516ca	-0.032492436
9	0xbd15ea89	-0.036600623
10	0x3cad4b03	0.021153932
11	0x3c4e475d	0.0125902565
12	0x3ce4837c	0.027894728
13	0xbd05b208	-0.032640487
14	0xbd01e5fd	-0.031713475
15	0xbd46f2c9	-0.04857138
16	0xbbccb635	-0.0062473067
17	0xbd5ff0f0	-0.054673135
18	0x3ce6354e	0.02810159
19	0x3ba49bbc	0.005023448
20	0x3b6597a1	0.0035033005
21	0xbaad4982	-0.001322076
22	0xbbe4b6b2	-0.006979787
23	0xbd078888	-0.03308919
24	0xbaf5abdc	-0.0018743235
25	0xbd1d2de1	-0.03837383
26	0xbd050ee6	-0.03248491
27	0xba1e0a46	-0.00060287525
28	0xbd50e07f	-0.050995346
29	0xbd49e8cc	-0.049294278
30	0xbd023925	-0.03179278
31	0xbd76d021	-0.06025708
32	0xbcb81cba	-0.022474635
33	0xbc223232	-0.009899663
34	0xbc862c71	-0.016378613
35	0xbc726eec	-0.014796954
36	0xbcfcf0b7	-0.0308765
37	0xbc516faf	-0.012782975
38	0x3cd59fdb	0.026077202
39	0x3c9b10a8	0.01892884
40	0xbaae7f75	-0.0013313132
41	0x3c995a4c	0.018719815
42	0x3ce4872f	0.027896492
43	0xbc09b37a	-0.008404607
44	0xbce2f00a	-0.02770235
45	0xbc1abf2c	-0.009444993
46	0x3c2fc64d	0.010728431
47	0x3c981135	0.018562892
48	0xbd1523e6	-0.03641119
49	0xbd5dea98	-0.054178804
50	0x3c793f91	0.015212909
51	0xbd432ecd	-0.047652055
52	0xbd02e4d0	-0.031956494
53	0xbd21f2f1	-0.039538328
54	0xbc41e9d3	-0.011835533
55	0xbd2249a6	-0.039621018
56	0xbd4753ec	-0.04866402
57	0xbd4f48a5	-0.05060639
58	0xbc80c3e2	-0.015718404
59	0x3b90abdc	0.0044150185
60	0xbd487669	-0.04894105
61	0x3b983137	0.0046445387
62	0xbca5ddb0	-0.02024731
63	0x3c98b558	0.018641159

fc3.weight f4 [512, 256]
0	0xbd6ad809	-0.057334933
1	0xbc0cae9f	-0.008586555
2	0x3d265d3b	0.040616255
3	0x3d69536b	0.05696432
4	0x3cfd6ef6	0.0309367
5	0x3c1a62a8	0.009422936
6	0x3ca4ae6e	0.020102706
7	0xbd2cbba1	-0.042171124
8	0x3cfcc211	0.030854257
9	0x3d27ef9e	0.041
10	0x3cce53c7	0.025186433
11	0x3d78485f	0.060615893
12	0xbd26e3f0	-0.040744722
13	0x3d020472	0.03174252
14	0x3c14db0f	0.009085431
15	0xbd5b51e8	-0.05354491
16	0x3d5f8092	0.054565974
17	0x3d33e590	0.0439201
18	0x3c35148c	0.011052262
19	0xbd1196e2	-0.035544284
20	0xbd07d463	-0.033161532
21	0xbc99d412	-0.01877788
22	0x3d3c2c12	0.045940466
23	0xbd08e1d0	-0.033418477
24	0x3b7c9b8a	0.0038544857
25	0xbd592f59	-0.05302367
26	0xbd129b32	-0.035792537
27	0xbd40c4df	-0.04706275
28	0x3a2a4080	0.00064945966
29	0xbd6a4ce8	-0.05720225
30	0xbc4bddd5	-0.012443026
31	0xbd27ded5	-0.040983994
32	0x3c3f831a	0.011688972
33	0xbd55819c	-0.05212556
34	0xba9bf853	-0.0011899568
35	0xbcd93814	-0.026515998
36	0x3d023bfc	0.031795487
37	0xbc5a1d67	-0.013312674
38	0x3d39a660	0.045324683
39	0x3c8539fb	0.016262999
40	0xbd4ffbb5	-0.050777156
41	0x3d74cc5a	0.059765197
42	0x3c6b60b4	0.014366318
43	0xbcf9ebaa	-0.030507881
44	0x3d7ea4d2	0.062168904
45	0xbbbfb64d	-0.0058505894
46	0xbc8d26a0	-0.017230332
47	0x3c9fc7a5	0.019504378
48	0xbd7b018a	-0.061280765
49	0xbd426a3a	-0.047464587
50	0xbc3c3cf9	-0.011489146
51	0x3c1a81a8	0.0094303265
52	0x3beaeb7b	0.0071691847
53	0xbcadf36f	-0.021234242
54	0xbd12e023	-0.035858285
55	0xbcff2658	-0.031146213
56	0xbbe137f2	-0.0068731243
57	0xbd05b763	-0.032645594
58	0x3be05f95	0.0068473318
59	0xbbe12039	-0.0068702963
60	0xbc337380	-0.01095283
61	0xbd2f07ec	-0.042732164
62	0xbc37d7d0	-0.011220887
63	0xbc80b3e8	-0.015710786
64	0x3d2d29d6	0.042276226
65	0x3bf9b650	0.0076206103
66	0xbc8337fd	-0.016017908
67	0x3cc8e550	0.024523407
68	0x3d8194a5	0.0632718
69	0x3d250ce8	0.04029551
70	0xbce17de3	-0.027525848
71	0xbd0dfaf2	-0.03466315
72	0xbc4fb35f	-0.012677043
73	0xbd79f748	-0.06102684
74	0xbd3e434c	-0.046450898
75	0xbd27d367	-0.040973093
76	0xbc2e9998	-0.010656737
77	0xbd33a454	-0.043857887
78	0x3d7ae432	0.06125278
79	0x3d0008e6	0.031258486
80	0x3d2617d1	0.040550057
81	0xbc8f0cb2	-0.017462108
82	0x3d42f764	0.04759921
83	0xbca7f0b7	-0.020500524
84	0xbbcbcfab	-0.0062198243
85	0xbd567b40	-0.052363634
86	0xbc1e33bc	-0.009655889
87	0xbd73ec4e	-0.05955153
88	0x3a72b10b	0.0009257949
89	0x3d849791	0.064742215
90	0x3d7ea4ff	0.06216907
91	0x3d680ffd	0.056655873
92	0xbc91c2b4	-0.017793037
93	0xbaaf7702	-0.0013386908
94	0xbc5fb2b7	-0.013653449
95	0x3d58d7c5	0.05294015
96	0x3d07dce2	0.033169635
97	0x3d1b1f58	0.03787169
98	0xbca7da6d	-0.020489896
99	0xbd055c78	-0.03255889
100	0xbce8aefe	-0.028403755
101	0x3b966018	0.004589092
102	0xbd51c430	-0.05121249
103	0xbca32878	-0.019916758
104	0xbd06e044	-0.03292872
105	0x3d059a4d	0.032617856
106	0xbbb01fda	-0.0053748908
107	0x3c7dcd8f	0.0154909035
108	0xbd4306a0	-0.04761374
109	0xbd001e46	-0.03127887
110	0x3d3cef4f	0.04612666
111	0xbd39538a	-0.045245685
112	0x3bb03a32	0.005378031
113	0xbcdd27d5	-0.026996532
114	0x3c8df86f	0.017330376
115	0xbc09198c	-0.008367907
116	0x3cf9080e	0.030399349
117	0xbc9c59e7	-0.019085838
118	0x3b37f34f	0.0028068607
119	0x3c86954d	0.016428614
120	0xbd2bcda9	-0.04194418
121	0x3d1a9444	0.037739053
122	0xbaf27cb3	-0.0018500298
123	0x3caaf80d	0.020870233
124	0x3d43365d	0.047659267
125	0xbc48f165	-0.012264584
126	0xbcd2d9c8	-0.025738612
127	0xbccab51c	-0.024744563
128	0x3d69ecda	0.057110645
129	0xbd513b1a	-0.051081754
130	0xbd006f32	-0.031356044
131	0xbd62b3a4	-0.0553471
132	0xbc101a5c	-0.008795347
133	0x3c725d5d	0.014792767
134	0x3cea2dac	0.028586231
135	0x3c958a99	0.018254565
136	0xbd6ee45c	-0.05832325
137	0xbc315cd7	-0.010825357
138	0x3d1670da	0.036728717
139	0xbc9c78cd	-0.019100571
140	0xbc8fbde1	-0.017546596
141	0xbd297cb6	-0.0413787
142	0xbd268a28	-0.0406591
143	0x3ce7d11d	0.028297955
144	0x3d6e5969	0.058190737
145	0x3d7e33f6	0.062061273
146	0xbd07791f	-0.033074494
147	0x3c816da4	0.015799351
148	0xbd7bb7fe	-0.061454765
149	0x3cf604ac	0.030031525
150	0x3d535f12	0.051604338
151	0x3d26101b	0.040542703
152	0xbc925ac4	-0.017865546
153	0x3ab18240	0.0013542846
154	0xba1f3a64	-0.00060740695
155	0x3ccd3ee0	0.025054395
156	0x3d632722	0.05545724
157	0xbd13c2d0	-0.03607446
158	0xbca81d7e	-0.020521875
159	0x3ce2154f	0.027598051
160	0xbd513d82	-0.05108405
161	0x3cbf0920	0.02331978
162	0xbd47d9fb	-0.048791867
163	0xbbe135dc	-0.0068728756
164	0xbd7254fc	-0.05916308
165	0x3d1d9285	0.03846981
166	0xbcd3d568	-0.025858596
167	0x3d530890	0.051521838
168	0xbc3fc919	-0.01170566
169	0xbc8e703d	-0.017387504
170	0x3d4f7e8a	0.050657786
171	0x3b2aba5d	0.0026051023
172	0x3d71eef3	0.05906577
173	0x3d444904	0.047921196
174	0x3d7b8e46	0.06141498
175	0xbbde5a2b	-0.006785651
176	0xbd5bb5d0	-0.053640187
177	0xbd497ec8	-0.049193174
178	0xbbd34790	-0.00644774
179	0xbcd09d5b	-0.025465658
180	0x3d5f61cb	0.054536622
181	0xbc0d16c3	-0.008611384
182	0xbc886a66	-0.016652297
183	0xbcad8af0	-0.021184415
184	0xbc8f7eb9	-0.01751648
185	0xbb78bb42	-0.0037953411
186	0x3d755119	0.059891794
187	0x3a8c52f4	0.0010705874
188	0xbcb5df25	-0.02220113
189	0x3c8b555d	0.017008478
190	0xbc8d5ed9	-0.017257141
191	0x3d5222a9	0.051302586
192	0x3d1ce5bb	0.038305026
193	0x3cd8d530	0.026468843
194	0x3c7c0ab9	0.015383416
195	0xbd511cac	-0.051052734
196	0x3d0b7fba	0.034057356
197	0xbbcf5657	-0.006327431
198	0x3cc184b7	0.023622854
199	0x3d54736f	0.0518679
200	0xbd54cb6e	-0.05195182
201	0x3d069770	0.032859266
202	0x3cb2b89a	0.02181654
203	0xbd7ca3ad	-0.06167953
204	0x3c712cb6	0.014720133
205	0x3d2afabc	0.041743025
206	0x3c6a3686	0.014295226
207	0xbca27c6a	-0.019834716
208	0x3ca6e6ef	0.02037379
209	0xbba5a839	-0.005055454
210	0xbd7cbb0e	-0.061701827
211	0xbd53ce67	-0.051710512
212	0xbd070a4e	-0.03296881
213	0xbcafbb89	-0.021451728
214	0x3bcfc2f2	0.006340378
215	0x3caa7bf1	0.020811053
216	0xbd490c36	-0.04908391
217	0x3b800e4f	0.0039079557
218	0xbd259c25	-0.040432114
219	0xbbfc7e42	-0.007705481
220	0x3c9a5512	0.018839393
221	0xbab3976d	-0.0013701745
222	0x3c9f5a3d	0.019452209
223	0xbd14810f	-0.036255892
224	0x3cdac52d	0.026705349
225	0x3d6cebe8	0.057842165
226	0xbd203607	-0.039114024
227	0xbd78cb0a	-0.06074051
228	0x3d24f0c6	0.040268682
229	0x3c27276b	0.010202269
230	0x3d639f58	0.055571884
231	0xbcb7b37a	-0.022424448
232	0x3d2b8a08	0.041879684
233	0xbd1204aa	-0.03564898
234	0x3d151784	0.03639938
235	0xbd0d6d84	-0.03452827
236	0xbd506d46	-0.05088546
237	0x3d1de7da	0.03855119
238	0xbbf01b9e	-0.007327511
239	0x3d753340	0.05986333
240	0xbc2b2f8f	-0.010448351
241	0x3c936f58	0.017997429
242	0x3d5ab239	0.053392623
243	0x3d2eb0de	0.042649142
244	0x3d2c4e6e	0.042066984
245	0x3c899010	0.016792327
246	0xbcba8d5e	-0.022772487
247	0x3d424f4a	0.047438897
248	0x3bb9daff	0.0056718583
249	0xbcdeb064	-0.027183719
250	0x3d5ce902	0.05393315
251	0xbcc4c03e	-0.02401745
252	0x3cd3de11	0.025862725
253	0x3d79df38	0.061003894
254	0xbcf5cb2e	-0.03000411
255	0xbb63e39e	-0.0034773122

fc3.bias f4 [512]
0	0xbd50a4b7	-0.050938334
1	0xbd813d69	-0.06310541
2	0x3d2747c0	0.04083991
3	0xbb56e88e	-0.0032792422
4	0xbd33b83d	-0.043876875
5	0xbd5c8643	-0.05383898
6	0xbd82144d	-0.06351528
7	0x3d2b0ad7	0.041758385
8	0x3d39d7eb	0.04537193
9	0xbd497090	-0.049179614
10	0xbd46c729	-0.048529778
11	0xbd24dad2	-0.040247746
12	0xbd933116	-0.07187097
13	0xbd1cfad9	-0.038325164
14	0xbcde0d2e	-0.027105894
15	0x3d8decc9	0.06929929
16	0xbdcc2498	-0.09967917
17	0x3a6c5f1f	0.00090168597
18	0x3c4183ab	0.011811177
19	0xbd983d76	-0.07433598
20	0x3c7e9437	0.015538267
21	0x3d2c0609	0.041997943
22	0xbbf50155	-0.0074769654
23	0x3d65c1b0	0.056092918
24	0x3d75bcd3	0.05999453
25	0xbd022e19	-0.031782243
26	0xbd1d1bc9	-0.038356576
27	0xbd0748b7	-0.03302833
28	0x3bb36ac2	0.005475373
29	0x3d1037c7	0.035209443
30	0x3d8a24ab	0.06745275
31	0xbaeae9e7	-0.0017922492
32	0xbd7f9d72	-0.06240601
33	0xbdc4b44d	-0.09604702
34	0x3d52a5d6	0.051427685
35	0x3ccbd282	0.024880651
36	0xbd4da5cf	-0.050206956
37	0xbd7b2c5c	-0.0613216
38	0xbd8fe7b8	-0.07026619
39	0x3b9e7b0b	0.004836445
40	0xbd3e44fd	-0.04645251
41	0x3ca04386	0.019563448
42	0xbc4bd5e1	-0.012441129
43	0xbd878281	-0.066166885
44	0xbcecf347	-0.028924597
45	0x3cc165ad	0.023608053
46	0xbb790ac2	-0.0038000797
47	0x3c19d1e6	0.009388423
48	0xbdbcbe9d	-0.09216044
49	0x3d64fad0	0.055903256
50	0xbd97236f	-0.07379805
51	0x3d2c63bd	0.042087305
52	0xbda4e424	-0.08051327
53	0x3d7424c6	0.059605382
54	0x3cc426bd	0.023944253
55	0xbd0098b7	-0.03139564
56	0xbd96dd0a	-0.073663786
57	0x3c62acfc	0.013835188
58	0x3d620377	0.055179086
59	0xbd35daee	-0.04439824
60	0x3d59eb7a	0.053203084
61	0x39dcb62e	0.00042097404
62	0xbd2ab3e8	-0.04167548
63	0xbdc52e88	-0.09628016
64	0x3d13f16c	0.03611891
65	0x3ce14ca0	0.027502358
66	0xbd06ccee	-0.03291028
67	0xbc9587bb	-0.018253198
68	0xbd77769d	-0.060415853
69	0x3d677c2f	0.056514915
70	0xbd4d7726	-0.050162457
71	0x3db452f1	0.08804882
72	0x3d34d27a	0.04414604
73	0xbd491277	-0.049089875
74	0xbcde2669	-0.027117925
75	0x3c37558e	0.011189831
76	0x3d214c42	0.039379366
77	0xbb2a4724	-0.0025982345
78	0xbd7cb404	-0.061695114
79	0xbd85834f	-0.06519186
80	0x3d681173	0.056657266
81	0xbd5aaba4	-0.053386346
82	0x3da3c8c7	0.079972796
83	0x3d5ef5c0	0.054433584
84	0xbd21eed8	-0.03953442
85	0xbdb4a7ac	-0.08821043
86	0x3a45b367	0.00075416866
87	0x3cac20dd	0.021011764
88	0xbc971417	-0.018442197
89	0x3cd1a314	0.025590457
90	0x3db4956f	0.08817565
91	0xbd47d97c	-0.048791394
92	0xbd0e1098	-0.034683794
93	0xbda2a331	-0.079412825
94	0xbc045a22	-0.00807813
95	0xbbed7348	-0.0072464086
96	0xbd5b56d7	-0.053549614
97	0x3da43a74	0.080189615
98	0x3d7013e7	0.05861273
99	0xbb613e5b	-0.0034369442
100	0xbd24771c	-0.040152654
101	0xbc9a69ea	-0.018849332
102	0x3bf3cc1c	0.007440103
103	0x3c7b4a4a	0.015337536
104	0xbd5f1c26	-0.054470204
105	0x3c82f592	0.015986238
106	0x3d0e79d3	0.03478415
107	0xbda93a26	-0.08263044
108	0xbd326696	-0.043554865
109	0xbc09ffea	-0.008422831
110	0x3d12a31b	0.03580008
111	0x3c8e5bef	0.017377822
112	0xbd2f81d3	-0.04284842
113	0x3c1ce1b9	0.009575301
114	0x3d645eea	0.05575458
115	0x3cfe9699	0.03107767
116	0xbd5dafff	-0.05412292
117	0xbd77e53a	-0.06052134
118	0xbc75c3ea	-0.015000323
119	0xbb94803a	-0.0045318874
120	0xbc36ef83	-0.0111655025
121	0xbd96aaec	-0.073568195
122	0x3d2263c4	0.039645925
123	0x3d3ce021	0.046112183
124	0xbd33ba05	-0.043878574
125	0xbd8b9686	-0.068158194
126	0x3d82da87	0.06389337
127	0x3cec0f85	0.028815994
128	0xbd2a8e47	-0.041639592
129	0xbd8b8a5b	-0.068134986
130	0xbd85f113	-0.06540122
131	0xbd9e7115	-0.077364124
132	0xbc552a9d	-0.013010648
133	0x3cd57edf	0.026061473
134	0xbd9fea50	-0.078083634
135	0xbc83fcff	-0.016111849
136	0xbcd2ff40	-0.025756478
137	0xbd964250	-0.07336867
138	0xbdb078e1	-0.08616806
139	0xbd8b45e5	-0.06800441
140	0xbd8f56c7	-0.06998973
141	0x3b969bef	0.0045962255
142	0xbd97fa4d	-0.07420788
143	0xbd1a350b	-0.037648242
144	0xbc01e286	-0.007927543
145	0xbcbc769c	-0.023005776
146	0xbdea8049	-0.1145025
147	0xbc9aaa15	-0.01887993
148	0x3c9a3d74	0.018828131
149	0x3c6ce6fb	0.014459367
150	0xbdcc554e	-0.09977208
151	0xbd1079a1	-0.035272244
152	0x3cb15d57	0.021650953
153	0xbd91379d	-0.070906855
154	0x3da6f879	0.08152861
155	0x3db7d8fc	0.08976933
156	0x3cc64af1	0.024205657
157	0x3d4f3fe8	0.050598055
158	0x3c0776d3	0.008268076
159	0x3d54791b	0.051873308
160	0xbc92290f	-0.017841844
161	0xbd8f340e	-0.069923505
162	0xbdbc576d	-0.09196363
163	0x3d1f4977	0.03888842
164	0x3cf4634e	0.029832508
165	0x3ca3ffcd	0.020019436
166	0xbc899377	-0.01679395
167	0x3c52bcc0	0.012862384
168	0xbcee0c8e	-0.02905872
169	0xbc74356e	-0.014905317
170	0xbc993bd9	-0.018705295
171	0xbd86c359	-0.06580228
172	0xbd321415	-0.043476183
173	0xbd0d6212	-0.034517355
174	0xbca34c11	-0.019933732
175	0x3d811a55	0.063038506
176	0x3b536da7	0.0032261403
177	0x3ce1040e	0.027467754
178	0xbd2992ba	-0.041399695
179	0xbcfa6726	-0.030566763
180	0x3d5a1fdb	0.053253036
181	0x3db60d4e	0.088892564
182	0xbcec93b9	-0.028879033
183	0xbd5093fd	-0.050922383
184	0x3c841ebd	0.016127938
185	0xbd2ed60d	-0.042684603
186	0xbb08cb47	-0.0020873116
187	0xbc8679fe	-0.016415592
188	0xbc25dd0b	-0.0101235015
189	0x3c2404ed	0.01001094
190	0xbd6c189c	-0.057640657
191	0x3d84a553	0.064768456
192	0xbcf2e5ad	-0.029650534
193	0xbcee5f06	-0.029098045
194	0x3d6019e6	0.0547122
195	0x3d0f008f	0.034912642
196	0xbd933fa9	-0.071898766
197	0x3cc51afb	0.024060717
198	0x3d7235e8	0.05913344
199	0xbd33518b	-0.043778937
200	0xbd38e6a1	-0.04514182
201	0x3c8a8e07	0.016913427
202	0xbc460d4e	-0.012088133
203	0x3d07aa5c	0.03312145
204	0xbdd60433	-0.1045002
205	0x3d557824	0.05211653
206	0x3d71c4f4	0.05902572
207	0x3d378777	0.044806924
208	0x3cbcd472	0.02305052
209	0xbdc1bc11	-0.09459699
210	0x3d948427	0.072517686
211	0xbc9a206e	-0.018814292
212	0x3c97772d	0.018489445
213	0xbd9c0974	-0.076189905
214	0xbd93f599	-0.072245784
215	0x3d50d033	0.050979804
216	0xbd6202aa	-0.055178322
217	0xbba3b72b	-0.0049962006
218	0xbc4d41e9	-0.012527921
219	0xbc6f28c1	-0.014597119
220	0x3cbb1a1c	0.022839598
221	0xbca12145	-0.019669184
222	0x3d997446	0.074928805
223	0xbd3a6ca7	-0.045513775
224	0x3c8cc306	0.017182838
225	0x3d00c7df	0.031440612
226	0xbd9a66d4	-0.07539144
227	0x3d9aaddf	0.075526945
228	0xbd3fff0f	-0.046874102
229	0xbd3876be	-0.045035116
230	0xbc90dfc6	-0.017684828
231	0x3c5972d9	0.013272011
232	0x3da3981b	0.07987996
233	0xbd6b10c0	-0.05738902
234	0x3daf14cc	0.085488886
235	0x3cf1ecf2	0.02953193
236	0xbd071b0a	-0.03298477
237	0xbd862088	-0.065491736
238	0x3d3ec7fd	0.046577442
239	0xbc37b9e7	-0.011213756
240	0x3d57348b	0.052540343
241	0xbd111ec4	-0.03542973
242	0x3d803eec	0.062620014
243	0xbd938839	-0.07203717
244	0xbd5ab39a	-0.053393938
245	0xbd9f32ef	-0.07773387
246	0xbd0d6bc5	-0.034526605
247	0xbd641105	-0.055680294
248	0xbdca7d7f	-0.09887218
249	0x3c1a1ed9	0.009406769
250	0xbd61056a	-0.054936804
251	0x3d0b05f5	0.033941228
252	0x3d0c314a	0.034226693
253	0xbd7d09c4	-0.06177689
254	0xba27459e	-0.0006380918
255	0xbc76d612	-0.015065687

fc4.weight f4 [3, 512]
0	0xbd4795d1	-0.04872686
1	0xbca8c150	-0.020599991
2	0x3cad80bb	0.021179548
3	0xbcbda5b1	-0.023150297
4	0xbd205519	-0.039143655
5	0x3be46094	0.006969521
6	0xbca20cfd	-0.019781584
7	0x3cc6e1a6	0.02427752
8	0xbc0cbc04	-0.008589748
9	0xb8d53592	-0.0001016661
10	0xbc687d3f	-0.014190017
11	0xbc06ef68	-0.00823579
12	0x3c77ba47	0.015120096
13	0x3c42c72a	0.011888305
14	0x3ce388a2	0.027775113
15	0xbd196f48	-0.03745964
16	0xbb1ef722	-0.002425619
17	0xbb70a323	-0.003671833
18	0x3cefab09	0.02925636
19	0xba55d0e5	-0.0008156433
20	0x3ce9af2d	0.028525913
21	0xbcafe01f	-0.021469174
22	0xbcd85c1c	-0.026411109
23	0xbc6c1876	-0.014410129
24	0xbc39525c	-0.01131114
25	0xbc39a696	-0.011331221
26	0x3bb14de3	0.005410896
27	0x3cdad058	0.026710674
28	0xbbb3bc6c	-0.005485108
29	0xbc85b7df	-0.016323028
30	0xbcee055d	-0.029055292
31	0xbd5e174b	-0.054221433
32	0xbc74cad9	-0.014940941
33	0x3cef0177	0.029175503
34	0xbc93a36b	-0.01802226
35	0xbc96e413	-0.018419301
36	0x3cb6a71a	0.022296477
37	0xbcdf3b1d	-0.027249867
38	0x3ccb9ad7	0.024854107
39	0xbcd86f4d	-0.02642026
40	0x3d54855f	0.051885005
41	0xbbc5ac7d	-0.006032525
42	0x3d0826d6	0.03324016
43	0x3d652c4d	0.05595045
44	0xbc903bb8	-0.017606601
45	0x3c8af18a	0.016960878
46	0xbbab38c0	-0.005225271
47	0x3a866332	0.0010252951
48	0xbd434cc4	-0.04768063
49	0xbc5899dc	-0.013220277
50	0xbbd401a7	-0.0064699235
51	0x3cd43285	0.025902996
52	0xbb17cbb2	-0.0023162183
53	0xbb32170c	-0.0027174382
54	0x3cee6a3d	0.029103393
55	0x3b7a9d73	0.003824082
56	0xb9596444	-0.00020732085
57	0xbd0618fa	-0.032738663
58	0xbbee07f1	-0.0072641303
59	0xbc04979f	-0.00809279
60	0x3cd326c2	0.025775317
61	0xbbceaf5f	-0.006307527
62	0x3cdebc8a	0.027189512
63	0xbd663a62	-0.056208022
64	0xbce9c080	-0.028534174
65	0xbcc3e406	-0.023912441
66	0xba63600a	-0.0008673674
67	0x3cabcb7d	0.020971054
68	0x3a2fcf4e	0.0006706611
69	0x3907e753	0.00012960778
70	0x3cdeb685	0.027186641
71	0xbc482359	-0.012215459
72	0x3ba7821a	0.005111945
73	0x3ccc324a	0.024926323
74	0xbd38b461	-0.045093898
75	0x3a8fcb01	0.0010970534
76	0x3b455d05	0.0030115258
77	0xbce44633	-0.027865505
78	0xbb892b87	-0.004186097
79	0xbc82c648	-0.015963688
80	0x3d044d60	0.032300353
81	0x3d05841e	0.0325967
82	0x3d089fe8	0.033355623
83	0x3b229ccc	0.0024812697
84	0x3cb07d14	0.021544017
85	0x3d3a3a5a	0.045465805
86	0x3ce6813d	0.028137797
87	0xbcf729b0	-0.030171245
88	0x3d01d888	0.03170064
89	0xbc6dce08	-0.014514454
90	0x3c081f16	0.008308193
91	0xbcc10869	-0.02356358
92	0xbd3663c8	-0.044528753
93	0x3d67411a	0.05645857
94	0x3bf4e4b9	0.007473555
95	0xbcb1dfa6	-0.02171309
96	0x3cdaf337	0.026727302
97	0xbc56f99e	-0.013121037
98	0x3b9660b4	0.0045891646
99	0x3c423157	0.011852584
100	0xbaac49e8	-0.0013144584
101	0x3bd50933	0.006501341
102	0xbc276e5e	-0.010219185
103	0x3cbde85d	0.023182089
104	0xbcfb75e8	-0.03069587
105	0xbcf4173c	-0.029796235
106	0xba6c8411	-0.0009022365
107	0xbd22eaae	-0.03977459
108	0x3cebb719	0.028773831
109	0x3bc1170a	0.005892639
110	0xbb1d53fe	-0.0024006362
111	0x3ce20d34	0.027594186
112	0x3d09e937	0.033669677
113	0x3c0557e1	0.008138628
114	0x3cbfb8da	0.023403574
115	0xbb3a0106	-0.0028381958
116	0x3b973fc3	0.0046157553
117	0x3cb3d4ed	0.021952117
118	0x3ceb0cba	0.028692592
119	0x3a04edb6	0.0005070822
120	0x3c05e5e1	0.008172483
121	0x3c30b088	0.010784276
122	0xbc8a6351	-0.01689306
123	0xbcffc4ed	-0.031221831
124	0xbb067858	-0.0020518508
125	0x3c86d1ad	0.016457403
126	0xbc1a32e8	-0.009411551
127	0x3ceee574	0.029162146
128	0x3ce4b2aa	0.027917225
129	0xbbf621ae	-0.007511339
130	0x3d6fd114	0.058549
131	0xbc9d9a17	-0.019238515
132	0x3c9e9894	0.019359864
133	0xbcabf7de	-0.020992216
134	0x3cd84a14	0.02640251
135	0x3d0722b5	0.032992084
136	0xbc1900f0	-0.009338602
137	0x3c9b055d	0.018923456
138	0xbb40c8d6	-0.0029416583
139	0xbd6faa58	-0.05851206
140	0x3bb23bd7	0.0054392624
141	0xbc317c33	-0.010832834
142	0x3cba31b8	0.022728786
143	0xbb56bac9	-0.0032765141
144	0xbc477e7a	-0.01217615
145	0xbc7e1fbb	-0.015510495
146	0xbc810af4	-0.015752293
147	0xbcc95a39	-0.024579154
148	0xbc8076d7	-0.015681667
149	0x3bbc4ec7	0.0057466957
150	0x3cb9e318	0.022691295
151	0xbcbe1a34	-0.023205854
152	0x3b00e61d	0.0019668408
153	0xbc2107d5	-0.009828527
154	0xbd282722	-0.041052945
155	0x3cc3eb53	0.023915922
156	0xbd3e52e9	-0.046465788
157	0xbc4e76a4	-0.012601528
158	0xbb1a6dfc	-0.002356409
159	0x3cdd7a9c	0.027036004
160	0xbbd4c78b	-0.006493514
161	0x3d4299d7	0.047509994
162	0x3cf60e6e	0.030036177
163	0x3ce7b911	0.028286489
164	0x3bf6dc7b	0.0075336075
165	0xbc090a09	-0.008364209
166	0xbc43f09c	-0.011959221
167	0x3c88d096	0.016701024
168	0xbc79a3e2	-0.015236827
169	0xbd224e7f	-0.03962564
170	0xbcd265c9	-0.0256833
171	0xbd053ab4	-0.032526687
172	0x3ca30c8a	0.01990344
173	0x3ab01215	0.0013433123
174	0x3cc33407	0.02382852
175	0x3ceea533	0.029131508
176	0x3d63f341	0.055651907
177	0xbd1278cb	-0.03575973
178	0x3c71a9a6	0.01474992
179	0xbb040bff	-0.0020148752
180	0x3d0199a4	0.031640664
181	0x3d01c01e	0.031677358
182	0xbd039606	-0.032125495
183	0x3c15739f	0.0091218045
184	0x3d091d77	0.033475365
185	0xbcc3e4d7	-0.02391283
186	0x3c189ca4	0.00931469
187	0x3cd4ac68	0.025961116
188	0x3d1d7177	0.038438287
189	0x3b1830b2	0.0023222384
190	0xbc17d09a	-0.009266043
191	0x3cfe77c0	0.03106296
192	0x3d0d100c	0.03443913
193	0xbce470cf	-0.027885823
194	0xbca79b25	-0.02045972
195	0xbd173306	-0.036913894
196	0xbab1d593	-0.0013567678
197	0xba233815	-0.00062263134
198	0x3ca341de	0.019928869
199	0x3ce8ef26	0.028434347
200	0xbba96966	-0.005170035
201	0x3cf65292	0.03006867
202	0x3d0217a2	0.03176082
203	0xbd06c351	-0.032901112
204	0x3d143440	0.036182642
205	0x3cf5209b	0.029922774
206	0x3c42e209	0.011894711
207	0xbcaf7349	-0.021417277
208	0x3c420ffe	0.011844633
209	0xbb240006	-0.0025024428
210	0x3d1e18c4	0.038597837
211	0x3a64ba25	0.00087252475
212	0x3c8f16eb	0.017466983
213	0x3c17602a	0.009239236
214	0x3ce98428	0.0285054
215	0x3a8d5833	0.0010783732
216	0x3d1abaeb	0.037775915
217	0xbc3ae379	-0.011406773
218	0x3caae1fd	0.020859713
219	0x3c430e0d	0.011905205
220	0x3ca2c0f8	0.019867405
221	0xbcddcfcb	-0.027076622
222	0xbcdce5c4	-0.02696503
223	0x3cc36fff	0.023857115
224	0x3cd11e64	0.025527187
225	0x3d1743f8	0.036930054
226	0x3cf520cc	0.029922865
227	0xbc88b8cf	-0.016689686
228	0xbb8c68d2	-0.0042849565
229	0x3c627f1c	0.013824251
230	0x3c18f483	0.00933564
231	0x3a9ff30b	0.001220317
232	0x3b315029	0.0027055836
233	0x3c1ba02a	0.009498635
234	0x3d40e328	0.047091633
235	0xbd1003b0	-0.035159767
236	0xbb00bf5d	-0.0019645311
237	0x3cedaa94	0.029012002
238	0x3c492ba0	0.012278467
239	0x3be889c1	0.0070964997
240	0xbb56cd97	-0.003277635
241	0x3b64acbb	0.0034892994
242	0x3b5f51b4	0.0034075798
243	0xbc44c5dd	-0.012010065
244	0xbc86bc88	-0.01644732
245	0x3d037ab2	0.032099433
246	0xbca4069f	-0.020022688
247	0xbd1e458f	-0.038640555
248	0xbce8fe53	-0.028441584
249	0x3c88b1df	0.016686378
250	0xbcb474de	-0.022028383
251	0x3c421b22	0.011847289
252	0xbc70e407	-0.014702803
253	0x3c3dbe14	0.011580963
254	0x3bd51aba	0.00650343
255	0xbcfae593	-0.030627048

fc4.bias f4 [3]
0	0x3ab41e25	0.0013741894
1	0x3c09efc2	0.008418979
2	0x3c899cbd	0.016798371
