data/trained_model.pth (torch, 691531 bytes, 8 tensors)

conv1.weight f4 [32, 3, 8, 8]
00000000: d983 6b3d ed34 2c3c f50f 5a3a 2cec 433c
00000010: 06df 4fbd 11bb 763c b64c 16bc 5b0f 09bd
00000020: 7a89 53bc 44b0 b0bc d989 a2bd d7d6 51bd
00000030: 1dec 2e3d 54aa b3bc f52c eb3c 1ca9 67bc
00000040: d37a 263b d2d2 853c 00fc 4cbc 77a1 493b
00000050: ad7a 49bd 468c 1d3c 3438 61bc b906 403d
00000060: c27a 3fbc ec81 c0bc bb10 1bbc 334e 563d
00000070: be5e 87bd ba91 033d 3fd8 5abd 12ab 64bd
00000080: 2bfd 283c ab82 b0bd c05e e1ba 831e 073c
00000090: 720f a33c 32c7 633d cdde f2bc e00d e43c
000000a0: 7755 483c 6dcb aebb 2386 52bd e05b 503d
000000b0: 89a5 153d 2dd8 4e3d a97b 09bb 9190 983b
000000c0: 055e c63c 1cc3 dc39 81ee b6bc f196 7b39
000000d0: 1b5d 4fbd 3e36 e43b 157d 413a 4647 333c
000000e0: 628a a8bd 8b57 a7bd 5dc1 c93c ff08 c4bb
000000f0: de23 3abd fd57 323b bbd2 01bd c77e 47bd
00000100: ba44 30bd cd33 72bd fcf2 003d 9334 09bc
00000110: 82b9 8ebd 7f21 57bd 02e0 73bd dd04 383d
00000120: af95 b9bc d11b 213d 7ee3 0ebc 36d9 eb3b
00000130: 0c39 e63c 91ba 033d 5c7f dd3c 8a85 6c3d
00000140: ea88 26bc 404a acbb e09c 0e3c d4ef 86bd
00000150: ed93 613b 07db 7cbc 9471 5fbd dda0 52bc
00000160: d7fb ca3c e5d4 4abb ca21 ca3a 82de 0d3d
00000170: fa73 193d 96c2 54bd 23f2 b1bd 1746 7bbd
00000180: 3e35 93bd 8116 5e3d a71d 6cbb 921e 213d
00000190: d4c5 1c3c 151a 12bd 0079 583d deb7 31bd
000001a0: cc53 a0bc a394 063d 524d 31bd 1df2 773d
000001b0: 3cf9 ae3c 6bec 4c3c 4c96 a3bd 341a 46bd
000001c0: 91d3 69bd 8215 39bd 6cef 9ebd 5f4b 03bd
000001d0: 2d7d 39bc 2ead c0bc 0bd8 553d 086f d7bc
000001e0: 94ad 6a3c bef8 083d 5685 833b bde1 5dbd
000001f0: 8231 e03c 75c3 5dbd e965 6a3d 79f6 33bd
00000200: 151a d93c 8c6b 4b3c fe52 4bbd 3c7b 9b3c
00000210: 20bd 863c 4690 50bd c861 b33c fbdc ab3d
00000220: e376 ccbc a424 153c 270e 6a3d 1030 3d3d
00000230: a045 33bd b106 24bc 9351 81bc f039 923d
00000240: 49d0 02bd 546d 34bc fe4c 10bd b115 9ebd
00000250: 5db2 a03c 0358 bebb c40f e0bd 6ff3 a23b
00000260: 771d 9cbc a8ff bd3c 455a 18bc 54f0 24b9
00000270: 8118 98bd b8a3 2e3c 60fc 2b3d e5a3 643d
00000280: c19a 6dbd 41f4 293c 253b b93b 2a1a e0ba
00000290: 0714 d23c 9818 623b bce9 6d3d 029f 363c
000002a0: 949f 75bc 834c 2fbc b4e9 b63c e3f1 05bd
000002b0: ed0e a3bd 97b5 9fbd ab9a 06bd 1891 ff3c
000002c0: 1745 6cbd 6b34 81bc b41a 7d3d e41c 00bd
000002d0: e44b 903b 851f 193d 8c72 c4bc d3dc 0ebc
000002e0: 014f 2ebc 3d6e 4cbd 1e7a 00bd 2eee 443d
000002f0: f94b 95bc 3de2 393a a4c0 1ebd a370 3ebd
00000300: 672e b83b 8e88 e93c 6e9b 6ebd f21c 27bd
00000310: f4be 4c3d 6751 143d 1541 2fbd bd54 ee3c
00000320: d361 a53c 5aee 13bd 536e 39bd 13a7 463c
00000330: 9c74 0fbd 28dd 8cbd eb8b 37bc 1006 c6bd
00000340: dd35 b7bd d8e2 2ebd 43cc fd3c b0d0 4c3d
00000350: 79ff cd3c 502f 29bc dd64 663d 6fbb c8bd
00000360: 374b 56bd d196 95bd b355 0c3d b74f c2bc
00000370: cd2f ad3c 8bbf f939 37cb 8d3b 7cf2 0e3d
00000380: 3114 96bd ff62 343c c561 4c3d 8f4f 123d
00000390: 8156 cbbc 60c6 a83c 8dcb 433d 3d82 a1bd
000003a0: c636 c2bd d866 123d 737e 95bd 38be 1abc
000003b0: 44aa a4bd c7f3 88bc ff70 143d 5897 803c
000003c0: 2ced 24bd 0824 20bc 8b8f cc3b 0bfe d83c
000003d0: 7a7f 563c cdc7 53bd f67b 92bd b0a3 6ebd
000003e0: 87b2 3d3d 8a62 ca3b aab4 1bbd 7541 683d
000003f0: 33e9 93bd 261b f43c 5012 223d ccef cbbc
0.057498787 0.010510665 0.0008318418 0.011958163 -0.0507498 0.015059249 -0.009173563 -0.03346191
-0.012911195 -0.021568425 -0.079364486 -0.051230278 0.042705644 -0.021931805 0.02870796 -0.01413944
0.0025402799 0.016335879 -0.012511253 0.0030766407 -0.04918926 0.009615963 -0.01374631 0.04688141
-0.011686983 -0.023499452 -0.009464438 0.05232067 -0.066098675 0.032121398 -0.053428885 -0.055827208
0.010314266 -0.08618673 -0.0017194375 0.008247021 0.019904826 0.05560989 -0.029647255 0.027838647
0.012227408 -0.005334309 -0.051397454 0.05086887 0.03653482 0.05049913 -0.0020978248 0.0046559055
0.024214754 0.00042107038 -0.022330524 0.00023993455 -0.0506259 0.006964474 0.00073810044 0.010942286
-0.082295194 -0.08170994 0.024628336 -0.0059825177 -0.045444362 0.002721309 -0.03169511 -0.04870489
-0.043034293 -0.059131432 0.031481728 -0.008374351 -0.069689766 -0.05252218 -0.059539802 0.044926513
-0.022654383 0.03933317 -0.008721231 0.0071975244 0.028103374 0.032160345 0.027038269 0.05774454
-0.010164479 -0.0052578747 0.008704394 -0.06588712 0.0034420446 -0.01543308 -0.054551676 -0.012855736
0.02477829 -0.003094965 0.0015421447 0.034636028 0.03746412 -0.051943384 -0.08688762 -0.06134614
-0.071878895 0.05422068 -0.0036028416 0.039335795 0.00956865 -0.035669405 0.05284977 -0.04338824
-0.019571207 0.032856595 -0.04328663 0.06053363 0.021359079 0.012507538 -0.07987651 -0.048364833
-0.05708653 -0.045186527 -0.0776051 -0.0320543 -0.011321348 -0.023520079 0.052207988 -0.026298061
0.014323611 0.033440344 0.0040136976 -0.05417036 0.027367357 -0.05414148 0.057226095 -0.043936227
0.026501695 0.012415778 -0.049639694 0.018979661 0.016447604 -0.05091884 0.021897212 0.08391758
-0.024959033 0.009102974 0.057142403 0.046188414 -0.04376757 -0.010011361 -0.015785968 0.07139957
-0.031936917 -0.011012394 -0.035229675 -0.07718981 0.0196163 -0.0058088317 -0.10940507 0.004972867
-0.019057019 0.023193195 -0.009298866 -0.00015729788 -0.07426549 0.010659151 0.04198873 0.055820365
-0.058008913 0.010373176 0.0056528025 -0.0017097641 0.025644315 0.0034499522 0.058084235 0.011146309
-0.01499166 -0.010699394 0.022328235 -0.032701384 -0.07961831 -0.077983074 -0.032862347 0.031197116
-0.057683077 -0.015772065 0.061793044 -0.031277552 0.004403578 0.037383575 -0.023980401 -0.008719641
-0.010638953 -0.04990982 -0.03136646 0.04807871 -0.018224703 0.0007090902 -0.038757935 -0.046494137
0.005620766 0.028507497 -0.058253698 -0.04079909 0.049986795 0.036210444 -0.042786676 0.02909314
0.020188248 -0.03611598 -0.04527123 0.012124795 -0.035023317 -0.0687812 -0.011202793 -0.09669125
-0.089458205 -0.042696804 0.030981189 0.050003707 0.025146233 -0.010326222 0.056248534 -0.09801375
-0.052317824 -0.073041566 0.034261417 -0.023719652 0.021140957 0.00047635692 0.0043272036 0.03489922
-0.0732807 0.011009931 0.049897928 0.035720404 -0.024821522 0.020602405 0.047801543 -0.07886169
-0.094831035 0.03574261 -0.07299509 -0.009444766 -0.08040288 -0.016717805 0.036240574 0.015697166
-0.040265247 -0.0097742155 0.0062426976 0.026488325 0.013091916 -0.051704217 -0.0715255 -0.058261573
0.046312835 0.0061762976 -0.03801409 0.05670305 -0.072222136 0.029798102 0.039568245 -0.024894617

conv1.bias f4 [32]
00000000: d6e9 783d a9a1 6fbd 05a4 31bc b439 9fbd
00000010: 6d65 99bd 4d7b 973d caf2 143e 87ee 83bd
00000020: 53fe 96bd 6b1b b43d 81c9 d73b e9c2 cc3d
00000030: 0ddb 97bd 776f cb3d 88d4 923d 6886 dd3d
00000040: 5199 cfbc 60d8 00bd 0a52 87bd 274c ee3d
00000050: 827d a33d 5d4c 693d a3d4 19bd 664a 98bd
00000060: 3a3b 95bd 3c00 763d e07d 823b b183 bc3b
00000070: df8d 173d 4cf8 1dbd 3352 a3bd f1dc e43b
0.06076988 -0.05850378 -0.010842328 -0.07774678 -0.074900486 0.07396565 0.14545742 -0.0644198
-0.07372727 0.08794292 0.0065853004 0.09998114 -0.074148275 0.099333696 0.07169443 0.108166516
-0.025341662 -0.03145635 -0.066074446 0.11635619 0.07982923 0.05695759 -0.0375563 -0.074360654
-0.07286687 0.060058817 0.0039822906 0.0057530035 0.037000533 -0.038566872 -0.07974663 0.006984346

conv2.weight f4 [64, 32, 4, 4]
00000000: 8431 ed3a ba98 e7bc 951f a4bc 9f2f 12bc
00000010: 9bb2 88bc 0663 f83c 32ea 8abb 29cb 47bd
00000020: e34a 86bc 0f88 0f3d df2e 7f3c 880b c93c
00000030: aeaa 4ebc ce3c 20bc eab5 1dbd d0d3 0fbd
00000040: 157b 133d dec6 983b b3ae 89bc 24e0 8a3c
00000050: 174d 8ebc 4c26 00bd a04d 2bbd 5b2e 1dbd
00000060: 2fa1 a13b 5375 30bc dcf9 3e3b e9ae 153b
00000070: 7f0a ec3c b83c 6abb 9a3a a7bc 1a7f e03c
00000080: e30c 173d a3aa 873b 3596 95bd 2b39 a73b
00000090: 1b45 41bc a160 27bd f6ce fe3c ec50 d23b
000000a0: 44e7 a2bd 400f 21bc 148b 4f3d 9c8b dc3c
000000b0: 20f9 82bd 0831 c03d 6033 723d 0dc4 35bd
000000c0: 0fb2 273d 0612 ac3c c610 323b 1214 fe3c
000000d0: c9ea f13c 18bc d13a baf5 493c 45e0 b0bc
000000e0: cee7 e0bc c0d3 843b ff80 693c 35f2 5ebb
000000f0: 7baf fbbb 522f 8b3c f172 003a f7b8 233d
00000100: d8f3 24bd b96f 463d 13d6 2f3c aad7 2abd
00000110: e802 c43b d724 233c 1219 e0bc 0b53 753c
00000120: 16df 873b 929a b63c 97c1 cebc 1d02 aa3c
00000130: bab0 623c aa98 e83a e143 063d f292 dcbb
00000140: 33ff 8f3d 9fb5 2bbc 55b5 f2bd 39ea 323b
00000150: 9df8 a3bd 5963 cabd d2d9 3cbd ac38 8dbd
00000160: bd51 c93c 6130 a1bc 2bf7 f8bc ac9b 543c
00000170: 48ba acbc 6f6f 55bd 27e1 8cbd 4a8d 913c
00000180: 36a2 16bb 0b4f 32bd b849 46bd 3a85 0ebd
00000190: 4ea2 b13c 1930 dfb9 77d4 b6bb 9698 463c
000001a0: b47b dd3b 8951 b43c 9e2f 0d3d 4e37 b1bc
000001b0: 6e50 1dba 8adf 30bc 891f 31bd 4c7a a1bc
000001c0: 765a a3bc 51d1 19bb bb91 713b 9cb7 733c
000001d0: dbae 2abd 54d7 24bd 3dea 1dbc b938 65bc
000001e0: 1194 8dbd db32 61bd ba82 1e3b 67a7 0d3c
000001f0: b08d 3e3a c344 a7bd 0322 ddbc 1c41 8cbd
00000200: 1574 27bd 9962 3e3c 05d6 0a3d 7810 1f3d
00000210: 2460 9dbc cfa1 b7bc 6a6e 75bd 0fb8 8c3c
00000220: 159c 39bd 9cb9 7abc 330f d5bc 3056 183d
00000230: 28ce dd3b 102d 033b 0573 803c ccc5 1bbc
00000240: f1a8 1bbb 3a3e e13c d6f0 f43c f742 09bc
00000250: 1423 49bd 6dad 3abd 6748 b1bc c07f fc3c
00000260: e1aa bdb9 5b01 23ba 1bca 1ebd aaae 0c3d
00000270: 1fa5 fcbc 41fd 0f3d 0452 1d3b f1f9 8b3c
00000280: c773 af3c ba1f ddbc 056a cc3c 5e5c c03c
00000290: 8ab8 efbc a792 953c 7753 29bd 3bd5 9ebc
000002a0: b7b1 993c dc73 debb bd63 33bc 68c4 fa3c
000002b0: 18e2 b4bc 56c4 3bbd 0fb5 0fbc 4712 00bd
000002c0: 2ece 00bd 83fb 8c3c 3823 08bc 0b4a 3abd
000002d0: 9f08 cebc cd8b 1538 e1f8 65bc 8084 103c
000002e0: 8cea 0cb9 76c0 a13c 813b cbbc c168 033c
000002f0: 21a3 3fbd aa39 b7bc e189 eebc 185c dcbc
00000300: 7767 62bc 0c2b a2bc 3180 d8bc 98f8 2d3c
00000310: 3d89 19bd b1d0 ab3a 6c21 73bc 3ac3 85bc
00000320: 3023 513c 98f5 51bc ca25 303d 17d3 b1bb
00000330: b536 e03c 309e 01bd 36f6 1e3d c330 29bd
00000340: d9fe 41bd 13cf 193d 7cf0 00bd 7038 2b3d
00000350: ec6b 863b 79ae c03c 6810 d93c 3520 45bd
00000360: 85ba 37bd de28 92bb 4710 d23c 530c efbb
00000370: 1faf 42bd a0a4 5fbd 39fa c5bc 87a1 2ebd
00000380: ee22 a83c 27b4 d4bc 56a4 743a 4928 f83c
00000390: ca9e f2bc 2ea7 0abd 6494 d83c bcb8 103d
000003a0: 93ad 8b3c f651 5ebd a8b9 183c 3d00 bb3c
000003b0: 3c92 e8bc c182 adbc bced 85bc c0eb d0bc
000003c0: ffcb 5ebc 2f33 32bc 38b4 1a3c 4b31 adbc
000003d0: e19d 613c 9118 2bbd 6e5c 2abb 3802 88bb
000003e0: 43c7 77bb a778 0cbd c5e0 e63b 104b 48bc
000003f0: 340c eaba 2ac0 10bd 68f4 46bd f19d 123c
0.0018096422 -0.028271068 -0.02003459 -0.008922487 -0.016686728 0.030320656 -0.004239344 -0.048777733
-0.01639313 0.035041865 0.01557514 0.024541631 -0.012613935 -0.009780122 -0.038503565 -0.03511411
0.036006052 0.0046623787 -0.016806936 0.016952582 -0.017370744 -0.031286523 -0.041822076 -0.038374286
0.0049325447 -0.01077016 0.0029140627 0.002283985 0.028813599 -0.0035741758 -0.020413686 0.027404357
0.036877524 0.0041402145 -0.0730404 0.0051032505 -0.011796261 -0.040863637 0.031104546 0.006418338
-0.07954267 -0.009830296 0.050669745 0.02692204 -0.06395173 0.09384352 0.059131026 -0.04437642
0.040941294 0.021004688 0.0027170642 0.03101543 0.0295309 0.0016001491 0.012326652 -0.021591315
-0.027454283 0.004053563 0.0142519465 -0.0034018878 -0.007680831 0.016990338 0.000489994 0.039971318
-0.04027161 0.04844639 0.010732192 -0.04170958 0.0059817918 0.009957514 -0.027355704 0.014973412
0.004146467 0.022290502 -0.025238795 0.02075296 0.01383608 0.0017745693 0.032779578 -0.0067313844
0.07031097 -0.010480314 -0.118509926 0.0027300252 -0.080064036 -0.0988223 -0.046106167 -0.06895575
0.024575109 -0.01967639 -0.030391296 0.012976568 -0.02108492 -0.052108224 -0.06878882 0.017767567
-0.002298487 -0.043532412 -0.048410147 -0.034795024 0.021683838 -0.0004256971 -0.005579527 0.01212134
0.0067591313 0.022011535 0.03446924 -0.021632817 -0.00060010597 -0.010795483 -0.043242965 -0.019711636
-0.019940596 -0.002347071 0.0036860544 0.014875319 -0.04167066 -0.040244415 -0.009638366 -0.0139905745
-0.06913007 -0.05498014 0.0024186806 0.008645869 0.0007269038 -0.08167412 -0.026993757 -0.06848356
-0.04088219 0.011620187 0.03389551 0.038834065 -0.019210882 -0.022416024 -0.059919752 0.01717761
-0.045314867 -0.015303042 -0.026008224 0.03719157 0.0067689605 0.0020015873 0.015679846 -0.009507608
-0.002375182 0.027495492 0.029899996 -0.008377782 -0.04910572 -0.045575548 -0.02164097 0.030822635
-0.00036176204 -0.00062181585 -0.03876696 0.03434626 -0.030840455 0.03515363 0.0024005184 0.017086955
0.021417512 -0.026992667 0.024952898 0.023481544 -0.0292628 0.018258406 -0.041339364 -0.019388786
0.018761499 -0.006788714 -0.010949072 0.030611232 -0.022080466 -0.045841537 -0.008771195 -0.03126743
-0.03144663 0.017209774 -0.008309178 -0.04548077 -0.025150595 3.5654568e-05 -0.014036388 0.008820653
-0.00013438816 0.019745093 -0.024808647 0.008020581 -0.04678643 -0.022366364 -0.02911848 -0.026899382
-0.013818613 -0.019795917 -0.026428314 0.010618351 -0.037484396 0.001310846 -0.014839511 -0.016328443
0.012764737 -0.012814902 0.04300479 -0.005426775 0.027369836 -0.031645 0.038809024 -0.04130627
-0.047362182 0.037550997 -0.031479344 0.04180187 0.0041022208 0.023520695 0.02649708 -0.04812642
-0.044855613 -0.004460438 0.025642527 -0.0072951703 -0.04753029 -0.054600358 -0.024167167 -0.042634513
0.020524468 -0.02596481 0.00093323493 0.030292647 -0.029616732 -0.03385084 0.026437946 0.035332426
0.01705054 -0.054277383 0.009321608 0.022827262 -0.028390042 -0.021180512 -0.016348712 -0.02550304
-0.013598441 -0.010876461 0.009442382 -0.021141669 0.013770551 -0.041771475 -0.0025995034 -0.004150655
-0.0037807978 -0.03429475 0.0070458376 -0.012224928 -0.001785642 -0.035339512 -0.048572928 0.008948789

conv2.bias f4 [64]
00000000: e803 cebc c2e5 06bd 5f78 d33b 7923 703d
00000010: c971 8abc c60f 47bd ed73 8cbd 5251 68bd
00000020: 6cb4 58bd c022 a0bc ca6e 5fbd 03ad c03b
00000030: aa9f 9abd e27e 96bd 2ad5 a6bd c995 2ebd
00000040: 1952 06bd d608 96bd 73e1 bbbc 804d 0f3d
00000050: f723 373b acad bdbd a0e0 be3c 289c 02be
00000060: 6ed5 e93b 6bba cebd f6b2 0cbe a0b9 95bd
00000070: 8e70 1abe bf5d 8d3c dd5a 85bd 0605 20be
00000080: 87b9 0cbe 7e4d f9bd 6497 f2bd 5350 adbd
00000090: 20f0 83ba c9d8 d0bd f4eb e3bd 19d3 16bd
000000a0: a960 e2bd 1721 a2bc d937 9abc d9ff 37bd
000000b0: 5b60 19be 6a62 dfbd b201 29bd 080d cabd
000000c0: 8db0 f2bd cd57 f2bd 6dc6 02be 70de a7bd
000000d0: d870 19be c98e 71bc a1b6 90bd d2de 29bd
000000e0: 0fae f13a cc13 b3bd 032a 4abd 2904 e2bd
000000f0: 564a a13c 0924 6abb ffb8 a6bd f044 ebbc
-0.025148347 -0.032933958 0.0064535583 0.05862758 -0.01689996 -0.048599027 -0.068580486 -0.056718178
-0.05290644 -0.01954782 -0.054549016 0.0058799996 -0.07549985 -0.0734842 -0.081461266 -0.042623315
-0.03279314 -0.07325904 -0.022934651 0.03498602 0.002794502 -0.09261641 0.023300469 -0.12754881
0.0071360385 -0.1009415 -0.13740143 -0.07310796 -0.15081999 0.017256616 -0.065114714 -0.15626916
-0.13742648 -0.121729836 -0.11845282 -0.08462586 -0.001006607 -0.101975985 -0.11128989 -0.036822412
-0.11053593 -0.01979117 -0.018825458 -0.04492173 -0.14978163 -0.10907443 -0.041261382 -0.09865767
-0.11850081 -0.11833153 -0.12771006 -0.081967235 -0.14984453 -0.014743515 -0.07066084 -0.041472264
0.0018438714 -0.0874401 -0.04935647 -0.1103595 0.019688766 -0.0035727045 -0.08140754 -0.028719395

fc3.weight f4 [512, 256]
00000000: 12de 483c 9094 a63d a485 e3bd 6ddc bdba
00000010: c2a7 a7bd 5420 3c3d 68b4 273c 67bd bc3b
00000020: e85f f33c f746 1ebd b1e2 8ebb 5e4d cf3c
00000030: 205a 913b 3358 ab3c f557 dc3c 35bd 913d
00000040: 08b6 e13c 9db1 c73c 0cc8 113d 61b8 013d
00000050: d818 6b3d a10d b6bd 2870 6dbd 7547 f23c
00000060: 9d5d 9a3c 7fd9 f5bc 98f5 573c 700a 46bd
00000070: 3821 68b9 ebc4 c1bc 81de 2abd 9270 fbbc
00000080: 5765 10bd 13a5 0ebe 48fb dbbc d8a4 423b
00000090: 068b e1bc e7ff b3bc a2ea 9cbd b96d b9ba
000000a0: 930c b5bc 195d bc3c 9f60 c8bc 962a ecbd
000000b0: 48db 91bd d002 08bd 95e7 a93b 22a3 f8bc
000000c0: 675b fa3c b732 52bc c31c 54bd 6a13 66bd
000000d0: 7786 16bd 8361 93bc 0889 e4bd 2f30 653c
000000e0: 22e7 783c e5cd 22bd 013c 96bd 3ad6 8bbd
000000f0: d9e8 623d d489 eebc 70ce 31bd f83b 413d
00000100: 085a b0bd 7b4d 88bc 58e0 243c 5ea4 15bc
00000110: 48e5 a13c ec57 32bc e424 b9bd 6448 30be
00000120: e5d8 adbd d9f0 8bbd 40fe 2d3d b9ed 063d
00000130: 0dbe 8c3d cb49 563d 14f4 8abd 7745 623d
00000140: 250b 573d 723b 07bd 03a3 8f3c 636b a73c
00000150: 9d22 2f3d cb66 03bd cddb a2bc 7f0a 51bb
00000160: 3015 9c3d a9d3 013c 8dc1 cf3c 3d2f 18bc
00000170: b5aa 6abd c8ec d23c bce8 383c 371b 9abd
00000180: b24f 5e3d fabc c93d 680a 14bd 88c8 013d
00000190: 8086 a8bc a04b 863c ac3f c8bc dfc9 6b3a
000001a0: bfb3 eebc 2b36 e8bd 9a2a 24bc e5f0 fdbc
000001b0: 7118 623d 68f3 ee3b 4be2 483d 0858 d53c
000001c0: 29e0 9fbd 0e70 b33c ae91 a43c 9831 0abd
000001d0: c55a d0bc c8c8 98bd c1fe 6abd fcf6 1cbd
000001e0: 03ff 33bc 05be d2bd d80a 0e3a c3a9 69bd
000001f0: d433 393d 9c2f 3bbc 6c8c 60bb c035 023d
00000200: 223f e63c 49d0 12ba 6c29 aebd 8a35 06bd
00000210: 276f 1bbd 0f41 a63b 931c 8b3d b394 38bd
00000220: c712 2abd e807 883c f0af 93bd ffb6 67bd
00000230: 03e2 943d eb0e bb3d 5d95 b8bd 50c2 47bd
00000240: c75b 2fbd 1035 f9bc 275a 0bbb 5bd0 323b
00000250: 09dd 63bd abda 34bd 4a1a 4bbd e2dc 07bb
00000260: b5b0 143d 1f30 d1bc 3bf5 b03c ad3f 2b3d
00000270: 47ff e8bc e661 b6bc a4d4 05bd 80da 5abb
00000280: e58d 89bd 2188 a1bd 31ad 5dbc a80d 803a
00000290: 60f0 01bd 3e55 f8bc 8b84 d53c b6ed 8dbc
000002a0: 8317 733d 3b1a a33c 0211 88bd a7f7 80bb
000002b0: 5433 4f3d 3a7f b7bc bc4d 95bd 78af 98bd
000002c0: 4a17 1dbd 14b5 ecbc 1e2a a2bd f9ab 023d
000002d0: f28a bdbc 5f3a 303d 0a66 3dbd 2221 80bd
000002e0: 53df a8bd 24db 83bd 4e21 9e3c 6c01 1cbc
000002f0: aacb 1c3d a981 a9bd a1ba 9ebd ee4d 573c
00000300: e18c 53bd d36d 97bc 1301 94bd f91a 1d3c
00000310: 9e80 ce3a aa56 69bd fa67 45bd 196c 9bbd
00000320: d0b7 40bd 50d1 4c3b 45c8 cd3c eeb6 61bd
00000330: ffb0 76bd 8916 40bd 8c6d 94bd 1da6 993b
00000340: 65fa 4bbc d5bd 33bc 88dc dbbc ed3a 1abd
00000350: 3c2d bc3c d2ea 843c ea1d 103d b084 1a3d
00000360: 1c64 b93c 708f 7c3c 0020 90bd cfc8 abbc
00000370: 0d22 08bd ac18 e83b 1b32 55bd 36a8 833b
00000380: c45c ccbc 0066 063d 857e 1f3d 2835 9fbc
00000390: ccce 7c3d a3b2 18bb 4ea2 a23d b9e0 323d
000003a0: e98a e43c e02c a5bc a4a6 5c3c ec04 293d
000003b0: 6a22 7dbd eb8f 69bc bf82 1abd 8a0b e03b
000003c0: 1a5d 8bbd 39ca 223c c6bc acbd ecb6 87bd
000003d0: 41cd 8f3d b205 91bc 27d8 67bc d7ac 463d
000003e0: 7b81 7abc d1c0 9cbd 5056 bdbd e006 23bd
000003f0: 50d5 a43c 4a2d 803c 509e d8bc 30fd 8b3c
0.012259977 0.08133805 -0.11109474 -0.0014485248 -0.08186294 0.045929268 0.010235883 0.005759883
0.029708818 -0.038641896 -0.00436052 0.025305446 0.0044357926 0.02091608 0.02689741 0.071161665
0.02755262 0.024376685 0.03559117 0.031669978 0.05739674 -0.08889318 -0.05796829 0.029575089
0.018843466 -0.030010937 0.013181113 -0.048349798 -0.00022137619 -0.023653468 -0.041716103 -0.030693326
-0.035252895 -0.13930158 -0.026853219 0.0029700305 -0.027532112 -0.02197261 -0.0766194 -0.001414708
-0.022100722 0.022993611 -0.024460135 -0.1153156 -0.07121903 -0.033205807 0.0051850774 -0.030351225
0.030561162 -0.012829474 -0.05178524 -0.05617086 -0.03674933 -0.017990833 -0.11158949 0.013988539
0.015191825 -0.039747138 -0.073356636 -0.0682797 0.055397842 -0.029118456 -0.043409765 0.04717633
-0.08610922 -0.016638508 0.010063253 -0.0091334265 0.01976265 -0.01088522 -0.090402395 -0.17215115
-0.08488635 -0.068330474 0.0424788 0.032941554 0.06872187 0.05231647 -0.067848355 0.055242028
0.052500863 -0.033015676 0.017533785 0.020436948 0.04275762 -0.032080453 -0.0198802 -0.0031897125
0.07621229 0.007923999 0.025360847 -0.009288606 -0.057291705 0.025747672 0.011285957 -0.07524722
0.054275222 0.098504975 -0.036142737 0.031685382 -0.020571947 0.016393483 -0.024444424 0.000899462
-0.029138444 -0.11338457 -0.010019923 -0.030998657 0.05519909 0.0072922 0.049043935 0.026042953
-0.07806427 0.021904018 0.020088997 -0.033738703 -0.025433907 -0.07460171 -0.05737186 -0.03832148
-0.0109860925 -0.102901496 0.0005418486 -0.057046663 0.045215443 -0.011424925 -0.0034263385 0.03178954
0.028106276 -0.0005600495 -0.08503994 -0.032765903 -0.0379478 0.0050736736 0.067925595 -0.045063686
-0.041521814 0.016605332 -0.07211292 -0.056571003 0.07269671 0.09133705 -0.09012864 -0.048769295
-0.042812135 -0.03042081 -0.0021263452 0.0027284834 -0.055630717 -0.04415385 -0.049585618 -0.0020731022
0.036301333 -0.025535641 0.02160131 0.041808773 -0.028442038 -0.022263478 -0.032673493 -0.0033394396
-0.06716517 -0.07887293 -0.013530062 0.0009769695 -0.03172338 -0.030314084 0.026064178 -0.017325263
0.059348594 0.019909969 -0.06643869 -0.0039357725 0.05058606 -0.022399534 -0.07290217 -0.07455343
-0.03835229 -0.028894939 -0.079181895 0.031902287 -0.023137543 0.043024417 -0.04623989 -0.062563196
-0.08245721 -0.06438282 0.01930299 -0.009521823 0.038280167 -0.08276684 -0.077504404 0.0131411385
-0.051648024 -0.018484985 -0.072267674 0.00958895 0.0015754884 -0.056967415 -0.048194863 -0.07588977
-0.047050297 0.003125269 0.02511991 -0.055106096 -0.06022739 -0.04689649 -0.07247457 0.0046889917
-0.012449835 -0.010970552 -0.026838556 -0.037653852 0.022970788 0.016225252 0.03518478 0.037724197
0.022630744 0.015415058 -0.070373535 -0.020969776 -0.0332356 0.0070830192 -0.052049737 0.004017855
-0.024946578 0.03281212 0.038939018 -0.019434527 0.061720654 -0.0023299835 0.079411134 0.043671343
0.027898269 -0.020163 0.013467465 0.04126446 -0.061800398 -0.014255504 -0.037722345 0.006837313
-0.06804867 0.009935909 -0.08434443 -0.066266865 0.07021571 -0.017702911 -0.014150656 0.048504677
-0.01528966 -0.07653964 -0.092449784 -0.03980148 0.020121247 0.015646596 -0.026442677 0.017088503

fc3.bias f4 [512]
00000000: 3e0d 85bc 69b3 933d 21d0 8fbd 8f08 223c
00000010: 8cc2 fc39 7dff 3f3d fbab 4e3d e0a1 51bd
00000020: a38a d0bb d268 40bd a2c1 96bc 12e5 5dbd
00000030: 1fe8 2a3d a6b9 8ebd a4ec 2e3d ceae 51bb
00000040: 2e63 c43c f249 48bd 3274 6c3c 4341 ffbc
00000050: 9320 aebd f199 063d 732a 5ebd a30a afbd
00000060: d1a8 a0bc eedb 7abd 4dde 21bd 1f10 c2bd
00000070: 1ab1 82bd 1cd6 bbbc 384f 453d 1fd5 e23a
00000080: 7458 a0bd 2a11 7e3b def4 3bbd f392 50bd
00000090: 57a5 d33c 4694 0cbd d251 a5bd a2e0 bfbc
000000a0: eac6 82bc 917a 8e3c 6181 6c3d b96f a0bd
000000b0: 9450 bb3c 432a 85bb 3e08 943c f3f3 383c
000000c0: 700f 4cbc de13 39bd dc06 023c f0d9 8b3d
000000d0: 03bb 05bd 343e 523c e4ca afbd 4c2a 2ebc
000000e0: f595 223d fe71 193d 7cec a73b 483b 0a3d
000000f0: b892 313c de9b 32bd 9996 59bd 39d7 dcbc
00000100: 1cfd e73c e9f9 8cbd 4355 8abd f6bc 66bd
00000110: e896 413c a5c6 9bbd fcb1 363d 5e82 2a3a
00000120: 0caf 863d b2a7 d13c 880c 7f3c fded f13c
00000130: 1338 85bd 194f b13c f765 0a3d 965f 8c3d
00000140: 7f17 98bd 7864 f3bc 0bb3 0dbd 9c08 be3b
00000150: 5472 c03c ef84 193d 6f1a 0f3c 21d9 1abd
00000160: f0eb 963c 7cbd 94bd 0bfc 61bd 0b85 393b
00000170: 2d24 09bc b08d b2ba a28e 4e3d e3a0 aabd
00000180: 3611 5abc a2e4 86bc 3281 d2bc ff85 51bd
00000190: 4e73 19bd b747 5dbd 46b4 273d c125 b33d
000001a0: e326 c93b f1c4 97bc fd82 5a3d 6c1e 6fba
000001b0: b0e9 b53d b034 c93c 7a79 003d e918 c8bd
000001c0: 5c4d 7abc 2f80 c4bd 5cbf b8bd 62a1 0c3c
000001d0: 27b5 a3bd c7b2 9dbd 3d33 a2bd ffd9 e53b
000001e0: 786c c5ba 5d5a 683d 97c9 60bd 6d0f 393d
000001f0: d9e3 6dbd 4d09 4f3c 46c5 06bd 2ebd 7a3b
00000200: f96b c7bc 3297 2bbd b19c d1bb a4e6 53bd
00000210: c6c3 ad3b ae97 db3c 2b62 79bd d57b a7bc
00000220: ac29 45bd 8796 8dbc f50b f2bc 405b 473d
00000230: 7f8e a53d c5ef 2f3c ffa8 9bbb 5d90 75bd
00000240: 5c43 763b 5f43 59bc 338f 70bc f845 82bc
00000250: dde1 a53c 6d2f d7bc 3dc2 353c cb15 40bd
00000260: 827c f73c a3c6 253c 26c2 09bd c55a d8bc
00000270: b7e9 96bd 23a7 52bc 9a90 a3bc ef64 3abc
00000280: 8bd9 a63c 8834 24bc faa7 03bd 4968 ffbb
00000290: ef35 f5bc f554 20bd 4009 203d f75a 003d
000002a0: 94dd dcbc a354 263c 1bbb 003c ca7a eebc
000002b0: 7978 9a3b 19c7 a73c 5bcb 86bd 1fcf cebb
000002c0: 03f0 d8bc 29af 8bbd 0e51 87bd 845e e53b
000002d0: b083 263d 31d6 68bd 0498 96bc 7715 6dbd
000002e0: d9a7 ec3c abd4 32bb 7e9f afbc 4e1c 36bd
000002f0: bed4 84bc c111 843d ec21 f63c 1b57 73bd
00000300: 42ab 76bc 00d2 a0bc d784 d7bc 73a9 203d
00000310: 6762 82bd 6b9f 073d db34 2f3c 8444 e33c
00000320: 0d23 12bd 6d9c c0bc 1199 e4bc aff1 3e39
00000330: ad2e 7a3c 1cba 243d 72d7 94bd b54d 91bd
00000340: 7b6b 1bbd 28ff 7ebd 31b8 7cbd 24cb debc
00000350: bc90 f73c f8f0 8a3d 26f9 3e3d 64b2 d3bc
00000360: e764 d93c 209a 973d 31fc 03bd a0c0 97bd
00000370: 8ee3 863c 6cfa 71bd 4e8d bfbc 2d10 d2bd
00000380: 227b 55bd 1324 82bd 7ec3 e6bd 8fe6 00bd
00000390: f612 e4bc e46e d23c d866 e33b 0e2e 033c
000003a0: 1f20 50bd 3b3d 9cbc 8420 833d e676 54bd
000003b0: ce66 1fbb 8b85 49bb fc59 97bd dadc 58bb
000003c0: da4b 4e3d 0a25 45bc 8953 4c3c 7ce7 643d
000003d0: ddb4 2dbd b7f1 3f3d 0393 a6bd a4f1 383c
000003e0: cd85 223d 2be0 b3bd 453b 343c 6fe1 273d
000003f0: b7d7 753d 3972 aebd 5775 50bd 1048 3ebd
-0.016241666 0.07211954 -0.07022119 0.009889736 0.00048210134 0.046874512 0.050456982 -0.051179767
-0.006364183 -0.046974964 -0.018402878 -0.054173537 0.041725274 -0.069690034 0.042706147 -0.003199506
0.023973074 -0.048898645 0.014432 -0.031159049 -0.08502307 0.032861654 -0.0542397 -0.08546951
-0.019611748 -0.061244898 -0.039518643 -0.09475731 -0.06381436 -0.022929244 0.048171252 0.0017305947
-0.07829371 0.0038767555 -0.04588782 -0.05092139 0.025835676 -0.034321092 -0.080722466 -0.023422543
-0.01596399 0.017392429 0.057740573 -0.078338094 0.022865571 -0.004063876 0.018070336 0.011288631
-0.012454852 -0.045184962 0.007936206 0.06828678 -0.03264905 0.012832213 -0.0858362 -0.010630202
0.03969379 0.037462227 0.0051246267 0.03374794 0.010838203 -0.043605678 -0.053122137 -0.026958095
0.028318934 -0.06883604 -0.06754544 -0.05633255 0.011815764 -0.07606248 0.044603333 0.00065044116
0.06576356 0.025592659 0.0155669525 0.029532427 -0.06504836 0.021644162 0.033788648 0.06854169
-0.074263565 -0.029710993 -0.034594577 0.005799366 0.023492016 0.03748029 0.00873433 -0.037804727
0.01842305 -0.07262704 -0.055172008 0.002830806 -0.008370441 -0.0013622548 0.050428994 -0.08331468
-0.0133097675 -0.016466442 -0.02569637 -0.05115318 -0.03746348 -0.05402347 0.040943407 0.08747435
0.006138669 -0.018526526 0.053347576 -0.00091216597 0.08882463 0.024561256 0.03136585 -0.09770376
-0.015277233 -0.095947616 -0.09020874 0.008583399 -0.079935364 -0.07700115 -0.07919929 0.0070145126
-0.0015062233 0.056726802 -0.05487975 0.045180727 -0.05807862 0.012636495 -0.03290298 0.0038259733
-0.024343478 -0.041892238 -0.006396853 -0.051733628 0.005302879 0.026805725 -0.060884636 -0.02044479
-0.048135445 -0.017283691 -0.029546717 0.048671007 0.080838196 0.010738318 -0.0047503705 -0.05995213
0.003757677 -0.013260691 -0.014682579 -0.015902504 0.020249302 -0.026267732 0.011093673 -0.046895783
0.030210737 0.010118159 -0.03363242 -0.02641047 -0.07368796 -0.012857231 -0.019966412 -0.0113766035
0.020367404 -0.01002229 -0.032142617 -0.007794414 -0.029932944 -0.03914352 0.03907132 0.03133675
-0.026961125 0.010152015 0.007857109 -0.029111285 0.0047140685 0.02048068 -0.06581756 -0.006311312
-0.026481634 -0.068205185 -0.06607257 0.0069997925 0.04065293 -0.056844894 -0.018383034 -0.0578818
0.02888863 -0.0027287405 -0.021438356 -0.044460587 -0.016214725 0.06448699 0.030045472 -0.059409242
-0.0150554795 -0.019631386 -0.02630846 0.0392241 -0.06366425 0.033111017 0.010693754 0.027742632
-0.03567796 -0.02351209 -0.027905019 0.00018209846 0.015269917 0.04021655 -0.072676554 -0.070948996
-0.0379443 -0.062255055 -0.061699096 -0.027196474 0.030220382 0.067842424 0.046624325 -0.0258419
0.026537372 0.07402444 -0.03222293 -0.07409787 0.016465928 -0.05907671 -0.023382809 -0.102569915
-0.05211938 -0.06354537 -0.11267756 -0.031469878 -0.027841073 0.025687642 0.00693975 0.008006586
-0.050811883 -0.019072166 0.06402686 -0.051871203 -0.002432275 -0.0030749764 -0.0739021 -0.0033090622
0.050365306 -0.012032757 0.012471088 0.055884823 -0.042408813 0.046861377 -0.08133509 0.01128808
0.039678384 -0.08782991 0.011000459 0.040986475 0.060020175 -0.0851788 -0.050893154 -0.046455443

fc4.weight f4 [3, 512]
00000000: 16f9 bcbb 8023 80bc 36d8 2dbb 2753 2e3d
00000010: 2c48 933b 151e f0bb 6d47 9cbc e182 46bd
00000020: 5aab 3b3d 7870 a33d ab4d 0bbd 07b6 0dbc
00000030: 0086 2cbc 1f9b 2e3c 6570 29bd da56 2c3d
00000040: 2125 a93c b868 3c3b 3ea6 faba 0f3c c13c
00000050: 4da5 4d3c 2ec6 053d aabd f33c 2cb7 19bc
00000060: 867a 523c 9ddc 3d3d dbf1 db3b a6cc 2bbd
00000070: cd6f 66bb c83c 723c 1dd5 ae3d e728 f439
00000080: 561e 203e 852d a2bd 12f2 f23b 8d2b 533d
00000090: 0bda d7bb 67a5 b0bb 1379 c03c d50e 003c
000000a0: a2d0 b83b 29b4 c0bc 0537 8bbb dbf8 293c
000000b0: 9ad9 803d 3c69 4c3c 875e cdbd a5da 063d
000000c0: 233f 1fbd 0316 7c3c ceaf 88ba 90e2 003d
000000d0: 63c7 51bb 9a19 c03c 35b7 34bc 22fb b9bb
000000e0: b963 5bbd 751a e93b c98f aabc db5d c5bc
000000f0: 44f3 b13b 6f91 303d 3b30 b73b fdd5 283b
00000100: a2d2 463c bf5b b83c b30d 843b be11 a0bc
00000110: 73a1 59bd 0dd6 3b3c 13d0 70bc bc76 053d
00000120: 3a5e 74bd 3a72 e43c dacc 45bd 2bb0 1bbb
00000130: 1d7c 483b a507 8a3b 07f4 8dbc 425d b03c
00000140: 1554 a43a 0c96 41bd 5d95 67ba b2be dc3a
00000150: 5bf2 f33b cd35 463c f8b8 ed3c 2d1d fbb9
00000160: d4b4 5fbb 0660 01bc 3023 6cba c5f8 f13c
00000170: 391e 283b 0def 8bbb 75e0 1c3c e428 eabc
00000180: b72c 60bc 671b 2a3d a678 773c ed3a deba
00000190: 5dc2 223c 740f c63b 4943 733d ac98 e0bc
000001a0: 54a7 633d 3c6e 27bb 6428 6b3a a0a5 9bb6
000001b0: 072a 8c3c c309 6bbc 307b 5bbb a10a 37bc
000001c0: df5d 20bc 5052 023a 4de5 2a3c 5391 89bb
000001d0: 6ea2 2c3c 17a4 f83c 1bc1 2abc 65ea b33d
000001e0: 9755 4cbb c590 58bc b0ef 873c 34d6 463b
000001f0: b231 143c 02fb cfbc 115d 543c f43f d23c
00000200: 13a0 c5ba 5655 943b d39d 3cbb 1897 363d
00000210: 55d7 25bb 50cf 77bc 6215 25bc e966 a93c
00000220: 173b 07bb cd4b f7bc 0fa6 483d 51a6 8fbb
00000230: 0f47 11bc e623 9dbc 6e97 c9bc 7b63 833c
00000240: c225 fa3b 88d3 f2bb 4899 fdbb e1e1 adbc
00000250: 0868 2b3c 6ca6 28bb 090f 233d ed52 7fbc
00000260: ffc5 b4bc 12b2 05bd 54f8 97bc 276c ac3c
00000270: 0842 353d 28f4 313c 97a7 f73b 6808 29bd
00000280: b9ea a23c d79f 193c e9c9 273c aeac 24bd
00000290: ee75 083d b75f 19bd f533 b9bb 5b4d ab3c
000002a0: 7e7a 41bc 7a88 d9ba ddaf 7dbb f50b 103b
000002b0: 1f6f afbd 11ec 2b3c dac5 9abc 9375 263c
000002c0: c09f 873d b517 2039 ecbe e3bc 71eb 9fbd
000002d0: 47e9 9dbb 6a74 25bc 6b75 87ba 59c3 b7bb
000002e0: 7676 383d cfec 863b 099e 643c 8ef0 bebc
000002f0: d6b1 19bc f564 1abb e2c7 bdbc 8d23 e03c
00000300: 738f 4dbd e26e 7a3c 670a 9abd 271b d0bc
00000310: c23a 17bb 0a84 5d3c 567b f53c 7879 e2bc
00000320: 12e9 05bd 1acf cc3b 2d55 9ebc 13ee d6bc
00000330: df45 8d3b ab3e 0abd 2d23 60bb 7539 9aba
00000340: 367e 0a3d e71f fabc 0e8a 9a3a cdf0 2abb
00000350: e0ff dabc a78c 09bd b3f7 143c 1ea8 773d
00000360: cb15 013d 1d1c dbbb b276 99bc 9f80 9abb
00000370: aaa8 e53d a8fc d0bd 6b4c b63c 0511 323b
00000380: 8a40 85bb f2df 06bc 3e81 d4bc 16e6 363d
00000390: cc9c 35bd 8f73 763b e47a d9bb cbe1 9a3c
000003a0: 7d38 213d 6bbc 43bc 7b41 02bd e854 e2ba
000003b0: 79f9 61bd 4b93 b0bc 4acf a5bc 049a 1fbc
000003c0: ea30 3e3c 4cb9 9abc 50b3 5d3d effe 873b
000003d0: 1708 22bc 52ca 903c 9363 c73c 13f9 abbb
000003e0: 503b 67bc c8d5 ac3c 26b3 343b 3a54 3b3c
000003f0: 0f75 023d 5eb0 bd3a 148b 3a3c bc1c 80bc
-0.005766998 -0.015641928 -0.0026526577 0.04255977 0.0044946875 -0.007327805 -0.019077027 -0.04846466
0.04581771 0.07980436 -0.034009617 -0.008649356 -0.010529995 0.010657101 -0.041366953 0.042075016
0.020647587 0.002874894 -0.001912303 0.023588208 0.012551618 0.032659702 0.029753525 -0.0093820505
0.012846595 0.04635297 0.006712181 -0.041943215 -0.0035161853 0.014784999 0.08536742 0.0004656978
0.15636572 -0.079188384 0.007414111 0.051555205 -0.006587272 -0.0053908112 0.023495233 0.007816036
0.0056401053 -0.023523407 -0.004248502 0.010374273 0.06291504 0.012476262 -0.10027795 0.03292336
-0.03887857 0.015386107 -0.001042837 0.031466067 -0.0032009713 0.023449708 -0.011030008 -0.0056756893
-0.0535619 0.0071137496 -0.020820515 -0.024092605 0.005430611 0.043107446 0.0055904663 0.0025762313
0.01213518 0.022504685 0.0040299534 -0.01953971 -0.053132486 0.011464608 -0.014698046 0.032583937
-0.059660174 0.027886499 -0.048291065 -0.0023756127 0.0030591555 0.004212337 -0.017328275 0.021528844
0.0012537265 -0.047262236 -0.00088342075 0.00168415 0.0074446625 0.012097788 0.029018864 -0.00047896188
-0.0034134882 -0.007896429 -0.0009007929 0.029537568 0.002565278 -0.0042704404 0.009574999 -0.028583951
-0.013682536 0.04153004 0.015104448 -0.0016954817 0.009934035 0.0060443226 0.05939034 -0.02741655
0.0555795 -0.0025547883 0.0008970557 -4.6386413e-06 0.017109884 -0.014345589 -0.0033490174 -0.011171968
-0.009788006 0.0004971372 0.010430646 -0.004198232 0.010536773 0.030351682 -0.0104220165 0.087849416
-0.0031178945 -0.0132181095 0.016593784 0.0030340077 0.009045051 -0.025388245 0.012961642 0.02566526
-0.0015077613 0.0045267744 -0.0028780594 0.044577688 -0.002530535 -0.015125111 -0.010075899 0.020678954
-0.0020634586 -0.030187512 0.04898649 -0.00438384 -0.008867039 -0.019182157 -0.02460834 0.016038647
0.0076338956 -0.0074104704 -0.00773922 -0.021225872 0.010461815 -0.002573396 0.03980926 -0.015583736
-0.022067068 -0.032640524 -0.01855103 0.021047665 0.044252425 0.010861434 0.00755782 -0.041267782
0.019887315 0.009376488 0.01024101 -0.040203743 0.03331559 -0.037444796 -0.0056519457 0.02091091
-0.01180899 -0.0016596459 -0.003870956 0.0021979783 -0.085661165 0.010493294 -0.018893171 0.010159868
0.06622267 0.0001526762 -0.027801 -0.07808579 -0.0048190686 -0.010098556 -0.0010334676 -0.005608004
0.04503485 0.0041175853 0.013953694 -0.023308065 -0.009380778 -0.002355871 -0.0231666 0.027360702
-0.050185632 0.015285226 -0.07521515 -0.025403572 -0.0023075794 0.01352025 0.029966038 -0.027645811
-0.032692976 0.0062502744 -0.019327724 -0.02623657 0.004311308 -0.03375117 -0.0034200654 -0.0011766391
0.03381177 -0.03053279 0.0011790411 -0.002608347 -0.026733339 -0.033581402 0.009092259 0.060463063
0.031514924 -0.006686701 -0.018733356 -0.00471504 0.11213811 -0.1020444 0.022253236 0.002717079
-0.0040665315 -0.008232104 -0.025940534 0.04465302 -0.044338986 0.00376055 -0.006636964 0.018906495
0.039360512 -0.011946778 -0.03180073 -0.0017267736 -0.055169556 -0.02155461 -0.020240445 -0.00974131
0.011608342 -0.018887185 0.054126084 0.0041502635 -0.009889624 0.017674599 0.024339473 -0.005248198
-0.014113262 0.021098033 0.00275726 0.011433655 0.031849917 0.0014472117 0.011385698 -0.015638702

fc4.bias f4 [3]
00000000: 5c22 19bc 113d 163c 5589 4ab8
-0.009346571 0.009169833 -4.8288453e-05
